pretrained/cacle_model.pth (torch, 317245 bytes, 82 tensors)

Decoupling.query.weight f4 [96, 10]
00000000: 1398 0000 94ae 0080 e64b 0000 6591 0000
00000010: efa4 0080 1fa7 0080 4b8a 0000 0389 0000
00000020: ee88 0000 368c 0000 3c8e 0000 0b8e 0080
00000030: ba8f 0000 f389 0080 a68d 0080 a28b 0080
00000040: d889 0000 ba88 0080 9f89 0080 e27d 0180
00000050: 188d 0000 e989 0000 7690 0000 568a 0080
00000060: 6193 0000 275c 0000 728a 0000 448a 0080
00000070: 878a 0080 d993 0000 35a1 0000 b88c 0080
00000080: f48c 0080 598b 0000 338c 0080 2795 0080
00000090: df8a 0080 84a9 0000 6264 0100 db92 0000
000000a0: 858a 0000 958e 0080 1a91 0000 2f98 0080
000000b0: c28e 0000 e7a9 0000 5c8d 0000 658d 0000
000000c0: b68b 0000 4b8b 0080 0be4 0300 0c15 0080
000000d0: 0e8c 0080 868d 0080 078f 0080 2da6 0000
000000e0: bc8f 0000 3790 0000 a6ac 0200 8d8b 0080
000000f0: c78c 0000 c993 0080 ec8b 0000 a98c 0080
00000100: 9e8c 0000 2e8c 0000 db88 0080 c088 0000
00000110: b88c 0000 0596 0000 d688 0080 278b 0080
00000120: 5a8c 0000 56a9 0000 a08a 0000 b590 0080
00000130: a88b 0000 4e8a 0080 2a8a 0080 878a 0080
00000140: c689 0080 8989 0000 31d2 0180 478b 0000
00000150: 6989 0000 668b 0080 b889 0000 1199 0080
00000160: a798 0000 60a7 0000 9aa4 0080 fb8f 0000
00000170: b98a 0000 e988 0080 618c 0000 9089 0080
00000180: 8c89 0080 fa88 0080 589e 0080 f593 0080
00000190: a49b 0000 1889 0000 ef96 0080 bfae 0080
000001a0: 1b8c 0000 548a 0000 0189 0080 e88d 0000
000001b0: e01a 0280 138a 0080 4d8a 0000 ba9a 0000
000001c0: f68e 0000 6190 0080 bfa2 0080 ae8c 0080
000001d0: 8e92 0000 08ab 0080 138e 0080 7289 0000
000001e0: ee8c 0000 5a9b 0080 ed89 0080 368e 0080
000001f0: 0d8b 0080 9e94 0080 0b8d 0000 ea89 0080
00000200: a690 0000 e088 0000 7a8b 0000 348e 0080
00000210: 3395 0000 bc93 0000 3ca9 0080 098f 0080
00000220: de89 0080 329e 0000 1895 0080 5390 0000
00000230: 5d36 0500 ab8e 0000 748c 0000 eb90 0000
00000240: fc88 0000 869b 0080 929c 0080 461e 0080
00000250: 618b 0080 af89 0080 4090 0000 568f 0000
00000260: a9fc 0100 3589 0000 5493 0080 e188 0080
00000270: 6590 0080 a08b 0080 ae8c 0080 9e8a 0000
00000280: 138a 0000 2a8d 0000 fd9b 0080 e189 0080
00000290: 098a 0000 3d8e 0080 7fff 0280 5a8c 0080
000002a0: 4f93 0080 4f91 0080 1991 0080 1197 0080
000002b0: c3b6 0100 a48e 0000 4689 0000 b394 0000
000002c0: 4889 0000 0189 0000 929c 0080 f488 0080
000002d0: 098f 0000 188b 0000 2d8a 0000 e988 0080
000002e0: b29c 0080 628b 0000 7b89 0000 8c98 0080
000002f0: 018e 0080 f988 0080 fe8c 0080 ef8c 0000
00000300: 478c 0080 f88a 0080 5f96 0000 9e9a 0080
00000310: eeae 0080 328e 0080 b791 0000 d49e 0080
00000320: f589 0000 51c7 0100 f288 0080 ee92 0080
00000330: 6b8c 0000 f288 0080 0289 0000 fe89 0000
00000340: 63a1 0000 5b8f 0000 798b 0080 fb88 0080
00000350: bb92 0080 18a0 0000 f28d 0000 ee8f 0000
00000360: eaa1 0080 e18c 0000 9295 0000 c497 0000
00000370: 97af 0080 d189 0000 bfa3 0080 428e 0080
00000380: a692 0000 fc88 0080 a89a 0000 998b 0080
00000390: 4b90 0080 338e 0000 3791 0000 9a8c 0000
000003a0: faa9 0000 ea88 0080 7393 0080 988b 0080
000003b0: 53ac 0000 4695 0000 778d 0000 778a 0000
000003c0: 5f90 0080 7fab 0080 5caa 0080 c98a 0080
000003d0: c288 0000 5c9f 0080 6d89 0080 2c89 0000
000003e0: d18f 0080 cb8b 0000 9b8f 0080 5691 0000
000003f0: 048e 0000 259c 0000 548e 0080 fe89 0000
5.4554e-41 -6.2627e-41 2.7227e-41 5.2158e-41 -5.9167e-41 -5.9952e-41 4.961e-41 4.915e-41
4.9121e-41 5.0298e-41 5.1024e-41 -5.0955e-41 5.156e-41 -4.9487e-41 -5.0814e-41 -5.0091e-41
4.9449e-41 -4.9048e-41 -4.9369e-41 -1.36994e-40 5.0615e-41 4.9473e-41 5.1823e-41 -4.9626e-41
5.287e-41 3.3058e-41 4.9665e-41 -4.96e-41 -4.9694e-41 5.3038e-41 5.783e-41 -5.048e-41
-5.0564e-41 4.9989e-41 -5.0294e-41 -5.3506e-41 -4.9818e-41 6.0811e-41 1.27846e-40 5.2682e-41
4.9691e-41 -5.1149e-41 5.2053e-41 -5.4593e-41 5.1212e-41 6.095e-41 5.071e-41 5.0723e-41
5.0119e-41 -4.9969e-41 3.57313e-40 -7.55e-42 -5.0242e-41 -5.0769e-41 -5.1309e-41 5.9613e-41
5.1562e-41 5.1735e-41 2.45606e-40 -5.0061e-41 5.0501e-41 -5.3015e-41 5.0195e-41 -5.046e-41
5.0444e-41 5.0287e-41 -4.9094e-41 4.9057e-41 5.048e-41 5.3817e-41 -4.9087e-41 -4.9918e-41
5.0349e-41 6.0746e-41 4.9729e-41 -5.1911e-41 5.0099e-41 -4.9614e-41 -4.9564e-41 -4.9694e-41
-4.9424e-41 4.9338e-41 -1.67238e-40 4.9963e-41 4.9293e-41 -5.0007e-41 4.9404e-41 -5.491e-41
5.4761e-41 6.0043e-41 -5.9048e-41 5.165e-41 4.9764e-41 -4.9114e-41 5.0358e-41 -4.9348e-41
-4.9343e-41 -4.9138e-41 -5.6803e-41 -5.3077e-41 5.5833e-41 4.918e-41 -5.4145e-41 -6.2687e-41
5.026e-41 4.9623e-41 -4.9148e-41 5.0906e-41 -1.93312e-40 -4.9532e-41 4.9613e-41 5.5505e-41
5.1285e-41 -5.1793e-41 -5.8382e-41 -5.0466e-41 5.2574e-41 -6.1354e-41 -5.0967e-41 4.9306e-41
5.0556e-41 -5.573e-41 -4.9478e-41 -5.1016e-41 -4.9882e-41 -5.3314e-41 5.0597e-41 -4.9474e-41
5.189e-41 4.9101e-41 5.0035e-41 -5.1013e-41 5.3523e-41 5.2997e-41 -6.071e-41 -5.1311e-41
-4.9457e-41 5.675e-41 -5.3485e-41 5.1774e-41 4.7868e-40 5.118e-41 5.0385e-41 5.1987e-41
4.9141e-41 -5.5791e-41 -5.6167e-41 -1.086e-41 -5e-41 -4.9392e-41 5.1747e-41 5.1419e-41
1.82473e-40 4.922e-41 -5.2851e-41 -4.9103e-41 -5.1799e-41 -5.0088e-41 -5.0466e-41 4.9726e-41
4.9532e-41 5.064e-41 -5.5958e-41 -4.9462e-41 4.9518e-41 -5.1025e-41 -2.75326e-40 -5.0349e-41
-5.2844e-41 -5.2127e-41 -5.2051e-41 -5.4192e-41 1.57398e-40 5.117e-41 4.9244e-41 5.3343e-41
4.9247e-41 4.9148e-41 -5.6167e-41 -4.913e-41 5.1311e-41 4.9897e-41 4.9568e-41 -4.9114e-41
-5.6212e-41 5.0001e-41 4.9319e-41 -5.4724e-41 -5.0941e-41 -4.9137e-41 -5.0578e-41 5.0557e-41
-5.0322e-41 -4.9853e-41 5.3943e-41 -5.5466e-41 -6.2753e-41 -5.101e-41 5.2273e-41 -5.6977e-41
4.949e-41 1.63337e-40 -4.9127e-41 -5.2708e-41 5.0372e-41 -4.9127e-41 4.9149e-41 4.9502e-41
5.7895e-41 5.1426e-41 -5.0033e-41 -4.914e-41 -5.2637e-41 5.7431e-41 5.092e-41 5.1632e-41
-5.8084e-41 5.0538e-41 5.3656e-41 5.4443e-41 -6.299e-41 4.9439e-41 -5.8741e-41 -5.1032e-41
5.2608e-41 -4.9141e-41 5.548e-41 -5.0078e-41 -5.1763e-41 5.1011e-41 5.2093e-41 5.0438e-41
6.0976e-41 -4.9116e-41 -5.2895e-41 -5.0077e-41 6.1818e-41 5.3549e-41 5.0748e-41 4.9672e-41
-5.179e-41 -6.1521e-41 -6.1113e-41 -4.9787e-41 4.906e-41 -5.7167e-41 -4.9299e-41 4.9208e-41
-5.1592e-41 5.0148e-41 -5.1516e-41 5.2137e-41 5.0946e-41 5.6014e-41 -5.1058e-41 4.9502e-41

Decoupling.query.bias f4 [96]
00000000: 6c89 0000 c388 0000 9a8b 0000 a399 0000
00000010: 778c 0080 da8d 0000 8556 0200 c088 0000
00000020: 5c8d 0080 0297 0080 4189 0000 0489 0080
00000030: a09f 0000 f288 0000 bc88 0000 fc8f 0000
00000040: 7c89 0080 4389 0000 418a 0080 208b 0080
00000050: 6a49 0280 ad8a 0080 fba5 0000 008f 0000
00000060: 1592 0080 f2ad 0000 638d 0080 4394 0080
00000070: 0f89 0000 5d89 0080 ce94 0000 948d 0080
00000080: 6589 0080 308b 0300 a5ab 0000 5b8e 0080
00000090: 549f 0000 0ca0 0000 fb93 0000 5d52 0180
000000a0: 9d91 0080 7797 0000 468b 0000 0da5 0000
000000b0: 268b 0000 658c 0080 4c8b 0000 c98c 0080
000000c0: 108b 0000 6a89 0000 54a0 0080 e18b 0000
000000d0: e88a 0080 7297 0080 1989 0080 ee88 0080
000000e0: 0287 0000 bc8b 0080 fca1 0000 e08d 0080
000000f0: 1289 0000 2aa1 0480 3d95 0000 36a1 0000
00000100: 428a 0080 ad8b 0000 ff8a 0080 cb89 0000
00000110: 04a2 0000 dd88 0080 998d 0080 3d8c 0080
00000120: ce89 0080 ab8c 0080 ee88 0000 2f8b 0000
00000130: 738e 0000 f793 0080 088b 0080 8189 0080
00000140: dc88 0080 7c8d 0000 bb8d 0000 f889 0000
00000150: 2073 0100 fda0 0080 218c 0000 4a8f 0080
00000160: 4da7 0000 f190 0080 a68d 0080 ce9c 0080
00000170: 238a 0080 d18f 0080 3a8f 0080 57a4 0000
4.9298e-41 4.9061e-41 5.008e-41 5.5114e-41 -5.0389e-41 5.0887e-41 2.14708e-40 4.9057e-41
-5.071e-41 -5.4171e-41 4.9237e-41 -4.9152e-41 5.7263e-41 4.9127e-41 4.9051e-41 5.1652e-41
-4.932e-41 4.924e-41 -4.9596e-41 -4.9909e-41 -2.10007e-40 -4.9747e-41 5.9543e-41 5.1299e-41
-5.2404e-41 6.24e-41 -5.072e-41 -5.3186e-41 4.9167e-41 -4.9277e-41 5.3381e-41 -5.0789e-41
-4.9288e-41 3.25438e-40 6.1574e-41 -5.1068e-41 5.7156e-41 5.7414e-41 5.3085e-41 -1.21382e-40
-5.2236e-41 5.4335e-41 4.9962e-41 5.9209e-41 4.9917e-41 -5.0364e-41 4.997e-41 -5.0504e-41
4.9886e-41 4.9295e-41 -5.7515e-41 5.0179e-41 -4.983e-41 -5.4328e-41 -4.9181e-41 -4.9121e-41
4.8432e-41 -5.0127e-41 5.8109e-41 -5.0895e-41 4.9172e-41 -4.25157e-40 5.3537e-41 5.7832e-41
-4.9598e-41 5.0106e-41 -4.9862e-41 4.9431e-41 5.812e-41 -4.9097e-41 -5.0796e-41 -5.0308e-41
-4.9435e-41 -5.0462e-41 4.9121e-41 4.993e-41 5.1101e-41 -5.308e-41 -4.9875e-41 -4.9327e-41
-4.9096e-41 5.0755e-41 5.0843e-41 4.9494e-41 1.33135e-40 -5.7752e-41 5.0269e-41 -5.1402e-41
6.0016e-41 -5.1995e-41 -5.0814e-41 -5.6251e-41 -4.9554e-41 -5.1592e-41 -5.138e-41 5.8954e-41

Decoupling.key.weight f4 [96, 10]
00000000: f1a8 0080 c19b 0000 4d8a 0080 c0a9 0080
00000010: 5991 0000 308b 0080 ba8b 0080 298c 0000
00000020: 55ae 0080 1898 0080 749c 0080 d889 0000
00000030: c3a0 0000 e68a 0000 7b89 0080 a7ad 0000
00000040: a28a 0080 8f99 0000 ed52 0380 f289 0000
00000050: 7e89 0080 b09d 0000 93a3 0000 a98f 0080
00000060: 5893 0000 d89f 0000 cd88 0080 f38a 0000
00000070: fb8a 0000 738c 0000 f099 0000 8a8b 0080
00000080: e0a1 0000 581f 0000 aba0 0080 3790 0000
00000090: fe8a 0080 6658 0300 a195 0080 c98e 0000
000000a0: a58a 0080 248c 0080 6591 0000 6a9b 0000
000000b0: e98b 0000 438d 0000 5a90 0080 c588 0000
000000c0: 1f94 0080 3591 0080 0d92 0080 8b8b 0080
000000d0: 63a5 0080 5e8f 0000 12af 0000 7a8a 0000
000000e0: 91a4 0000 3299 0080 068a 0000 f38f 0000
000000f0: a48f 0080 2789 0000 8c8a 0080 3589 0080
00000100: a28a 0000 5089 0000 cc9b 0080 1f8d 0000
00000110: 858c 0080 38a4 0000 7d8c 0000 388d 0080
00000120: 538a 0080 cea6 0000 d494 0000 888a 0080
00000130: b789 0000 ca93 0000 958e 0080 8582 0000
00000140: d789 0080 6f89 0080 788c 0000 3997 0000
00000150: cead 0000 2c94 0000 d5a1 0000 9191 0080
00000160: eb8a 0000 aa8d 0080 148d 0000 919a 0000
00000170: 2989 0000 259f 0080 8e1d 0080 f49a 0000
00000180: 598c 0000 718b 0000 b89c 0080 208b 0080
00000190: d78d 0080 ed8b 0080 7b8b 0080 d3a1 0080
000001a0: 3da9 0080 bc94 0080 a98a 0080 8390 0000
000001b0: 4689 0080 73ac 0000 11a8 0080 c58c 0000
000001c0: f492 0080 0395 0000 5090 0080 588f 0080
000001d0: 9a8b 0000 50a8 0080 be9f 0000 f588 0080
000001e0: 59a5 0000 f8ad 0080 2392 0080 248b 0080
000001f0: 3e41 0180 d49b 0000 1089 0080 419f 0000
00000200: a98b 0000 7a98 0080 dd8f 0080 b489 0080
00000210: dd88 0080 d2ab 0080 7fab 0000 50a7 0080
00000220: bb89 0080 a3a4 0080 c1a4 0000 7889 0080
00000230: 768c 0080 e390 0080 868c 0080 d894 0080
00000240: 3690 0080 5ea8 0000 e08a 0000 8ca2 0200
00000250: 5b94 0080 a88e 0000 7b8c 0080 a68d 0080
00000260: bf8b 0080 508d 0000 7e8c 0000 868b 0080
00000270: ce88 0000 7098 0000 838c 0080 fd96 0080
00000280: 388b 0000 d789 0000 3089 0080 c2a1 0000
00000290: 08c1 0100 4b8e 0080 b090 0080 35ac 0000
000002a0: fe8f 0000 658a 0000 e088 0000 0291 0080
000002b0: 778a 0080 5c89 0000 5aa0 0000 9987 0000
000002c0: 1689 0000 628a 0000 d791 0000 5889 0000
000002d0: b490 0080 e19a 0000 018c 0000 5e8d 0080
000002e0: e08b 0000 ac8d 0000 04a3 0000 9c8b 0080
000002f0: 708b 0000 7a9b 0080 6d9d 0000 1689 0080
00000300: 8089 0000 148a 0080 aa8d 0080 258d 0080
00000310: 888b 0080 d688 0000 b18d 0080 728b 0080
00000320: f8ab 0080 5c89 0080 1c8d 0080 968e 0000
00000330: c98d 0080 f790 0080 3f89 0080 898b 0000
00000340: 0892 0080 1f8b 0000 ee88 0000 2d90 0080
00000350: 1791 0080 3daa 0000 d588 0000 f98d 0080
00000360: 1190 0080 ee94 0000 fe98 0000 58db 0280
00000370: e38a 0000 b1ac 0080 8f8d 0000 2089 0000
00000380: 0d8b 0080 fd8f 0000 298f 0000 b590 0000
00000390: 418e 0080 4a95 0080 018a 0080 d088 0080
000003a0: 928b 0000 8e8b 0080 718f 0080 af8c 0080
000003b0: 1d89 0080 ca9a 0080 898e 0000 6f8a 0000
000003c0: 3162 0080 e688 0000 318c 0000 b88d 0000
000003d0: 668a 0000 5993 0000 a58a 0000 be8f 0000
000003e0: d9a6 0000 8d8f 0000 e693 0000 3b8f 0080
000003f0: 8e89 0000 9c8e 0000 c68a 0080 75a9 0080
-6.0605e-41 5.5874e-41 -4.9613e-41 -6.0895e-41 5.2141e-41 -4.9931e-41 -5.0124e-41 5.028e-41
-6.2539e-41 -5.4561e-41 -5.6125e-41 4.9449e-41 5.767e-41 4.9827e-41 -4.9319e-41 6.2295e-41
-4.9732e-41 5.5086e-41 -3.05255e-40 4.9485e-41 -4.9323e-41 5.6568e-41 5.868e-41 -5.1536e-41
5.2857e-41 5.7341e-41 -4.9075e-41 4.9846e-41 4.9857e-41 5.0384e-41 5.5222e-41 -5.0057e-41
5.807e-41 1.1244e-41 -5.7637e-41 5.1735e-41 -4.9861e-41 3.07218e-40 -5.3677e-41 5.1222e-41
-4.9736e-41 -5.0273e-41 5.2158e-41 5.5752e-41 5.019e-41 5.0675e-41 -5.1784e-41 4.9064e-41
-5.3136e-41 -5.209e-41 -5.2393e-41 -5.0059e-41 -5.933e-41 5.143e-41 6.2803e-41 4.9676e-41
5.9035e-41 -5.4956e-41 4.9513e-41 5.1639e-41 -5.1529e-41 4.9201e-41 -4.9701e-41 -4.922e-41
4.9732e-41 4.9258e-41 -5.589e-41 5.0625e-41 -5.0409e-41 5.891e-41 5.0398e-41 -5.066e-41
-4.9621e-41 5.9838e-41 5.339e-41 -4.9696e-41 4.9403e-41 5.3017e-41 -5.1149e-41 4.6822e-41
-4.9448e-41 -4.9302e-41 5.039e-41 5.4248e-41 6.235e-41 5.3154e-41 5.8054e-41 -5.222e-41
4.9834e-41 -5.082e-41 5.0609e-41 5.5448e-41 4.9204e-41 -5.709e-41 -1.0602e-41 5.5587e-41
5.0347e-41 5.0022e-41 -5.622e-41 -4.9909e-41 -5.0883e-41 -5.0196e-41 -5.0036e-41 -5.8052e-41
-6.0711e-41 -5.3356e-41 -4.9742e-41 5.1841e-41 -4.9244e-41 6.1863e-41 -6.0291e-41 5.0499e-41
-5.2717e-41 5.3455e-41 -5.177e-41 -5.1422e-41 5.008e-41 -6.0379e-41 5.7305e-41 -4.9131e-41
5.9316e-41 -6.2408e-41 -5.2424e-41 -4.9914e-41 -1.1524e-40 5.59e-41 -4.9169e-41 5.713e-41
5.01e-41 -5.4698e-41 -5.1608e-41 -4.9399e-41 -4.9097e-41 -6.1638e-41 6.1521e-41 -6.002e-41
-4.9408e-41 -5.906e-41 5.9103e-41 -4.9314e-41 -5.0388e-41 -5.1976e-41 -5.041e-41 -5.3395e-41
-5.1733e-41 6.0399e-41 4.9819e-41 2.41982e-40 -5.322e-41 5.1175e-41 -5.0395e-41 -5.0814e-41
-5.0131e-41 5.0693e-41 5.0399e-41 -5.0052e-41 4.9076e-41 5.4684e-41 -5.0406e-41 -5.4164e-41
4.9942e-41 4.9448e-41 -4.9214e-41 5.8028e-41 1.61082e-40 -5.1045e-41 -5.1904e-41 6.1776e-41
5.1655e-41 4.9647e-41 4.9101e-41 -5.2019e-41 -4.9672e-41 4.9275e-41 5.7523e-41 4.8643e-41
4.9177e-41 4.9642e-41 5.2317e-41 4.927e-41 -5.191e-41 5.556e-41 5.0224e-41 -5.0713e-41
5.0178e-41 5.0822e-41 5.8479e-41 -5.0082e-41 5.0021e-41 -5.5774e-41 5.6474e-41 -4.9177e-41
4.9326e-41 -4.9533e-41 -5.082e-41 -5.0633e-41 -5.0054e-41 4.9087e-41 -5.0829e-41 -5.0024e-41
-6.1691e-41 -4.9275e-41 -5.062e-41 5.115e-41 -5.0863e-41 -5.2004e-41 -4.9235e-41 5.0056e-41
-5.2386e-41 4.9907e-41 4.9121e-41 -5.172e-41 -5.2048e-41 6.107e-41 4.9086e-41 -5.093e-41
-5.1681e-41 5.3426e-41 5.4883e-41 -2.62357e-40 4.9823e-41 -6.195e-41 5.0782e-41 4.9191e-41
-4.9882e-41 5.1653e-41 5.1356e-41 5.1911e-41 -5.1031e-41 -5.3555e-41 -4.9506e-41 -4.9079e-41
5.0068e-41 -5.0063e-41 -5.1457e-41 -5.0468e-41 -4.9187e-41 -5.5528e-41 5.1132e-41 4.966e-41
-3.5224e-41 4.911e-41 5.0291e-41 5.0839e-41 4.9648e-41 5.2858e-41 4.9736e-41 5.1565e-41
5.9854e-41 5.1496e-41 5.3056e-41 -5.1381e-41 4.9345e-41 5.1159e-41 -4.9783e-41 -6.079e-41

Decoupling.key.bias f4 [96]
00000000: 658c 0000 0da4 0080 3796 0080 558a 0000
00000010: 5ef5 0100 928c 0000 23a0 0000 a8bf 0300
00000020: 2d93 0080 048b 0080 db8f 0000 1c8a 0000
00000030: 8290 0000 6498 0080 ac8a 0000 418d 0080
00000040: d891 0000 46ab 0000 2c8c 0080 ad8e 0000
00000050: c588 0080 0797 0080 dca0 0080 358a 0000
00000060: 3c8c 0000 de91 0000 bd8c 0000 b593 0080
00000070: 2793 0000 8bab 0080 fd88 0080 af8b 0080
00000080: 8e89 0080 5489 0080 088b 0080 aa95 0000
00000090: d78a 0080 978a 0080 96a2 0000 afa2 0080
000000a0: 4090 0000 0b8f 0000 118d 0000 d188 0000
000000b0: 218b 0000 c68a 0200 688e 0080 4899 0000
000000c0: 0fac 0080 75ad 0000 6b9c 0080 f88b 0080
000000d0: 3a8a 0000 3bab 0000 448d 0000 8697 0000
000000e0: 21a3 0080 6296 0000 3da4 0080 cead 0080
000000f0: b389 0000 9892 0080 eb93 0000 6fa9 0000
00000100: 3aa9 0000 f091 0000 599e 0080 8a8c 0000
00000110: be97 0000 288d 0000 028a 0000 5441 0080
00000120: f38f 0080 8aa5 0000 908c 0080 8499 0080
00000130: d58e 0000 a29b 0000 a28d 0000 fc89 0000
00000140: e789 0080 0789 0000 d68a 0080 838c 0000
00000150: e38c 0080 c597 0080 f189 0000 4c89 0080
00000160: a48b 0000 418e 0000 828e 0000 a697 0000
00000170: 108d 0080 428d 0000 d490 0080 c891 0080
5.0364e-41 -5.885e-41 -5.3887e-41 4.9624e-41 1.79857e-40 5.0427e-41 5.7446e-41 3.4426e-40
-5.2797e-41 -4.987e-41 5.1606e-41 4.9544e-41 5.184e-41 -5.4667e-41 4.9746e-41 -5.0672e-41
5.2319e-41 6.1441e-41 -5.0284e-41 5.1182e-41 -4.9064e-41 -5.4178e-41 -5.7705e-41 4.958e-41
5.0307e-41 5.2327e-41 5.0487e-41 -5.2987e-41 5.2788e-41 -6.1538e-41 -4.9142e-41 -5.0109e-41
-4.9345e-41 -4.9264e-41 -4.9875e-41 5.369e-41 -4.9806e-41 -4.9717e-41 5.8325e-41 -5.836e-41
5.1747e-41 5.1314e-41 5.0605e-41 4.908e-41 4.991e-41 2.33454e-40 -5.1086e-41 5.4987e-41
-6.1723e-41 6.2225e-41 -5.6112e-41 -5.0211e-41 4.9586e-41 6.1426e-41 5.0677e-41 5.4356e-41
-5.852e-41 5.3947e-41 -5.8918e-41 -6.235e-41 4.9397e-41 -5.2588e-41 5.3063e-41 6.0781e-41
6.0707e-41 5.2353e-41 -5.6804e-41 5.0416e-41 5.4435e-41 5.0637e-41 4.9508e-41 -2.3435e-41
-5.1639e-41 5.9384e-41 -5.0424e-41 -5.5071e-41 5.1238e-41 5.583e-41 5.0808e-41 4.95e-41
-4.947e-41 4.9156e-41 -4.9805e-41 5.0406e-41 -5.054e-41 -5.4445e-41 4.9484e-41 -4.9253e-41
5.0094e-41 5.1031e-41 5.1122e-41 5.4401e-41 -5.0604e-41 5.0674e-41 -5.1955e-41 -5.2296e-41

Decoupling.value.weight f4 [96, 10]
00000000: 3105 1439 b301 f0b5 4dab b4b7 2fa7 75b7
00000010: 762e 60b6 6f1b 19b8 17e1 16b8 d703 17bb
00000020: 1189 afbc 8726 123b 2f38 8439 32c2 50b8
00000030: d5da 81b8 450c ddb7 8f86 a0b3 ab26 e8b8
00000040: 9c80 feb9 a8f6 c9bb 4124 bbbd d96a 633d
00000050: 1179 0f39 2470 e8b7 37d9 48b8 2b13 4a39
00000060: 19a9 8fb3 3245 27b9 63c4 f6b9 f790 70bc
00000070: 6134 00be bb83 2cbe 2082 cb36 ee8d 5c36
00000080: ec8c 85b7 1c5a 2038 3f65 5d34 dadf 0438
00000090: e20c 4037 7599 963b b5a3 0f3e dccd d93c
000000a0: 887e ea39 ff0c 5b37 1fc3 15b9 0287 a2b9
000000b0: d0e1 fb33 01fe 99b9 f287 06b9 dfcd b6bc
000000c0: 0f22 71be 9f9d 263e 8b82 d7b9 2e87 0cb7
000000d0: 906a dc38 9ee8 e038 ccb0 1434 9096 3739
000000e0: 26ab 0939 5fdd 673c a5b3 1e3e 4249 7bbd
000000f0: cc86 c1b8 3735 b5b6 f97c 6137 4e2b 1338
00000100: e16c 1434 2727 fa38 bf3a 9d38 993c 4a3c
00000110: 78da dd3d acb1 9a3d 8b44 e7b8 f767 4535
00000120: e892 59b7 e294 5db9 0378 9034 7ce7 0839
00000130: 288d 9c38 f5f9 523c 09bc da3d 4718 b23d
00000140: 04b8 aa37 020a 9f36 41b4 e1b7 7553 ea36
00000150: 677b 2534 a49d edb5 11a0 91b7 f539 9c39
00000160: bb2a e53d a34e 313e 5a29 b2b8 eb6b 11b6
00000170: 2052 7937 62ea 8436 db12 56b3 f0bd a9b7
00000180: 277c cdb8 2f1c 41bb 5f87 24bd e4e2 46bd
00000190: 59c0 90b9 5d27 aeb6 c9cc a238 f300 7139
000001a0: d017 e436 c7b6 c136 e92d 3f3a c19c 8f3c
000001b0: f1d4 cf3d a4f2 2f3c 7cca 2b38 0954 e035
000001c0: 7b01 1ab7 39c6 bc36 a6c2 2833 ebd4 89b7
000001d0: 70c9 abb5 c8dd 0538 862e c6bd a059 52bc
000001e0: 419e 96b8 d516 cbb5 b96c 0037 a756 0038
000001f0: ec8f 8e33 2d82 7836 cbf5 1438 79ba 313b
00000200: 0fb7 48be ed73 a9bd f058 2039 66fe 1e36
00000210: 0a59 06b8 3b0c 70b8 37d1 7db5 2c19 c0b8
00000220: 0317 5eb9 1ee3 f2bb 932c a5bd 2673 4b3d
00000230: 0be2 cab9 5ad8 c3b6 b36c 3939 eb55 1639
00000240: 5deb ad35 bf49 e638 c62b bb39 693a 1b3c
00000250: ee35 ab3d fae1 a93c 6102 3ab9 9109 9637
00000260: cf88 0b39 90f3 c237 ccf7 0035 7e84 a838
00000270: 5faf 3039 cc77 d23b 4194 f93d abbf 163d
00000280: b5c7 d0b9 0a08 2eb7 49d9 a038 e4c5 e937
00000290: afcb 6036 0ece 3639 2f6b d338 172b 1f3c
000002a0: 8ffd b43d 302e f9bd aa3b 9239 cd65 8b34
000002b0: 12a4 9fb8 6020 99b8 1f33 86b7 41e0 20b9
000002c0: 4d10 10b9 2486 81bc 85d1 1ebe fb5a bd3c
000002d0: 97a1 a139 7f5e f936 fe1c a2b8 0261 0bb9
000002e0: 5666 85b4 2925 0eb9 6159 1db9 df0f 62bc
000002f0: b91c 6abd 8dab 0dbe 3da5 ccb9 824e 47b7
00000300: 2c1e c838 1aeb 3538 aaac c433 da54 7839
00000310: 8990 0d39 9599 833c 5f25 0e3e 5e9e 22be
00000320: 829e 1537 8ae0 28b7 c18e b9b6 2834 8a35
00000330: 17d9 c331 71e9 84b7 e520 73b8 c2eb 00bb
00000340: 64ad f3bc 1239 75bd 248f 9e39 bc35 1138
00000350: 7bbf d8b8 e6ec e338 2c4c 28b3 df01 4ab9
00000360: 68f3 77b9 6a2b 3abc eca7 51be 58f8 353e
00000370: d3d8 b2b9 40a6 c1b6 81cd 7d38 cf21 3d37
00000380: daa8 98b3 420e fe38 4c01 a538 7a31 d33b
00000390: e1e9 aa3d 8986 0fbe c42f 93b8 4197 61b5
000003a0: 5b90 4237 c494 1436 e455 18b5 4a7b 6bb7
000003b0: eb48 20b9 a281 aebb dba2 cb3c 6cbb 07be
000003c0: d8b2 dfb9 3a57 1ab7 3261 b938 6a5b 7f38
000003d0: ac55 cc33 ec6f 2839 82a5 d438 329d 723c
000003e0: bca4 343e dcfa 30bd 1ca6 aeb9 f91a 3137
000003f0: bff8 5b38 e479 5737 dcdd 7db3 d159 5438
0.00014116314 -1.7881888e-06 -2.153744e-05 -1.4642063e-05 -3.3405645e-06 -3.6503592e-05 -3.5972418e-05 -0.002304306
-0.021427663 0.0022300796 0.00025218862 -4.9771923e-05 -6.19196e-05 -2.6350966e-05 -7.475057e-08 -0.000110698245
-0.00048542477 -0.006163437 -0.09137774 0.05552182 0.00013682643 -2.7708775e-05 -4.7886013e-05 0.00019271362
-6.689715e-08 -0.00015952138 -0.00047067096 -0.014683 -0.12519981 -0.16847126 6.06502e-06 3.2865169e-06
-1.5920457e-05 3.8230894e-05 2.0619062e-07 3.167973e-05 1.1447091e-05 0.00459593 0.14027293 0.02658742
0.0004472623 1.3056443e-05 -0.00014282436 -0.00030999637 1.17291734e-07 -0.00029371682 -0.0001282988 -0.022314964
-0.23548149 0.16271065 -0.00041105258 -8.376124e-06 0.00010510266 0.00010724481 1.3847892e-07 0.00017508329
0.00013129096 0.0141519 0.15498216 -0.06134916 -9.228065e-05 -5.4004154e-06 1.34401425e-05 3.508786e-05
1.3823184e-07 0.00011928222 7.497286e-05 0.012343549 0.10832685 0.075534195 -0.000110277055 7.353951e-07
-1.2968412e-05 -0.00021131666 2.690941e-07 0.00013056205 7.464952e-05 0.012876977 0.10680396 0.08696037
2.0351268e-05 4.7397343e-06 -2.6906027e-05 6.983459e-06 1.5411716e-07 -1.7703755e-06 -1.7359884e-05 0.0002979782
0.11189791 0.17315154 -8.495404e-05 -2.16695e-06 1.4860678e-05 3.9611923e-06 -4.9842907e-08 -2.0234816e-05
-9.798287e-05 -0.0029466262 -0.040168162 -0.048556224 -0.0002760913 -5.1901866e-06 7.762906e-05 0.00022983905
6.7977016e-06 5.7731263e-06 0.0007292913 0.0175308 0.10148037 0.010739002 4.0958155e-05 1.6713758e-06
-9.17946e-06 5.6259128e-06 3.929258e-08 -1.643082e-05 -1.2799119e-06 3.191622e-05 -0.096768424 -0.012838751
-7.1820345e-05 -1.5131324e-06 7.6547085e-06 3.059828e-05 6.6385695e-08 3.7030652e-06 3.5514862e-05 0.0027119203
-0.19601081 -0.08274064 0.00015291921 2.3691914e-06 -3.2031014e-05 -5.723185e-05 -9.455429e-07 -9.159962e-05
-0.00021180142 -0.0074123284 -0.080651425 0.04967036 -0.00038696858 -5.8366395e-06 0.00017683468 0.00014337122
1.2958004e-06 0.00010980991 0.00035700033 0.009474375 0.08359896 0.020737637 -0.00017739228 1.7885848e-05
0.00013307038 2.324002e-05 4.804431e-07 8.035543e-05 0.00016849999 0.0064229723 0.1218648 0.036803883
-0.00039821645 -1.037308e-05 7.669867e-05 2.7867914e-05 3.349716e-06 0.00017433634 0.000100812285 0.009714863
0.08837425 -0.12167013 0.00027891743 2.5964837e-07 -7.612271e-05 -7.301639e-05 -1.599785e-05 -0.0001534233
-0.00013738983 -0.015811034 -0.15509613 0.023114672 0.00030828707 7.431779e-06 -7.730162e-05 -0.00013292211
-2.484764e-07 -0.00013556019 -0.00015005983 -0.013797729 -0.0571563 -0.13834973 -0.00039033024 -1.1879603e-05
9.542363e-05 4.337272e-05 9.1583686e-08 0.00023682733 0.00013500651 0.016064445 0.13881443 -0.15880725
8.917998e-06 -1.006586e-05 -5.5300484e-06 1.0296981e-06 5.699927e-09 -1.584433e-05 -5.796635e-05 -0.0019671773
-0.029745765 -0.05986888 0.00030242756 3.4620738e-05 -0.000103353486 0.00010868329 -3.9184826e-08 -0.00019264918
-0.00023646432 -0.01136289 -0.20474213 0.17770517 -0.00034112352 -5.7712023e-06 6.051129e-05 1.12731495e-05
-7.1087655e-08 0.000121143195 7.868055e-05 0.006445107 0.0834539 -0.14016165 -7.018403e-05 -8.4039135e-07
1.15969115e-05 2.2140312e-06 -5.67494e-07 -1.4035797e-05 -0.00015285953 -0.005325512 0.024857929 -0.1325509
-0.00042667123 -9.199424e-06 8.8395915e-05 6.0881874e-05 9.515074e-08 0.00016063423 0.00010139776 0.014807986
0.17640966 -0.04320799 -0.00033311627 1.0556302e-05 5.244533e-05 1.28433785e-05 -5.9107933e-08 5.0628387e-05

Decoupling.value.bias f4 [96]
00000000: 7830 0f38 e4a6 ab38 ad9f 7038 52ea a137
00000010: 58e9 6639 d08d 72b8 95b3 c5b7 59b0 a235
00000020: 89cc 0038 6ebd 20b5 2a6d ebb8 63fe 38b8
00000030: b38b 1cb8 56f6 3238 d3a4 2eb8 9e49 b3b8
00000040: 7807 e3b8 06be e938 a43b f338 e4fc 56b9
00000050: 844d 2436 b387 3239 45b9 92b8 6be6 94b7
00000060: d38c 0ab9 5f77 a1b8 c788 9937 418d 96b7
00000070: 402e 0c39 d3bb 8d37 c6f6 93b6 3ba1 2138
00000080: f441 5139 9fd9 17b9 4511 6839 eeb4 85b8
00000090: 88d4 7733 c582 60b8 c262 35b9 e75a 04b9
000000a0: 6dc9 58b7 0fa1 8436 067d e038 b8ed 5a35
000000b0: d399 8c37 de58 4b38 aa35 0038 0ae5 15b9
000000c0: 5d44 fab7 aecb f7b8 68ef 0439 6e47 4fb8
000000d0: 0f02 25b8 09fa c435 1cb5 6ab9 9b62 5a38
000000e0: caa9 8bb8 5339 2bb9 6cf4 48b7 343a 43b6
000000f0: c04c 9a38 f4ce 0ab9 2ac5 1cb9 c688 2c39
00000100: bfa1 8438 a728 95b8 1bcf f338 0943 8d37
00000110: 3ab4 eeb8 a4b9 ebb8 32ed 9938 6f8f 32b7
00000120: e490 60b9 746b f138 a0f3 d137 516a 0039
00000130: 8e51 b338 e2f8 12b9 5e29 ef37 2c6f 3438
00000140: 4db7 2639 7dcd 3b39 6ce0 60b7 5480 4db9
00000150: 962a cdb7 0d88 dfb8 3be7 4eb8 88f1 56b8
00000160: fda1 2337 b62c c7b8 df1d 5638 7cc7 5db6
00000170: 1d23 2139 f271 d136 5b8b 3038 8876 5838
3.4138997e-05 8.185001e-05 5.736917e-05 1.930181e-05 0.00022021437 -5.782937e-05 -2.3567854e-05 1.2121264e-06
3.0708066e-05 -5.98803e-07 -0.000112260066 -4.4105935e-05 -3.7323403e-05 4.2667925e-05 -4.1638337e-05 -8.5490974e-05
-0.00010825595 0.000111457004 0.00011598252 -0.0002050284 2.4483024e-06 0.00017025955 -6.996332e-05 -1.7750272e-05
-0.00013213167 -7.699313e-05 1.8302713e-05 -1.794717e-05 0.0001336867 1.6895972e-05 -4.4096696e-06 3.853555e-05
0.00019956363 -0.00014481552 0.00022131678 -6.375635e-05 5.7702465e-08 -5.352755e-05 -0.00017298295 -0.00012622365
-1.2921501e-05 3.9526562e-06 0.0001070444 8.1557255e-07 1.676093e-05 4.8481736e-05 3.0567557e-05 -0.00014295071
-2.9834157e-05 -0.00011815816 0.00012677687 -4.941917e-05 -3.9340983e-05 1.4675908e-06 -0.00022383448 5.2067084e-05
-6.659662e-05 -0.00016329186 -1.1977838e-05 -2.9091143e-06 7.357588e-05 -0.00013237802 -0.00014950769 0.0001645415
6.324378e-05 -7.112446e-05 0.00011625719 1.6839726e-05 -0.00011382294 -0.000112402515 7.3397896e-05 -1.06430225e-05
-0.0002141628 0.0001151179 2.5028188e-05 0.00012246637 8.550576e-05 -0.00014016361 2.8510283e-05 4.301888e-05
0.00015899279 0.0001791026 -1.3403693e-05 -0.0001959813 -2.4457735e-05 -0.0001065881 -4.9329577e-05 -5.124652e-05
9.753273e-06 -9.4973875e-05 5.1049396e-05 -3.3047681e-06 0.00015367237 6.2419504e-06 4.2091455e-05 5.1608804e-05

Decoupling.fc_out.weight f4 [11, 96]
00000000: e151 8dba bf99 9b3d d8ca 923d a040 c5bc
00000010: 3d20 8c3d 9906 f4bb 3531 80bd bf0e c63b
00000020: e057 323d 5aee 233d 10c0 fbbc 3e6f 213d
00000030: c7a8 573d a11f 52bc 9327 a1bc 4f63 09bd
00000040: b29c d5bc e93c 5d3d fb6c 623d c535 58bd
00000050: f5d4 b23d 4c3f 21bd eda5 523b d9d7 59bd
00000060: 4ab5 c03b 2b02 e2bc 0b95 95bc e9a9 27bd
00000070: 46a6 eabc 9e21 933c a10f 90bd 4665 4cbd
00000080: 5734 533d 77bf 773b 4037 8f3d bc2f 48bd
00000090: 3184 eabc 031a 403c f309 413c d6eb a43b
000000a0: 4d73 153c 3c29 213a 83ca 193d be5c 8d3b
000000b0: 471f 623d 3c47 053d dd33 a23d 5b49 363b
000000c0: b00f 4e3d c529 ac3a 59b8 9ebc 430c b23d
000000d0: e3c6 2239 4c1f 44bd b0e5 6cbd 0019 dcbc
000000e0: bfe5 84bc 26c8 91bd 313a 9f3d ea87 20bd
000000f0: efed 983d 9d99 71bd d55a 45bc 6071 7a3d
00000100: d818 ef3c 495b 9e3d 29dd 1bbc 4731 cbb9
00000110: ff2d 9fbd 2ffb a7bd 9b27 1f3d 8655 14bd
00000120: 40a6 2fbd 72ca 393d 090e 04bc c4c7 883d
00000130: 0a79 a23c 1717 1d3d 5ac5 513d 4ad0 6d3b
00000140: e495 713d 9375 9e3c 397d d7bc a444 05bc
00000150: 59ad 8abc 8359 9bbd 9146 a8bd f3fb a7bc
00000160: 6551 82bd 1cf3 f0bc 9c16 7b3c 285b 4ebd
00000170: 2ea3 b53c 37fb 9b3c 8372 233c c84a a23d
00000180: 7bf5 7cbc 380f 893d f1c5 a4bd 621c 683d
00000190: 4164 963c 9a81 30bd 4780 7c3d a5ce 4d3d
000001a0: 7201 d13c d17e f3bc 7683 7d3d 8dac da3c
000001b0: 231f 21bc 5f6e a43c e03f 6abb 15f9 64bd
000001c0: c74b 00bd 8fc1 1f3d 01ae 223b 2182 7abd
000001d0: eec5 43bd fe25 503d 6747 39bc 0142 b0bd
000001e0: 2d86 903d fea6 8bbd eda2 acbb 7736 fa3c
000001f0: 6a14 223d 22b9 af3a 7ce6 81bb 71c7 013d
00000200: 82be aa3d c1ff 22bd 955e 933d 8cba cfbd
00000210: 4b31 373a f524 99bd db20 723c 696f 96bc
00000220: 30c2 c63c f888 a93c 7c45 b3bc efe0 713a
00000230: 711b 773d 7222 7f3c 83b3 ae3d 385d 8e3c
00000240: c02c ddbc 6eaf 713d 6448 4c3d 5315 03bc
00000250: 7d3e 86bc f05a 083d bce8 71bd 64da 3f3d
00000260: 8d24 96bd ca1c 303d 26ce 39bd 2417 e23b
00000270: d4ab 843d 7152 16bd 9cb6 13bd 9404 b3bd
00000280: d581 133d f1dc c73d 16ac 023d 6049 08bd
00000290: 9468 603a 6d81 013c f628 9abd 9050 3bbc
000002a0: f5c0 06bd 74be 43bd 7184 91bc 166f 8a3d
000002b0: e002 00bb 158c cfbc 503f 7abb 3e61 113b
000002c0: 2c5d 863d 11ec 453c e125 453d a582 02bb
000002d0: c46c 38bd f85e ac3c 060c 913d a190 2f3d
000002e0: 999b f23c 30b3 94bc 4aae 4a3d 35e8 9b3d
000002f0: ff7c b6bc 85f0 813d ab03 9dbb d9a4 533d
00000300: 7765 303c d3d7 bfbc 81e3 b33b 595d 9bbc
00000310: 690b 27bd 01af 43bb bb26 993d 541c 233d
00000320: 8836 20bd b059 dcbc c7d5 9f3c 8a8c 81bd
00000330: adab bfbc 69ed 75bc 014a 52bc 1ba3 c6bb
00000340: 7721 99bb 00f3 93bd 9fae 413c 30ab 233c
00000350: f1a1 8e3c f096 583c f9d3 c4bc b2b9 143b
00000360: 8fc9 6ebd 5998 4bbd 8aef 6d3b 656f 3b3d
00000370: 7bfa 333b 3c77 36bb e28b 57bc da4b 4bbd
00000380: 5c36 363d 0c15 d2bc bf93 99bb a804 83bd
00000390: bf4c 6d3d 48e2 9fbc ca9e 793c f4e0 97bc
000003a0: bb05 9d3c 5cf3 1d3c a11b 3f3d a61e bfba
000003b0: 7781 83bc 7459 943b ba20 6fbc 4c66 433d
000003c0: c126 b53c 89d9 40bd 824d a1bc 2abd c8bd
000003d0: a0fe 5fbc 3b69 2039 31ff 05bd bef9 0ebd
000003e0: 0a5c eebc 06c4 72bc 60b0 873d 6567 52bd
000003f0: e9ab d53c 820e 94bc 435a cbbc cb5a ae3c
-0.0010781848 0.07597684 0.071675956 -0.024078667 0.068420865 -0.0074470756 -0.062593855 0.0060442383
0.043540835 0.04002223 -0.030731231 0.03941273 0.052651193 -0.012824924 -0.01967219 -0.033541974
-0.026075695 0.054013167 0.055279713 -0.052785654 0.087320246 -0.039367005 0.0032142357 -0.053184364
0.0058809863 -0.027588924 -0.018259546 -0.040933523 -0.028643738 0.017960366 -0.07034231 -0.04990127
0.051563587 0.003780333 0.0699296 -0.048873648 -0.028627487 0.011724952 0.011782157 0.0050329966
0.009121728 0.0006147807 0.037546646 0.0043140342 0.05520561 0.032538638 0.079200484 0.002781472
0.05030793 0.0013135007 -0.019375013 0.08693745 0.00015523615 -0.04788141 -0.057836235 -0.02686739
-0.016222833 -0.071182534 0.07774771 -0.039192118 0.07467257 -0.058984388 -0.012045582 0.06114328
0.029186651 0.07732255 -0.009513178 -0.00038755892 -0.07772445 -0.08202206 0.03885613 -0.036214374
-0.042883158 0.045359083 -0.008059987 0.06678727 0.019833107 0.0383521 0.0512136 0.003628748
0.058980837 0.019343173 -0.026304828 -0.008134041 -0.016928362 -0.075854324 -0.082165845 -0.020505881
-0.06363181 -0.029412799 0.015325215 -0.050379902 0.022172537 0.019040687 0.009976032 0.0792442
-0.0154393865 0.06692356 -0.08045567 0.056667693 0.018358352 -0.043092348 0.061645772 0.0502459
0.025513384 -0.029723557 0.06189295 0.026693607 -0.009834084 0.02007216 -0.003574364 -0.055901606
-0.031322267 0.03900295 0.0024822953 -0.061159257 -0.047796182 0.050817482 -0.011308528 -0.08606339
0.07056842 -0.068189606 -0.0052684457 0.030543549 0.03957025 0.0013406614 -0.0039642435 0.031684343
0.08337118 -0.039794687 0.071957745 -0.10143003 0.0006988241 -0.07477752 0.014778341 -0.018363671
0.024262518 0.020695195 -0.021883719 0.0009226938 0.060328905 0.015572177 0.08530333 0.017378435
-0.026998878 0.059005193 0.049873725 -0.00800069 -0.016387219 0.03328985 -0.059059843 0.046839133
-0.0733119 0.042996205 -0.045362614 0.0068997312 0.06478086 -0.036699716 -0.03606282 -0.087411076
0.03601249 0.09758938 0.031902395 -0.0332731 0.0008560505 0.007904393 -0.07527344 -0.011432782
-0.032898862 -0.047789052 -0.017763348 0.06759469 -0.0019532964 -0.025335351 -0.003818471 0.0022183205
0.0656074 0.012080208 0.048131827 -0.0019914296 -0.045025602 0.021041378 0.070823714 0.04286254
0.02961521 -0.01815185 0.04948262 0.07612649 -0.0222764 0.063447036 -0.004791697 0.051670883
0.010766379 -0.023418343 0.005489767 -0.01896541 -0.040782366 -0.002985895 0.074780904 0.039821938
-0.039114505 -0.026898235 0.019511117 -0.06325634 -0.023397291 -0.015010216 -0.012835027 -0.006061924
-0.004673179 -0.07224083 0.011821418 0.009989545 0.017411204 0.01321958 -0.024026858 0.002269369
-0.05829769 -0.049705837 0.0036306106 0.04576053 0.002746253 -0.0027842065 -0.013155909 -0.049632885
0.044485435 -0.025644802 -0.004686802 -0.063973725 0.05793452 -0.019517079 0.015235612 -0.018539883
0.019167772 0.009640541 0.04665721 -0.0014581278 -0.016052945 0.004527265 -0.014595205 0.04770498
0.022113206 -0.047082458 -0.019690279 -0.09801705 -0.013671547 0.0001529799 -0.032714073 -0.03490614
-0.029096622 -0.014817243 0.06625438 -0.051368136 0.02608295 -0.018073324 -0.024823314 0.021283528

Decoupling.fc_out.bias f4 [11]
00000000: baa6 6139 5712 f8b7 4444 1439 b3e1 6cb9
00000010: 6850 93b8 ad07 7739 131b 2eb8 489c 95b9
00000020: 2e58 0dba 8612 a0b8 63df c339
0.00021519783 -2.9572444e-05 0.00014139811 -0.00022590793 -7.024483e-05 0.00023558615 -4.1510048e-05 -0.00028535933
-0.0005391863 -7.632845e-05 0.00037359734

multi_physics.experts.0.0.weight f4 [4, 12]
00000000: eb19 cc3d f6e0 e73d e043 993d ed7f e33d
00000010: d99a 93bd 2f1c 95bb 1ef6 123e f602 503b
00000020: 94e5 10be 9a75 64be ce42 5fbd 6c06 563e
00000030: 09c8 8f3d d36a 17bc e867 373e 541c b73d
00000040: 6a1c 8bbd 4980 8b3d 2bbd ae3d 008c c83d
00000050: b4ad 1fbd bd87 64bd 8e50 173b 5bd9 f83d
00000060: d7e6 fe3e 3b69 d3bd 257e 023e 6382 a9bd
00000070: 2c51 11be 310c f93c 75fa 2f3d 9fa4 52be
00000080: 3e29 a5bd 1eb5 2f3e c11c debd 2577 0bbd
00000090: 2926 aa37 a44d 32b5 bc18 20ba 271a 87bb
000000a0: 86b3 d239 aa2c aeb6 9d22 f539 c3a3 54ba
000000b0: ec49 06bd cc87 cabb 54f8 b63b 1ac6 9d3a
0.09965881 0.11322205 0.07483649 0.11108384 -0.07207269 -0.004550479 0.14351699 0.0031740046
-0.14150077 -0.22310486 -0.05450707 0.20900887 0.070205756 -0.0092417775 0.17910731 0.0894095
-0.06792529 0.06811578 0.08532175 0.09792328 -0.038984016 -0.055793513 0.0023088786 0.12150832
0.49785492 -0.103228055 0.12743433 -0.082768224 -0.14191121 0.030401321 0.042963464 -0.2057061
-0.08064507 0.17158934 -0.10845328 -0.034049172 2.0283349e-05 -6.642315e-07 -0.00061072013 -0.0041229906
0.00040188077 -5.1908037e-06 0.0004675583 -0.00081115606 -0.03278534 -0.006180739 0.0055838022 0.0012037188

multi_physics.experts.0.0.bias f4 [4]
00000000: 9dcd fe3a 2d9b 2c39 bfe6 a3b8 f9e8 2e11
0.001943994 0.00016461006 -7.8154255e-05 1.379797e-28

multi_physics.experts.0.2.weight f4 [8, 4]
00000000: d4e7 543e 22c5 763e bf4c 6c3e 5e11 3abc
00000010: 02c4 303e 353a 343e 5292 063e 41fe 413c
00000020: f90f 932f c5f3 a32e 0872 6c2f 8681 a928
00000030: f878 50af 54bf 1f2f 02e8 47ae 728c 0080
00000040: fb89 0080 218c 0080 806b 9d9f 8289 0080
00000050: e893 a83e b335 64be 910d ae3e 3e12 fbbb
00000060: f807 2925 6bcc 6525 331b 5025 c8ca 5a07
00000070: de88 0000 b28c 0080 c0ef 3fbb c81b b537
0.2079156 0.24098638 0.23076151 -0.01135668 0.17262271 0.17600329 0.13141754 0.011840404
2.6750493e-10 7.455684e-11 2.1504587e-10 1.8818941e-14 -1.8960467e-10 1.4528939e-10 -4.5453426e-11 -5.0382e-41
-4.9498e-41 -5.0269e-41 -6.666993e-20 -4.9329e-41 0.32925344 -0.2228611 0.33994725 -0.0076620867
1.4661113e-16 1.9931843e-16 1.805034e-16 1.6460089e-34 4.9099e-41 -5.0472e-41 -0.002928719 2.1589818e-05

multi_physics.experts.0.2.bias f4 [8]
00000000: 0b70 06ba 84ac f7b9 e64f e3ab af9d 21ac
00000010: 78a6 0080 7f44 c6b9 2b90 11a3 a096 0080
-0.000512839 -0.00047240045 -1.6151496e-12 -2.2967008e-12 -5.9718e-41 -0.00037816536 -7.8909945e-18 -5.4034e-41

multi_physics.experts.0.4.weight f4 [16, 8]
00000000: 571e 9a3d 0dd9 473c 096a e92e de21 8fad
00000010: 658a 0000 056e 203e 6b2c d124 3a00 0f8d
00000020: 98d2 c139 7c62 003c 150c cc2c c9ea 8c2b
00000030: 358a 0000 71e0 2c3c 6524 a122 5807 848b
00000040: 754d 2021 5ea0 0321 692b a712 9ef7 a38e
00000050: 118b 0080 dbc5 c420 c3f5 a309 c99b 0000
00000060: f289 0000 778a 0000 60ad 0080 e69b 0080
00000070: 748b 0000 8a8a 0000 0daf 0000 e38a 0000
00000080: 728a 0080 628e 0000 c68e 0000 9a8a 0000
00000090: 508e 0080 c18b 0080 b991 0080 6b8d 0080
000000a0: 88ea f43d 217f b73d a5cd f62e 633c 5dad
000000b0: 9d8b 0000 fb24 163c 0db2 be23 bfa0 0080
000000c0: ca4e 003d bf5e fc3d 1514 0b2f 0e36 122f
000000d0: cc88 0000 9afb 7d3d 025c 9f24 1489 0000
000000e0: 0969 753b 51fc 803d 3e74 642e 8035 1e2d
000000f0: da8a 0080 d887 b63d 0a99 75a3 76d0 0c9c
00000100: c583 863e ffb5 633e 39b4 432f 4f7b e0ad
00000110: 8e89 0000 e139 e63d 097f 3e25 7d7b 36a0
00000120: 131c ca88 9f61 bc8a 1809 0000 d49c 0000
00000130: a88a 0000 e909 e28a a44d 0000 178c 0000
00000140: 92d9 280c 00b3 ce0b c6fe 0100 661b 0080
00000150: 157a 0000 ff8e b10c 8e39 0080 9c8b 0080
00000160: 9fcd 2d3e d32c 053d dab2 142f ebb1 a72d
00000170: cd8c 0080 e3cd b73d 2407 a324 6ae3 3199
00000180: 5b89 0080 e58b 0000 ec9f 0080 1d89 0080
00000190: 6f8b 0000 f78e 0080 0d90 0000 d88b 0000
000001a0: 6e2a a33d 82d1 80bd bbb2 92ae b9ad 8a2d
000001b0: 32a4 0080 1b2d 80bd bdfc 2523 038d 0000
000001c0: e10f 06b9 e6e3 acb9 d1cb 3328 e97e 06a1
000001d0: ec89 0000 eadc 1139 5f5d c99e bd88 0000
000001e0: 14bf e33d df51 3d3d e61c 29af d433 be2c
000001f0: 3884 0080 3302 89be 15f9 a4a4 c7a2 0080
0.07525318 0.012197745 1.0614449e-10 -1.6272258e-11 4.9647e-41 0.15666969 9.071455e-17 -4.406555e-31
0.00036968733 0.0078359805 5.79937e-12 1.0012764e-12 4.958e-41 0.010551558 4.367767e-18 -5.08556e-32
5.431262e-19 4.459677e-19 1.0549883e-27 -4.042105e-30 -4.9888e-41 3.3334621e-19 3.9471936e-33 5.5885e-41
4.9485e-41 4.9672e-41 -6.2195e-41 -5.5926e-41 5.0026e-41 4.9698e-41 6.2796e-41 4.9823e-41
-4.9665e-41 5.1077e-41 5.1217e-41 4.9721e-41 -5.1052e-41 -5.0134e-41 -5.2275e-41 -5.0731e-41
0.11958796 0.08959795 1.12233146e-10 -1.2575804e-11 5.0084e-41 0.00916409 2.0675249e-17 -5.7665e-41
0.03132514 0.12322759 1.2649111e-10 1.3297827e-10 4.9073e-41 0.062007524 6.9111125e-17 4.9174e-41
0.003744664 0.062981255 5.1944442e-11 8.99314e-12 -4.981e-41 0.08912629 -1.3313884e-17 -4.6591544e-22
0.26272407 0.22237395 1.7799175e-10 -2.5520612e-11 4.9345e-41 0.11241508 1.6522914e-16 -1.5456858e-19
-1.2164033e-33 -1.8140462e-32 3.262e-42 5.626e-41 4.974e-41 -2.1766736e-32 2.7852e-41 5.0255e-41
1.3007722e-31 7.9617643e-32 1.83231e-40 -9.829e-42 4.3795e-41 2.735723e-31 -2.0647e-41 -5.0082e-41
0.1697297 0.03251345 1.3524062e-10 1.9064713e-11 -5.051e-41 0.08974817 7.070208e-17 -9.1966114e-24
-4.9274e-41 5.0185e-41 -5.7369e-41 -4.9187e-41 5.002e-41 -5.1286e-41 5.1676e-41 5.0166e-41
0.07967077 -0.062899604 -6.67106e-11 1.5765932e-11 -5.8902e-41 -0.06258603 8.998187e-18 5.0585e-41
-0.00012785151 -0.00032976194 9.980692e-15 -4.556893e-19 4.9477e-41 0.00013910574 -2.132032e-20 4.9052e-41
0.1112043 0.046220656 -1.5380727e-10 5.405879e-12 -4.7431e-41 -0.2675949 -7.1545624e-17 -5.8394e-41

multi_physics.experts.0.4.bias f4 [16]
00000000: bdcb 24ba ffda 09b9 5c67 909f 5236 0000
00000010: a78a 0080 e7a2 2fba d8af 1cba 9d4b 22b9
00000020: 37e3 50ba e649 eb88 52d3 8f89 4dbf 43ba
00000030: a5a8 0000 b072 d8b7 a359 81b4 ec0e a23a
-0.0006286463 -0.0001314692 -6.1157366e-20 1.9486e-41 -4.9739e-41 -0.00066999946 -0.00059771305 -0.00015477692
-0.0007968428 -1.41609215e-33 -3.4624722e-33 -0.00074671657 6.0498e-41 -2.5802612e-05 -2.4093342e-07 0.0012364066

multi_physics.experts.0.6.weight f4 [32, 16]
00000000: 08af 2d07 9371 6885 a58d 0080 9690 0000
00000010: 1b8b 0000 09b4 a484 4a2c 0c87 9fc8 3e07
00000020: 8ed4 b086 0894 0080 0393 0080 4180 df87
00000030: 288b 0080 45e3 9884 384d 5b01 dace 2506
00000040: e38b 0080 4ca6 0080 ac8e 0080 c590 0000
00000050: 308c 0080 d08b 0080 e088 0080 cc88 0080
00000060: 3637 0000 bc8b 0080 858c 0000 198c 0000
00000070: 3a8b 0080 70a3 0080 3e8b 0080 a4a3 0080
00000080: 83a1 5235 8311 4f2f 55be a80c df9a 0080
00000090: aea8 0000 4339 c9b0 dd83 05b4 d506 0b36
000000a0: 02c6 9cb8 6a94 0080 3e33 0080 540d 96b1
000000b0: a42f 0100 1adc c927 23f6 7126 b723 89aa
000000c0: 7c12 fc3c 1e31 b93b d056 29a1 1e85 0100
000000d0: f842 0000 350a 973d 39d4 793c c77c f83c
000000e0: cc88 c63d 0d02 c58a a014 c50b 7e2d 713d
000000f0: c688 0000 5f79 1fbc d799 52b8 fc8d 30bd
00000100: dc8a 0080 2691 0080 939e 0080 368c 0080
00000110: 7d97 0080 bc88 0080 c58d 0080 9789 0080
00000120: 5889 0000 7c96 0000 058b 0080 bc88 0000
00000130: e098 0000 8b98 0080 bc93 0080 379c 0000
00000140: f16c b631 8b59 1b31 fb96 1116 5395 0080
00000150: c188 0080 5d1a 53b2 af92 e8b2 19cf f1b1
00000160: b24b 44b3 fa40 0000 d9f6 d080 0f34 2733
00000170: 71aa 0000 7d8b 8ab1 9093 fc2d d109 38b2
00000180: 3baf 0080 bf8c 0080 9a8f 0000 3790 0000
00000190: bb8f 0080 1e8c 0080 3789 0080 908d 0080
000001a0: e0ac 0080 c18d 0000 248a 0080 098c 0080
000001b0: 6ba5 0080 038c 0000 2d94 0000 d490 0080
000001c0: 458a 0080 848b 0000 ed8e 0080 fd9d 0000
000001d0: 8e9d 0080 4f8b 0000 7c8a 0080 488f 0080
000001e0: ba88 0000 3f98 0000 6b8f 0000 5b8c 0080
000001f0: e0ab 0100 83ac 0000 5296 0000 2e96 0000
00000200: e1f2 813d 30ec 19ba 08f0 a220 d069 0100
00000210: 328f 0080 0414 e23c 5eeb 70bc 7c40 5e3b
00000220: a1a9 073e 7f3d 050a 2adb 030c 082c 003e
00000230: 8d80 0080 46b5 92bc 15be 083a 4e82 abbd
00000240: ed2a 0000 d95a 0000 328a 0000 d88f 0000
00000250: 308a 0000 3a13 0000 42ae 0080 5b8f 0000
00000260: d429 0100 7ea7 0000 96a7 0000 f144 0100
00000270: 408c 0080 2290 0000 4693 0000 41b7 0000
00000280: 011d 040d ac63 870b 8710 0180 1ea3 0000
00000290: d09c 0000 99fd 910c 7352 930c 8503 4f0c
000002a0: 2cc5 030d 5099 0080 58a0 0000 f3e9 210d
000002b0: eb8d 0000 883e 108b 05aa a406 26d5 0c8d
000002c0: 3e8a 0080 2e8a 0080 0b91 0000 72a2 0080
000002d0: c5aa 0080 5f62 0000 758a 0000 ce89 0080
000002e0: f8cc d5a0 658f 0080 ce99 0080 c588 0080
000002f0: b18f 0000 b88b 0000 c08b 0080 0e8a 0000
00000300: 1645 f213 e681 f511 164d 0080 e7ac 0000
00000310: dba6 0080 ce83 1513 5be4 1e14 dacb 8e13
00000320: 5074 7b94 48ae 0080 bb88 0080 3845 4a12
00000330: 0e97 0000 c99f bb11 8754 4a0d a25c 2a92
00000340: 5d8a 0000 f484 0080 6b8e 0080 268a 0080
00000350: ea99 0080 4c8f 0080 c988 0080 868f 0080
00000360: 7989 0000 0f96 0000 bc9a 0000 448e 0080
00000370: a3a5 0000 438b 0000 d893 0080 3c95 0000
00000380: 40a9 b0bc 046b 42ba 0c96 349f 748d 0080
00000390: fc95 0000 e215 333d 2bfd 9ebc fe22 0bbc
000003a0: 91e8 0d3c d46a 6688 03b2 d58a 75b4 99bc
000003b0: 278a 0000 60e3 283b ca04 efb2 ee92 c63c
000003c0: c7c8 00bc 5759 c9ba b633 ac1c 3792 0000
000003d0: 4e8e 0080 e3c7 0bbc 89e6 493c aac5 31bb
000003e0: febe 843b 2010 8f05 e1c3 d488 c395 1cbb
000003f0: d250 0080 3ede 6c39 e269 1ab4 40ca 7a3a
1.306651e-34 -1.0929448e-35 -5.0812e-41 5.1868e-41 4.9902e-41 -3.872155e-36 -1.0545445e-34 1.4352969e-34
-6.6516163e-35 -5.3104e-41 -5.2738e-41 -3.3628692e-34 -4.992e-41 -3.5943742e-36 4.027935e-38 3.118502e-35
-5.0182e-41 -5.9656e-41 -5.1181e-41 5.1934e-41 -5.029e-41 -5.0155e-41 -4.9101e-41 -4.9073e-41
1.9806e-41 -5.0127e-41 5.0409e-41 5.0258e-41 -4.9945e-41 -5.863e-41 -4.995e-41 -5.8703e-41
7.8466127e-07 1.8832762e-10 2.599905e-31 -5.5557e-41 6.0511e-41 -1.464095e-09 -1.2434562e-07 2.071659e-06
-7.4755415e-05 -5.3241e-41 -1.8382e-41 -4.36709e-09 1.08926e-40 5.602734e-15 8.394725e-16 -2.436087e-13
0.030770533 0.005651607 -5.7374323e-19 1.39589e-40 2.4024e-41 0.07374994 0.015248352 0.030332936
0.09694061 -1.8971181e-32 7.591267e-32 0.058881275 4.9065e-41 -0.009733527 -5.0211176e-05 -0.043104157
-4.9813e-41 -5.207e-41 -5.6886e-41 -5.0298e-41 -5.4344e-41 -4.9051e-41 -5.0857e-41 -4.9358e-41
4.927e-41 5.3984e-41 -4.9871e-41 4.9051e-41 5.4841e-41 -5.4722e-41 -5.2997e-41 5.604e-41
5.3092823e-09 2.2606368e-09 1.1760648e-25 -5.3567e-41 -4.9058e-41 -1.2287811e-08 -2.7075059e-08 -7.0375674e-09
-4.570365e-08 2.3309e-41 -1.9190335e-38 3.8930065e-08 6.1143e-41 -4.0321866e-09 2.8714614e-11 -1.0712442e-08
-6.2861e-41 -5.049e-41 5.1515e-41 5.1735e-41 -5.1561e-41 -5.0265e-41 -4.9223e-41 -5.0783e-41
-6.2016e-41 5.0852e-41 -4.9556e-41 -5.0235e-41 -5.9341e-41 5.0227e-41 5.3155e-41 -5.1955e-41
-4.9602e-41 5.0049e-41 -5.1272e-41 5.6676e-41 -5.652e-41 4.9975e-41 -4.9679e-41 -5.14e-41
4.9048e-41 5.4616e-41 5.1449e-41 -5.035e-41 1.53493e-40 6.1886e-41 5.3925e-41 5.3874e-41
0.063451536 -0.00058716815 2.7602707e-19 1.29794e-40 -5.1369e-41 0.027597435 -0.014704553 0.0033912947
0.13248302 6.415283e-33 1.0157825e-31 0.12516797 -4.6115e-41 -0.017908704 0.0005216313 -0.08374463
1.5399e-41 3.259e-41 4.9575e-41 5.1601e-41 4.9572e-41 6.897e-42 -6.2512e-41 5.1426e-41
1.0684e-40 6.0085e-41 6.0119e-41 1.16567e-40 -5.0312e-41 5.1705e-41 5.2832e-41 6.5739e-41
4.0710553e-31 5.215008e-32 -9.7764e-41 5.8515e-41 5.6254e-41 2.2493416e-31 2.2698558e-31 1.5947759e-31
4.060483e-31 -5.4998e-41 5.752e-41 4.989356e-31 5.091e-41 -2.7780434e-32 6.1939765e-35 -4.33974e-31
-4.9592e-41 -4.957e-41 5.2032e-41 -5.8274e-41 -6.126e-41 3.5289e-41 4.9669e-41 -4.9435e-41
-3.621924e-19 -5.144e-41 -5.5175e-41 -4.9064e-41 5.1547e-41 5.0122e-41 -5.0133e-41 4.9525e-41
6.1157512e-27 3.873424e-28 -2.7653e-41 6.2026e-41 -5.9856e-41 1.8871429e-27 8.021997e-27 3.6046853e-27
-1.26952e-26 -6.252e-41 -4.905e-41 6.382528e-28 5.4188e-41 2.9601873e-28 6.23478e-31 -5.375672e-28
4.9635e-41 -4.7695e-41 -5.109e-41 -4.9558e-41 -5.5214e-41 -5.1405e-41 -4.9069e-41 -5.1487e-41
4.9316e-41 5.3831e-41 5.5508e-41 -5.1035e-41 5.9419e-41 4.9958e-41 -5.3036e-41 5.3535e-41
-0.02156508 -0.0007416459 -3.82406e-20 -5.0744e-41 5.3804e-41 0.04372204 -0.01940783 -0.0084922295
0.008661405 -6.9338683e-34 -2.0578114e-32 -0.018762806 4.956e-41 0.0025770292 -2.782544e-08 0.024239983
-0.007860369 -0.0015361708 1.1395372e-21 5.2452e-41 -5.105e-41 -0.008531543 0.01232303 -0.0027125874
0.0040510884 1.3453579e-35 -1.2805337e-33 -0.0023892976 -2.8993e-41 0.00022589506 -1.4380888e-07 0.0009566881

multi_physics.experts.0.6.bias f4 [32]
00000000: f523 df05 e1a5 0080 9ee8 ba2e 59e1 053a
00000010: 939a 0080 70ed c1b0 d188 0000 4f66 0200
00000020: 80d9 8bba 67e1 0080 cf4c f90c ec8b 0080
00000030: 6a35 b212 064e 0000 33cc 2cb9 97bc 7f36
00000040: 6de5 231b 8d71 878a 3285 0000 773e 073a
00000050: e473 9a38 7914 0313 cfaf a9ba 321d 3a34
00000060: b19d 2339 05cc 959a ac84 81a8 fa11 93ba
00000070: 116f 0436 299d 0080 c55f 4cba 78af 0080
2.0984028e-35 -5.9506e-41 8.499622e-11 0.0005107127 -5.5451e-41 -1.4110082e-09 4.908e-41 2.20372e-40
-0.0010669678 -8.0859e-41 3.8410752e-31 -5.0195e-41 1.1246547e-27 2.799e-41 -0.00016479268 3.8107735e-06
1.3557175e-22 -1.304274e-32 4.7781e-41 0.00051591493 7.3648785e-05 1.6544618e-27 -0.0012946072 1.7333221e-07
0.00015603636 -6.195457e-23 -1.4379414e-14 -0.0011220567 1.9734182e-06 -5.6378e-41 -0.0007796253 -6.2946e-41
