pretrained/hust_model.pth (torch, 317154 bytes, 82 tensors)

Decoupling.query.weight f4 [96, 10]
-0.0008354485 0.30507967 0.051018715 -0.008116692 0.08838248 -0.2493351 0.25787333 0.28934518
-0.2781113 -0.18820608 0.24992791 0.079485446 -0.114323586 -0.15755856 -0.07245569 -0.059519768
0.2917165 -0.19227275 0.04447311 0.08963245 -0.15685743 -0.019717008 -0.05716887 0.24127921
0.22625592 -0.015256286 -0.16205348 -0.18154821 -0.13463281 0.27433053 0.25706348 0.06287953
-0.2946376 0.10098785 -0.058772683 0.17680639 0.16436324 0.26529166 0.023027062 0.024200678
0.0022917688 0.21847102 0.23878244 0.14899778 -0.0632323 -0.09180635 0.29304394 -0.1635818
0.05439338 0.09942415 0.16375351 -0.1918003 -0.06104994 -0.009237081 -0.028844416 -0.27140284
0.13645312 -0.24178693 -0.07985522 0.0969311 0.24865332 -0.054999173 -0.17508724 -0.1410136
-0.0029090643 -0.17287919 0.078125805 0.14297023 0.29844287 0.26593217 -0.06462845 0.13441029
0.041488588 0.14992544 -0.14374168 0.2970061 0.002102822 0.20028707 0.23453704 -0.06698434
0.24231437 -0.08183779 0.1573152 -0.04907909 -0.25008085 -0.08061531 0.120084345 0.25260362
-0.25804073 -0.18350571 0.16481385 -0.1615486 0.016478568 -0.22059417 0.019976735 -0.1530102
0.070623636 0.1246894 0.060646147 -0.24869473 0.23709676 0.26617995 -0.28354403 0.25899962
-0.2725558 0.14864591 -0.018675685 -0.025273502 -0.15397453 0.24903956 0.051106453 -0.02198857
-0.011185437 0.22920266 0.3133475 -0.18014888 -0.28047955 -0.21393463 -0.17169648 -0.25835142
-0.11412296 -0.1223364 -0.0022608638 0.09018567 0.20312962 -0.20864865 -0.22657698 -0.13774204
-0.23305194 0.017032683 -0.2398049 -0.014583468 -0.04327506 -0.244881 -0.1427694 0.13822621
-0.09065685 -0.27910322 0.25727066 -0.09859209 0.03811291 0.2543017 0.15745983 -0.25560218
0.27932057 -0.08814956 0.08066657 0.14078078 0.11037883 0.21614304 -0.14270765 0.23501298
0.20101842 -0.2773432 -0.117900684 0.2732819 -0.23471242 -0.28613678 0.1952999 0.11143142
0.034671843 0.2521669 0.015571117 0.30834517 -0.20985307 -0.27177528 -0.06876731 0.30742463
-0.27037385 0.1304625 0.08097324 -0.13390404 -0.2593378 0.13241354 0.118591845 -0.0082710385
0.124951124 0.17293024 -0.22272557 -0.27335557 -0.052584708 -0.045509905 -0.12146579 0.083230376
-0.24266848 0.30728182 -0.063635975 -0.17664179 -0.050528616 -0.25040197 -0.27363354 0.09151736
-0.086783335 -0.17124385 0.14583892 0.2470257 0.035457194 -0.15758273 0.17208248 -0.10890268
-0.1463838 -0.06165418 -0.076842636 0.3052834 -0.056753486 -0.2847261 -0.100428775 0.11600658
0.13674054 -0.21213266 -0.22275847 -0.08997649 0.020221382 -0.26024005 0.14558041 -0.059350193
0.18395397 0.09424758 -0.050462455 -0.028538734 0.09720886 -0.16432896 -0.081978485 0.14472538
-0.2822446 -0.06295523 0.06582546 -0.16308306 0.1497046 0.15664843 -0.04584673 -0.10160822
0.15305105 0.017814487 -0.24451715 0.18225405 0.3113052 0.270646 -0.1744423 0.2935889
-0.13178737 -0.23963061 0.22645232 -0.22300336 0.29066554 0.30991957 -0.2125393 0.20942333
-0.06030175 -0.08222234 0.047976196 0.11943853 -0.21522866 0.31010297 0.22157648 -0.18269451
00000000: 0002 5bba 6733 9c3e 00f9 503d e0fb 04bc
00000010: e001 b53d b351 7fbe f907 843e 0d25 943e
00000020: 9b64 8ebe 18b9 40be 1aed 7f3e 44c9 a23d
00000030: 7c22 eabd 0857 21be a663 94bd 00cb 73bd
00000040: dd5b 953e 26e3 44be 7029 363d 3891 b73d
00000050: 3c9f 20be 9085 a1bc e829 6abd e611 773e
00000060: a2af 673e 80f5 79bc 59f1 25be c6e7 39be
00000070: 2fdd 09be 0d75 8c3e d39d 833e fcc6 803d
00000080: bdda 96be b8d2 ce3d a0bb 70bd bc0c 353e
00000090: d64e 283e 4fd4 873e 40a3 bc3c 8040 c63c
000000a0: 8031 163b deb6 5f3e 6283 743e e092 183e
000000b0: f07f 81bd f804 bcbd db09 963e fd81 27be
000000c0: 98cb 5e3d e49e cb3d 00af 273e 4c67 44be
000000d0: 800f 7abd 2057 17bc 204b ecbc 50f5 8abe
000000e0: 5eba 0b3e fe96 77be 228b a3bd d083 c63d
000000f0: fa9e 7e3e d046 61bd 124a 33be df65 10be
00000100: 00a6 3ebb 3e07 31be 6c00 a03d ca66 123e
00000110: 81cd 983e 4328 883e ec5b 84bd daa2 093e
00000120: f0ef 293d 0e86 193e 0531 13be 2f11 983e
00000130: 80cf 093b 0e18 4d3e 7a2a 703e 162f 89bd
00000140: 4221 783e 929a a7bd 3c17 213e 2807 49bd
00000150: 990a 80be a419 a5bd c8ee f53d 4355 813e
00000160: ea1d 84be ece8 3bbe f6c4 283e ff6c 25be
00000170: 10fe 863c 70e3 61be 40a6 a33c b5ae 1cbe
00000180: 20a3 903d 285d ff3d 1868 783d d5a9 7ebe
00000190: 7ec9 723e bd48 883e af2c 91be 999b 843e
000001a0: 6f8c 8bbe a236 183e c0fd 98bc 600a cfbc
000001b0: 80ab 1dbe 3a04 7f3e 0055 513d 6021 b4bc
000001c0: 2043 37bc 1ab4 6a3e 156f a03e f378 38be
000001d0: 049b 8fbe ae11 5bbe 34d1 2fbe a346 84be
000001e0: 4cb9 e9bd 828b fabd 002b 14bb 44b3 b83d
000001f0: 3601 503e fea7 55be cc03 68be 400c 0dbe
00000200: 2ba5 6ebe 2088 8b3c 6a8f 75be 80ef 6ebc
00000210: 3041 31bd 16c2 7abe 2432 12be 2c8b 0d3e
00000220: 4caa b9bd 9ee6 8ebe fbb8 833e a6ea c9bd
00000230: 481c 1c3d d533 823e 263d 213e 4ade 82be
00000240: 1b03 8f3e c287 b4bd 8434 a53d d628 103e
00000250: 4c0e e23d 9a54 5d3e f421 12be 3ea7 703e
00000260: c6d7 4d3e eeff 8dbe ea75 f1bd 9beb 8b3e
00000270: 7458 70be 8580 92be b2fc 473e 2836 e43d
00000280: 1004 0e3d 051c 813e 001e 7f3c 6bdf 9d3e
00000290: b9e3 56be 2126 8bbe e0d5 8cbd c366 9d3e
000002a0: 716e 8abe f697 053e 4cd5 a53d 241e 09be
000002b0: edc7 84be 6a97 073e 48e0 f23d 4083 07bc
000002c0: 60e6 ff3d a014 313e 2c12 64be 43f5 8bbe
000002d0: 1063 57bd 9868 3abd 0ec3 f8bd b074 aa3d
000002e0: 167e 78be 0b54 9d3e 9453 82bd 96e1 34be
000002f0: 18f7 4ebd b034 80be b219 8cbe 746d bb3d
00000300: 76bb b1bd 8c5a 2fbe cc56 153e 4ef4 7c3e
00000310: 903b 113d 5e5d 21be 6436 303e 5e08 dfbd
00000320: a3e5 15be 1889 7cbd ac5f 9dbd 1b4e 9c3e
00000330: 5876 68bd 9fc7 91be 9aad cdbd dc94 ed3d
00000340: b605 0c3e 4e39 59be cc1a 64be 9845 b8bd
00000350: 50a7 a53c 2f3e 85be 0813 153e 3019 73bd
00000360: 6e5e 3c3e e004 c13d b8b1 4ebd 10ca e9bc
00000370: 7015 c73d da45 28be 56e4 a7bd e432 143e
00000380: 5d82 90be acee 80bd 80cf 863d 3fff 26be
00000390: 2a4c 193e 7268 203e c8c9 3bbd f817 d0bd
000003a0: 6ab9 1c3e b0ef 913c b462 7abe cea0 3a3e
000003b0: 6563 9f3e 1d92 8a3e 01a1 32be 4951 963e
000003c0: 45f3 06be ba61 75be 1ee3 673e fe5a 64be
000003d0: 1dd2 943e c7ad 9e3e e7a3 59be 1273 563e
000003e0: f8fe 76bd 3064 a8bd b082 443d 309c f43d
000003f0: e764 5cbe d1c5 9e3e f2e4 623e 4514 3bbe

Decoupling.query.bias f4 [96]
-0.21491785 0.2933127 -0.24679577 -0.06973863 0.10449737 0.1051456 0.10577601 0.012761325
0.08681372 -0.21283948 -0.018683463 0.088170916 0.25366572 -0.25743908 -0.124826655 -0.21197912
-0.16341254 -0.18480654 -0.04826176 0.11426264 -0.061501265 0.06336877 -0.074765146 -0.30430028
0.040217906 0.013846397 -0.21475226 -0.30449694 0.078077346 -0.08701725 0.06333265 -0.06912178
-0.07786499 -0.12682721 0.30386993 -0.28164232 -0.0785121 -0.0861893 -0.1113027 0.16033304
0.28116533 0.2608042 -0.15387984 -0.13798274 0.12553924 0.16974342 -0.2651373 -0.1433745
-0.14906046 -0.030779898 -0.11116232 -0.24444696 -0.053091288 -0.07310726 0.024274945 -0.120531455
-0.14760983 0.28234383 -0.09112705 0.18835256 -0.20683864 -0.13708559 0.12867919 0.062437832
-0.23845977 0.24446723 -0.086088315 -8.895993e-05 -0.043056697 0.24151573 0.07655108 0.14734116
-0.0687827 0.31529066 0.123061866 0.15609467 -0.061353028 -0.26178032 0.22851858 -0.28161046
-0.3126255 0.030037582 -0.061125576 -0.22783226 0.24341765 0.031888425 -0.14655541 0.20335361
0.11195272 -0.24690686 -0.052270204 -0.27246487 -0.17622396 0.05700779 0.087608635 -0.12230624
00000000: 6d13 5cbe 152d 963e 08b8 7cbe 20d3 8ebd
00000010: b802 d63d 9456 d73d 18a1 d83d e014 513c
00000020: 64cb b13d 98f2 59be 100e 99bc f492 b43d
00000030: 79e0 813e 0ecf 83be 1ea5 ffbd 0e11 59be
00000040: 9e55 27be ed3d 3dbe 20ae 45bd 8802 ea3d
00000050: c0e8 7bbd 7cc7 813d 781e 99bd 3fcd 9bbe
00000060: 88bb 243d 00dc 623c 04e8 5bbe 06e7 9bbe
00000070: 04e7 9f3d 1a36 b2bd 8cb4 813d b88f 8dbd
00000080: ae77 9fbd fede 01be d794 9b3e 6c33 90be
00000090: f4ca a0bd 0484 b0bd acf2 e3bd 582e 243e
000000a0: e7f4 8f3e 2188 853e ad92 1dbe 594b 0dbe
000000b0: 5c8d 003e 38d1 2d3e 14c0 87be c4d0 12be
000000c0: 4ea3 18be 2026 fcbc 12a9 e3bd 4e50 7abe
000000d0: 4076 59bd 42b9 95bd 40dc c63c 32d9 f6bd
000000e0: 0827 17be 5f8f 903e d2a0 babd 7edf 403e
000000f0: 82cd 53be 2a60 0cbe 7ac4 033e d0be 7f3d
00000100: cc2e 74be 9e55 7a3e 124f b0bd 0090 bab8
00000110: 385c 30bd e64f 773e d0c6 9c3d 9ae0 163e
00000120: f2dd 8cbd c76d a13e dc07 fc3d 48d7 1f3e
00000130: 504d 7bbd 1208 86be c600 6a3e 3f2f 90be
00000140: 7310 a0be 6011 f63c d05e 7abd dc4c 69be
00000150: 7a42 793e 709d 023d 9f12 16be ee3b 503e
00000160: 7847 e53d 27d5 7cbe 4819 56bd 8480 8bbe
00000170: 0e74 34be 0081 693d 286c b33d b27b fabd

Decoupling.key.weight f4 [96, 10]
-0.111332 -0.2700436 -0.1954982 -0.020096838 0.011362404 0.17792001 0.21007833 0.2759693
0.061493695 -0.23398322 -0.08941288 -0.27827638 -0.02431792 0.16559574 0.036183953 0.14440441
0.26699135 0.16452149 -0.0657545 0.28810528 0.17530224 -0.23468842 0.045443594 0.15252373
0.10142562 0.3044264 -0.20752335 0.044530183 0.3065807 -0.19832042 -0.17031589 0.21427229
0.15930974 0.24885848 -0.054917544 0.18744871 -0.2717847 -0.18232624 0.050697356 -0.22440924
-0.0054474473 -0.11798979 0.31260964 -0.094475284 0.11005026 0.060714692 0.30469236 0.003297031
0.17965713 -0.21459517 -0.2281214 0.16369829 0.19646546 -0.16014366 0.2533292 0.104276955
-0.1792161 0.15250224 0.3144301 -0.081058174 0.24561611 -0.097611666 -0.29680845 -0.24986947
-0.106333196 0.29909632 0.13289037 0.27266333 0.16026509 -0.004496187 -0.20895135 -0.28740117
-0.10588908 -0.13964827 0.28460816 -0.076381564 -0.03821981 0.05735883 0.2595922 -0.03253895
0.16583198 -0.21816808 -0.30128008 -0.04851693 0.1448828 0.19809142 0.11530164 0.23967424
-0.18593675 0.07111183 0.2631044 -0.19572839 0.21884975 -0.25615555 0.20568469 0.1648637
0.2762458 -0.034195095 -0.017388076 -0.18998973 0.28993598 -0.010947317 -0.082187206 0.02065736
0.16443738 -0.16040109 -0.2518146 -0.076986715 0.095488995 0.03181529 -0.084122136 0.041125596
-0.025708556 0.24503228 -0.1858181 0.3049542 0.0030031204 0.22211513 0.1273174 -0.23784414
0.22682986 -0.110704005 -0.21269967 0.13839346 0.05980009 -0.159051 -0.14857627 0.27647468
-0.31615287 0.045223624 0.0063887537 -0.25248003 0.13745967 -0.2840051 -0.009425759 -0.06673972
0.17783332 -0.06826496 -0.29256442 -0.024070144 0.24898127 -0.18214862 0.2664965 0.17602399
-0.036084563 -0.009807527 0.26190326 0.0051120818 0.04290086 0.025972754 0.023806691 -0.27447778
-0.18263209 0.29185358 0.1883823 0.016459942 0.29887977 -0.123476446 0.13527846 -0.16552505
0.24446967 0.17433488 0.10899371 -0.01891017 0.21542272 0.17198876 0.1635643 -0.11773288
0.008820593 -0.07545748 -0.18465891 0.07674259 0.2720516 0.1861476 -0.08827393 0.18077275
-0.023453683 0.29927972 -0.31290004 0.08516076 -0.27925813 0.15068775 0.22717068 0.24243984
-0.10373396 0.027864218 0.08278331 -0.10841495 0.2962623 0.21654716 0.15652633 -0.12879704
0.22112599 -0.16108726 -0.2575219 -0.09903364 -0.02911061 0.19950321 0.1304285 0.11398336
-0.095855266 0.24547526 0.30184558 -0.2724642 0.28453055 0.062004 0.110250056 0.12358165
0.18427148 0.004855573 -0.08142905 -0.10900371 -0.20296714 -0.012171805 -0.17751686 0.18871328
-0.22640353 0.27489075 -0.2792514 0.26333287 0.035820156 -0.2980899 0.09482092 -0.2035917
-0.2505017 0.016645849 -0.08997211 0.07804078 0.25008836 -0.29001513 0.3145288 -0.17535146
-0.062489748 0.20498267 -0.13208847 -0.15938063 -0.073984325 0.1236029 -0.013694376 0.28808185
0.13653216 -0.2885585 -0.22764117 0.024917543 -0.012115151 -0.0960989 0.1039972 0.13271236
-0.18355197 -0.06308538 0.11322096 0.114593744 -0.028372943 0.1589858 0.11300576 -0.29679665
00000000: 0802 e4bd 2843 8abe ae30 48be 20a2 a4bc
00000010: 6029 3a3c aa30 363e c61e 573e d94b 8d3e
00000020: d0e0 7b3d 4c99 6fbe 1a1e b7bd 3e7a 8ebe
00000030: 6036 c7bc ee91 293e a035 143d c0de 133e
00000040: 17b3 883e 5278 283e 4caa 86bd 8982 933e
00000050: 6e82 333e 2952 70be 1023 3a3d 2e2f 1c3e
00000060: 3cb8 cf3d c7dd 9b3e 0081 54be 4865 363d
00000070: 25f8 9c3e 8214 4bbe 4a67 2ebe 326a 5b3e
00000080: 1822 233e c2d4 7e3e 38f1 60bd 8ef2 3f3e
00000090: 5d27 8bbe bbb3 3abe 08a8 4f3d 89cb 65be
000000a0: 8080 b2bb a2a4 f1bd 5f0e a03e 427c c1bd
000000b0: 0862 e13d f8af 783d a300 9c3e 0013 583b
000000c0: 0af8 373e d6be 5bbe a898 69be 86a0 273e
000000d0: 3e2e 493e b3fc 23be 5db4 813e 288f d53d
000000e0: 6d84 37be 8c29 1c3e fbfc a03e d401 a6bd
000000f0: ca82 7b3e a0e8 c7bd 47f7 97be c8dd 7fbe
00000100: 38c5 d9bd 2723 993e 6a14 083e 879a 8b3e
00000110: 881c 243e c054 93bb 58f7 55be 3f26 93be
00000120: 60dc d8bd f5ff 0ebe 29b8 913e f06d 9cbd
00000130: 608c 1cbd 18f1 6a3d 45e9 843e 9047 05bd
00000140: dccf 293e 7467 5fbe 6241 9abe b0b9 46bd
00000150: 285c 143e 7ad8 4a3e 4423 ec3d 2a6d 753e
00000160: 3466 3ebe 14a3 913d 9fb5 863e 066d 48be
00000170: 261a 603e d226 83be 029f 523e 08d2 283e
00000180: 1770 8d3e 2810 0cbd 7071 8ebc ab8c 42be
00000190: 7d72 943e 605c 33bc c451 a8bd a039 a93c
000001a0: 4662 283e 2f40 24be d8ed 80be 36ab 9dbd
000001b0: bc8f c33d c050 023d 3a48 acbd 5073 283d
000001c0: c09a d2bc bee9 7a3e 1a47 3ebe f522 9c3e
000001d0: 00d0 443b 2672 633e 7e5f 023e 6a8d 73be
000001e0: 1646 683e c8b8 e2bd f1cd 59be 04b7 0d3e
000001f0: f0f0 743d 44de 22be 6124 18be 178e 8d3e
00000200: cade a1be 683c 393d c058 d13b 1045 81be
00000210: 3ac2 0c3e 1e69 91be 806e 1abc d6ae 88bd
00000220: f019 363e 80ce 8bbd 01cb 95be c02e c5bc
00000230: f2f4 7e3e 2b85 3abe 3b72 883e a23f 343e
00000240: 68cd 13bd c0af 20bc 2f18 863e 4083 a73b
00000250: d0b8 2f3d d0c4 d43c 4006 c33c 5a88 8cbe
00000260: e803 3bbe d56d 953e 4ae7 403e 00d7 863c
00000270: c506 993e 38e1 fcbd 7086 0a3e 667f 29be
00000280: 4256 7a3e d884 323e 1838 df3d 80e9 9abc
00000290: c697 5c3e d21d 303e 667d 273e f01d f1bd
000002a0: 4084 103c 7489 9abd 3a17 3dbe 382b 9d3d
000002b0: 594a 8b3e 7a9d 3e3e f6c8 b4bd 7e1c 393e
000002c0: f021 c0bc 313b 993e 6f34 a0be c468 ae3d
000002d0: ecfa 8ebe e44d 1a3e 6e9f 683e 2642 783e
000002e0: 7872 d4bd 8043 e43c 4c8a a93d a808 debd
000002f0: b1af 973e 8abe 5d3e 7048 203e 5fe3 03be
00000300: da6e 623e 0ff4 24be e9d9 83be 26d2 cabd
00000310: 6079 eebc 924a 4c3e 0c8f 053e 1c70 e93d
00000320: c44f c4bd de5d 7b3e 818b 9a3e 6d80 8bbe
00000330: fdad 913e e8f7 7d3d c8ca e13d 6018 fd3d
00000340: aab1 3c3e 801b 9f3b 46c4 a6bd 563d dfbd
00000350: 9ed6 4fbe 406c 47bc fbc6 35be 0e3e 413e
00000360: 54d6 67be 7bbe 8c3e 0afa 8ebe 91d3 863e
00000370: 28b8 123d 3d9f 98be 7831 c23d 587a 50be
00000380: c241 80be e05c 883c 4c43 b8bd d8d3 9f3d
00000390: 950b 803e dd7c 94be eb09 a13e 558f 33be
000003a0: 40f5 7fbd fae6 513e 3342 07be ad34 23be
000003b0: 1885 97bd 8423 fd3d 605e 60bc 777f 933e
000003c0: 16cf 0b3e f1bd 93be c41a 69be e01f cc3c
000003d0: a07e 46bc 80cf c4bd 7cfc d43d c0e5 073e
000003e0: 0cf5 3bbe e832 81bd 64e0 e73d 20b0 ea3d
000003f0: 606e e8bc 2ccd 223e 906f e73d bbf5 97be

Decoupling.key.bias f4 [96]
0.2568423 -0.24801233 0.052294612 0.008770794 -0.16335003 0.2553073 0.21778914 -0.020720065
-0.034012288 0.19696793 -0.10462551 0.17902848 -0.21095073 -0.25976348 0.2111359 0.21571639
-0.24582785 -0.06994431 0.13433266 0.16892505 0.18842295 0.22162709 -0.14472885 0.067384094
0.27163848 -0.25951627 0.20512119 0.08000195 0.013824135 0.3132693 -0.13134843 -0.087070554
-0.23499826 0.266251 -0.23115121 0.2828054 -0.23269823 0.1812686 -0.15790817 0.27790073
-0.21172662 -0.20477125 -0.09124002 -0.254238 0.30058077 0.11691806 -0.17175649 -0.23908234
-0.104523 0.047497332 -0.14238952 0.1837596 -0.15525368 0.094225466 0.2276806 -0.2242021
-0.24690098 -0.3024477 0.059506953 0.24827114 -0.20174728 -0.042590708 0.19795963 0.24536934
0.17340922 0.101275116 0.054881632 0.023218423 0.2760755 0.01128751 0.122896135 -0.02307865
0.2504486 -0.313396 -0.10057157 -0.30305636 0.07426301 -0.07235305 -0.25988734 -0.24221313
0.09019944 0.23744962 0.26938352 0.2170209 -0.25529927 0.26287708 0.30143604 0.015318394
-0.30359522 -0.22863555 -0.2800083 0.05093664 0.26006064 0.20285055 -0.15379347 -0.13765444
00000000: d580 833e f2f6 7dbe e032 563d 60b3 0f3c
00000010: 3b45 27be a3b7 823e 1e04 5f3e 20bd a9bc
00000020: 7850 0bbd f6b1 493e e645 d6bd 3e53 373e
00000030: 7803 58be b8ff 84be 0234 583e c2e4 5c3e
00000040: 4cba 7bbe f63e 8fbd 808e 093e b0fa 2c3e
00000050: f2f1 403e 36f2 623e cd33 14be ac00 8a3d
00000060: 3314 8b3e 51df 84be 4a0b 523e 10d8 a33d
00000070: a07e 623c d564 a03e 3480 06be 0c52 b2bd
00000080: 62a3 70be 0d52 883e e7b2 6cbe dfcb 903e
00000090: 7248 6ebe 7a9e 393e aeb2 21be 0149 8e3e
000000a0: ddce 58be 8eaf 51be 0cdc babd 7c2b 82be
000000b0: b9e5 993e bc72 ef3d efe0 2fbe 00d2 74be
000000c0: 2810 d6bd 908c 423d 8fce 11be 7a2b 3c3e
000000d0: d2fa 1ebe 48f9 c03d 1a25 693e 3c95 65be
000000e0: 9cd3 7cbe 6dda 9abe 90bd 733d ca3a 7e3e
000000f0: d796 4ebe 9873 2ebd eeb5 4a3e 1a42 7b3e
00000100: 3092 313e 5469 cf3d 90cb 603d 9034 be3c
00000110: c559 8d3e 40ef 383c f8b0 fb3d 700f bdbc
00000120: cd3a 803e 7175 a0be 78f8 cdbd 342a 9bbe
00000130: 3417 983d d62d 94bd f40f 85be b806 78be
00000140: 7cba b83d fe25 733e a3ec 893e ba3a 5e3e
00000150: 96b6 82be d397 863e d355 9a3e 00fa 7a3c
00000160: d570 9bbe 701f 6abe 3f5d 8fbe f0a2 503d
00000170: ab26 853e 0eb8 4f3e 097c 1dbe 49f5 0cbe

Decoupling.value.weight f4 [96, 10]
0.2294582 0.020830804 0.34634858 0.5639789 -0.78734833 0.5109448 -0.118777044 -0.05679295
0.17399462 0.47011656 0.26686895 0.13429299 0.2308024 0.23840846 -0.2987971 0.20409484
-0.26110247 -0.7455721 1.0368562 0.4251663 -0.13840097 -0.1457686 0.6544738 0.62112826
-0.32448584 0.6162709 -0.33482996 -0.3817409 0.34168273 0.42562965 0.05846111 0.16994935
0.50245655 0.5872727 -0.6144161 -0.007596499 -0.13563903 -0.47237533 1.1200812 0.2765694
0.31596598 0.6918562 -0.010653524 0.1301802 0.42594403 -0.17365003 0.17854235 0.10101892
1.2963984 0.25970116 -0.10045416 -0.41074172 -0.47274262 -0.54185617 0.87031776 0.021231795
-0.0849001 1.1370504 -0.95343405 -0.2127556 -0.026533868 -0.7101198 -0.3595951 -0.32329974
-0.010945284 0.17469662 -0.14839984 -0.10146837 -1.3689201 0.13830423 0.19097492 0.03662773
-0.059963726 0.08806493 -0.21075988 0.28743318 0.043862287 -0.3539985 1.3252728 0.44197556
-0.16949512 0.7450477 0.28207326 0.34358355 -0.019089764 -0.09369193 -0.13349071 -0.36466485
1.0206268 0.2189236 0.29993737 0.5148663 0.34105927 0.57916135 -0.95300436 0.092543416
-0.31376046 -0.5677529 0.63634074 0.47121274 0.3297932 0.24136528 0.2507552 0.66960853
-0.7915765 -0.10108597 -0.08802127 -0.82965976 0.88164574 0.20858942 0.29075602 0.57355565
0.2865994 0.5325616 -0.3228598 0.043120887 0.15025836 -0.13058507 0.9609128 0.40895325
-0.50119215 -1.4313825 -0.15416889 0.004999027 -0.98853964 1.2831302 -0.37714043 0.09166709
-0.86938125 -0.039381817 0.23831849 0.7153341 0.19256237 0.44264838 -0.059649628 -0.34093806
0.37798274 -0.40542373 1.4964015 0.20192608 0.1021415 -0.70636034 0.054165263 0.032147262
-0.13552824 0.31693587 -0.19002526 -0.12547486 -1.4554046 -0.17899734 0.43433338 -0.23284061
0.36686185 0.4761155 -1.1970628 0.64474285 -0.4048468 -0.48398873 0.5371775 0.4196645
-0.40959585 0.005773302 -0.45157766 -0.3507973 0.5638883 -0.569125 -0.08899924 0.60789007
-0.6306757 -0.29713997 0.11959331 -0.5214095 -0.47015476 -0.2664586 0.58547705 -0.08507524
0.25804794 0.7559033 -1.1474093 0.005898287 0.12020065 0.97208345 0.20112792 0.42768496
0.11644095 -0.009949588 0.13793027 -0.049480483 1.3905134 0.19303636 -0.03991287 -0.3628334
-0.30833077 -0.23204978 0.5785626 -0.355098 0.16533303 0.9468042 -0.95099145 -0.264703
0.13149966 0.21070313 0.6696865 0.27848816 -1.0586869 0.37587774 -0.066936545 -0.33513772
0.7326814 0.28124303 -0.5978909 -1.2864851 0.25907925 -0.096765086 -1.2690164 1.3823439
0.051620126 0.03393274 -0.7593746 -0.016625848 0.13492738 1.0053306 0.21516375 0.33018327
0.1058622 -0.43766347 0.24578567 0.14625643 1.2378826 0.2390021 -0.14382242 -0.7706931
-0.12086598 -0.15200233 0.4074643 0.2612686 -0.22292048 0.64079106 -1.408051 -0.27461353
-0.07390081 0.3491469 0.25056666 0.21425636 -0.24184434 -0.2775561 -0.05758531 -0.06409417
0.984037 0.51703787 -0.111397676 -0.041607838 0.53860813 0.7054636 -0.3369337 0.3726756
00000000: 17f7 6a3e 5da5 aa3c 9a54 b13e ec60 103f
00000010: a98f 49bf 47cd 023f 6141 f3bd b99f 68bd
00000020: a52b 323e 1eb3 f03e 0ca3 883e 1a84 093e
00000030: 7757 6c3e 5921 743e effb 98be 3dfe 503e
00000040: 39af 85be d0dd 3ebf b4b7 843f 66af d93e
00000050: fcb8 0dbe 5d44 15be 988b 273f 4302 1f3f
00000060: 0223 a6be eec3 1d3f d56e abbe 8b73 c3be
00000070: 0af1 ae3e 21ec d93e eb74 6f3d 3407 2e3e
00000080: fea0 003f 8157 163f 604a 1dbf 0dec f8bb
00000090: f5e4 0abe 2edb f1be d25e 8f3f 819a 8d3e
000000a0: 4bc6 a13e 7d1d 313f 1e8c 2ebc f54d 053e
000000b0: 5615 da3e 50d1 31be ced3 363e 02e3 ce3d
000000c0: 62f0 a53f 8df7 843e e9ba cdbd bd4c d2be
000000d0: 520b f2be 16b7 0abf 25cd 5e3f 4dee ad3c
000000e0: 1be0 adbd de8a 913f 4114 74bf 9bdc 59be
000000f0: 8e5d d9bc 69ca 35bf d91c b8be 8b87 a5be
00000100: d953 33bc ace3 323e 21f6 17be a6ce cfbd
00000110: c638 afbf a09f 0d3e ee8e 433e f506 163d
00000120: 869c 75bd 635b b43d 70d1 57be 712a 933e
00000130: f1a8 333d 4b3f b5be 8aa2 a93f 9f4a e23e
00000140: 2190 2dbe 72bb 3e3f e86b 903e 2fea af3e
00000150: 2362 9cbc 8ee1 bfbd cab1 08be 5ab5 babe
00000160: e6a3 823f 822d 603e 6491 993e 47ce 033f
00000170: 529f ae3e eb43 143f 18f8 73bf 6787 bd3d
00000180: 36a5 a0be 4158 11bf 3ae7 223f cc42 f13e
00000190: a8da a83e 7628 773e fc62 803e 776b 2b3f
000001a0: c2a4 4abf 2906 cfbd 7f44 b4bd 9564 54bf
000001b0: 89b3 613f 7798 553e f9dd 943e 8bd4 123f
000001c0: 28bd 923e f555 083f e14d a5be 879f 303d
000001d0: 54dd 193e 18b8 05be 62fe 753f 5262 d13e
000001e0: 214e 00bf 8b37 b7bf 73de 1dbe e1ce a33b
000001f0: ef10 7dbf 9c3d a43f 8d18 c1be f5bb bb3d
00000200: c58f 5ebf d44e 21bd c309 743e 2320 373f
00000210: 122f 453e cfa2 e23e 2b53 74bd 6f8f aebe
00000220: f486 c13e b393 cfbe 168a bf3f b6c5 4e3e
00000230: 902f d13d 08d4 34bf 65dc 5d3d d9ac 033d
00000240: eac7 0abe 6b45 a23e fb95 42be 7b7c 00be
00000250: b34a babf 144b 37be f260 de3e c56d 6ebe
00000260: 51d5 bb3e 69c5 f33e 5b39 99bf de0d 253f
00000270: 1448 cfbe 5fcd f7be 7784 093f 44de d63e
00000280: 8cb6 d1be f82d bd3b 3035 e7be b49b b3be
00000290: fc5a 103f 2db2 11bf 3c45 b6bd af9e 1b3f
000002a0: f673 21bf bb22 98be 56ed f43d 187b 05bf
000002b0: 20b8 f0be 436d 88be d3e1 153f ed3b aebd
000002c0: dc1e 843e e182 413f 4fde 92bf 6b46 c13b
000002d0: c22b f63d 76da 783f 7af4 4d3e 86f9 da3e
000002e0: 9878 ee3d 9903 23bc 983d 0d3e 0cac 4abd
000002f0: 58fc b13f 53ab 453e ad7b 23bd 4dc5 b9be
00000300: 88dd 9dbe 759e 6dbe ae1c 143f 68cf b5be
00000310: 104d 293e c361 723f 2d74 73bf 2787 87be
00000320: d9a7 063e 90c2 573e 9370 2b3f 0096 8e3e
00000330: 0d83 87bf 0c73 c03e 0716 89bd 2c97 abbe
00000340: 0291 3b3f 16ff 8f3e 610f 19bf 8bab a4bf
00000350: 09a6 843e c62c c6bd 216f a2bf a5f0 b03f
00000360: a06f 533d 0ffd 0a3d 6066 42bf ee32 88bc
00000370: 672a 0a3e acae 803f e353 5c3e c80d a93e
00000380: 48ce d83d 6d15 e0be 3daf 7b3e 3fc4 153e
00000390: f072 9e3f f7bc 743e 2f46 13be 254c 45bf
000003a0: 9588 f7bd 80a6 1bbe 299f d03e ffc4 853e
000003b0: 4445 64be e20a 243f 043b b4bf 259a 8cbe
000003c0: 4f59 97bd 62c3 b23e 464a 803e 0566 5b3e
000003d0: 0ba6 77be d51b 8ebe 93de 6bbd ce43 83bd
000003e0: d9e9 7b3f 985c 043f 7724 e4bd fb6c 2abd
000003f0: 39e2 093f 4399 343f 9382 acbe 56cf be3e

Decoupling.value.bias f4 [96]
-0.04035456 0.4741224 -0.08131908 0.11150288 0.49430293 -0.36147612 -0.2949413 0.0069286455
0.25544667 0.20212536 0.3657933 0.53855276 -0.49123675 0.45134553 -0.2768407 -0.178354
-0.08937709 -0.45581207 0.39834815 -0.25799128 0.098937586 -0.5122415 0.30763644 -0.51818365
0.41245374 0.3527739 -0.46192813 0.3701221 -0.43517622 -0.1942686 -0.334311 0.4365121
-0.50468683 0.1364059 -0.3310889 -0.26903996 -0.10661624 -0.42780036 -0.14121985 0.12354504
0.041647945 -0.15111078 0.4402493 0.31150147 -0.10666872 -0.34575504 0.028307268 0.40942013
-0.17865084 -0.21385089 -0.084683254 0.120075285 -0.02385335 -0.41940218 -0.5175674 0.43830055
0.3920151 -0.39296353 0.12849443 0.19382596 -0.33628058 -0.43787515 -0.15647402 0.13367656
-0.41090614 -0.16480343 0.08052886 -0.2551056 -0.22932006 0.34998852 -0.004275562 -0.060490396
0.100775726 0.054641888 0.18015766 -0.25916603 0.47751462 0.06457662 -0.12282722 -0.022864971
0.54759765 -0.4724717 -0.07360607 -0.17622149 -0.30181056 -0.4578323 0.47669935 -0.19410856
0.077756085 0.33877242 0.0045296047 -0.23759495 0.4306869 0.4455347 -0.13891539 0.04588042
00000000: d34a 25bd 2cc0 f23e 9e8a a6bd 9f5b e43d
00000010: 4615 fd3e 6613 b9be 8c02 97be b109 e33b
00000020: e8c9 823e f3f9 4e3e 4249 bb3e 98de 093f
00000030: 6283 fbbe c316 e73e 10be 8dbe 6ea2 36be
00000040: 560b b7bd 3360 e9be 4af4 cb3e 6f17 84be
00000050: ca9f ca3d 4222 03bf 8682 9d3e afa7 04bf
00000060: 232d d33e c89e b43e d881 ecbe a580 bd3e
00000070: 6bcf debe 59ee 46be d02a abbe 847e df3e
00000080: 2833 01bf fdad 0b3e 7c84 a9be 9bbf 89be
00000090: 9e59 dabd a608 dbbe f09b 10be 2f05 fd3d
000000a0: 0997 2a3d c9bc 1abe 5b68 e13e 1f7d 9f3e
000000b0: 2175 dabd ce06 b1be a5e4 e73c 849f d13e
000000c0: 3ff0 36be bafb 5abe 6a6e adbd 08ea f53d
000000d0: 1a68 c3bc e2bb d6be 4c7f 04bf ee68 e03e
000000e0: 34b6 c83e 8432 c9be 0b94 033e 507a 463e
000000f0: f82c acbe 2c31 e0be ba3a 20be 82e2 083e
00000100: 4a62 d2be 3bc2 28be 51ec a43d 349d 82be
00000110: e1d2 6abe b231 b33e 031a 8cbb c7c4 77bd
00000120: 8163 ce3d 2cd0 5f3d 407b 383e 69b1 84be
00000130: cc7c f43e bf40 843d d68c fbbd 524f bbbc
00000140: 5c2f 0c3f d0e7 f1be c7be 96bd 6873 34be
00000150: ea86 9abe ff68 eabe f011 f43e 65c4 46be
00000160: 953e 9f3d 9473 ad3e 146d 943b 174c 73be
00000170: fe82 dc3e 201d e43e d63f 0ebe 1bed 3b3d

Decoupling.fc_out.weight f4 [11, 96]
-0.5250373 -0.22592331 -0.47741652 -0.5502955 -0.16742587 0.5966925 0.20007469 -0.22783878
-0.23068833 -0.509774 -0.6946557 -0.23332676 -0.04812037 -0.13325126 0.17331198 -0.5524739
0.3843371 0.501828 -0.15633823 0.46531612 -0.54185855 -0.061616097 -0.047254704 0.15740433
-0.21237056 -0.45347232 0.32514426 -0.46172196 0.16381016 0.20093451 0.36289734 -0.837626
0.32216826 -0.48078454 0.23804367 0.08283891 0.28890654 0.3162986 0.1425991 -0.5049965
-0.21218315 0.57946485 -0.12170912 0.033069957 0.19689324 0.7930518 -0.35414967 0.0016965328
0.4304694 0.79960054 0.53268695 -0.40854228 -0.3391608 0.8931644 0.0022371293 -0.29604903
-0.23316848 0.46145317 -0.3389091 -0.94498366 0.3950646 0.34726486 0.3900793 -0.43527544
0.190211 0.37178427 -0.5065581 0.5640114 0.8302376 -0.12420756 0.5534394 -0.14991577
-0.5605648 0.46833932 -0.1224394 0.35316205 -0.24577706 0.32448363 0.36567706 -0.07773892
-0.5629296 0.1807766 -0.07172051 0.15513115 0.1003993 0.21338195 -0.48095983 0.089819215
-0.37780172 -0.26719302 0.15028083 -0.0087606525 -0.30538073 -0.73886806 0.29961333 -0.822942
-0.28418025 -0.17707673 -0.26663303 -0.48959917 -0.12624915 0.6136484 0.38992333 -0.3453639
-0.29775298 -0.41054675 -0.48420703 -0.17061575 0.023197424 -0.35747692 0.24885246 -0.47361583
0.37188673 0.49212822 -0.21104796 0.43541905 -0.29678518 0.0025856432 -0.27948916 0.35540566
-0.27430028 -0.36974013 0.43410593 -0.32828432 0.23732165 0.35212475 0.5156889 -0.6742042
0.344589 -0.4330885 0.36779535 0.22427584 0.31003776 0.43139923 0.2330939 -0.3211044
-0.30243486 0.4178427 -0.29628778 -0.17420572 0.35393435 0.5951163 -0.39017817 -0.18683259
0.4244243 0.5751361 0.5857313 -0.5032833 -0.32191515 0.85599977 0.26290983 -0.4086116
-0.15435506 0.32621154 -0.34169593 -0.5959931 0.3017281 0.39263615 0.32183602 -0.38571215
0.31867346 0.34457695 -0.63233936 0.38199067 0.8451865 -0.28805566 0.5072121 -0.23871312
-0.58976716 0.3251026 -0.34167427 0.35157582 -0.2104181 0.35590717 0.4195795 -0.19281827
-0.5910446 0.17715256 -0.28387082 0.25044265 0.35895792 0.30074075 -0.4556841 0.20081443
-0.5573259 -0.26462874 0.21005277 0.10641327 -0.37373734 -0.7230455 0.33942488 -0.56334364
0.3494269 -0.054661356 0.08796438 0.0206555 -0.579792 -0.06246771 0.47687414 -0.29805997
-0.26808888 0.09224251 -0.05000584 -0.22578031 0.7889426 -0.45908675 0.76954794 1.2101561
-0.15091586 0.04359704 -0.482661 -0.096552774 0.39148572 1.0533799 -0.50066304 0.29273814
-0.23943442 0.003285525 0.12894548 0.20280322 0.45010287 0.29605076 0.25885183 0.06766016
0.22467858 -0.044812232 0.259992 0.5689975 0.09042914 0.29324955 0.30333146 0.9113674
0.0558407 -0.58972454 -0.35477704 -0.35800722 0.3062501 -0.087531954 -0.23244439 -0.6943139
-0.03361986 -0.13985144 0.031924844 0.015089626 0.2753054 -0.02852931 0.37003204 -0.20771404
-0.2194575 0.104550526 -0.25954074 0.5106595 0.23584776 -0.10347438 -0.016410416 0.108522415
00000000: d868 06bf 7158 67be f06f f4be 2ae0 0cbf
00000010: b071 2bbe d7c0 183f 61e0 4c3e 924e 69be
00000020: 9039 6cbe 8d80 02bf f5d4 31bf 36ed 6ebe
00000030: dd19 45bd 0573 08be b278 313e ee6e 0dbf
00000040: d5c7 c43e cd77 003f 2117 20be ea3d ee3e
00000050: 3eb7 0abf 2961 7cbd 268e 41bd 9a2e 213e
00000060: ab77 59be 862d e8be 4f79 a63e d266 ecbe
00000070: dabd 273e c7c1 4d3e aecd b93e a86e 56bf
00000080: 3df3 a43e 6429 f6be b8c1 733e 72a7 a93d
00000090: 8feb 933e e4f1 a13e 8005 123e 7347 01bf
000000a0: 8a46 59be cf57 143f a242 f9bd 5d74 073d
000000b0: 629e 493e 7105 4b3f 1b53 b5be 325e de3a
000000c0: 7c66 dc3e 9fb2 4c3f 2c5e 083f 742c d1be
000000d0: 7ca6 adbe 6ca6 643f cd9c 123b bd93 97be
000000e0: b8c3 6ebe 9743 ec3e 7e85 adbe 73ea 71bf
000000f0: e845 ca3e b3cc b13e 79b8 c73e 6cdc debe
00000100: acc6 423e 825a be3e cbad 01bf 0d63 103f
00000110: 748a 543f 8960 febd 34ae 0d3f 8583 19be
00000120: 2d81 0fbf 2cca ef3e 82c1 fabd a8d1 b43e
00000130: fbac 7bbe b822 a63e 063a bb3e 9535 9fbd
00000140: 271c 10bf 801d 393e 34e2 92bd b3da 1e3e
00000150: 269e cd3d cc80 5a3e 5e40 f6be 23f3 b73d
00000160: 3a6f c1be 86cd 88be 38e3 193e d788 0fbc
00000170: dd5a 9cbe 7526 3dbf eb66 993e 54ac 52bf
00000180: 1380 91be 9a53 35be 2084 88be beac fabe
00000190: 7547 01be 1018 1d3f 08a4 c73e 89d3 b0be
000001a0: 1473 98be 2f33 d2be fce9 f7be e5b5 2ebe
000001b0: 8608 be3c 3707 b7be 2ed3 7e3e c67d f2be
000001c0: f067 be3e 3bf8 fb3e f51c 58be 3fef de3e
000001d0: 3af4 97be e573 293b 3419 8fbe bbf7 b53e
000001e0: 1671 8cbe 944e bdbe 2243 de3e e214 a8be
000001f0: 7204 733e b249 b43e 3004 043f a598 2cbf
00000200: f86d b03e c7bd ddbe ac4f bc3e 91a8 653e
00000210: 45bd 9e3e 5ce0 dc3e 2bb0 6e3e cc67 a4be
00000220: bed8 9abe 7aef d53e 08b3 97be fc62 32be
00000230: e236 b53e 8b59 183f 6fc5 c7be 0b51 3fbe
00000240: 244e d93e 1f3c 133f 7df2 153f 2dd7 00bf
00000250: 10d2 a4be cd22 5b3f 1e9c 863e 8a35 d1be
00000260: 410f 1ebe 3305 a73e c5f2 aebe 0193 18bf
00000270: 1b7c 9a3e 9b07 c93e b1c7 a43e 107c c5be
00000280: 2b29 a33e 646c b03e fee0 21bf 4894 c33e
00000290: 245e 583f 087c 93be a7d8 013f 3671 74be
000002a0: fbfa 16bf d973 a63e eeef aebe bf01 b43e
000002b0: d877 57be 7739 b63e 20d3 d63e 2772 45be
000002c0: b34e 17bf 7b67 353e 8457 91be 053a 803e
000002d0: 55c9 b73e b1fa 993e 6d4f e9be 4ca2 4d3e
000002e0: e9ac 0ebf 6b7d 87be 1318 573e 33ef d93d
000002f0: 805a bfbe 8319 39bf 19c9 ad3e 4a37 10bf
00000300: 15e8 b23e 96e4 5fbd ab26 b43d b935 a93c
00000310: 406d 14bf 24de 7fbd d928 f43e 519b 98be
00000320: f242 89be a4e9 bc3d ecd2 4cbd f432 67be
00000330: 24f8 493f 6b0d ebbe 1801 453f 65e6 9a3f
00000340: b089 1abe cf92 323d 581f f7be 76bd c5bd
00000350: d170 c83e 27d5 863f 742b 00bf c6e1 953e
00000360: 4c2e 75be f651 573b 490a 043e a6ab 4f3e
00000370: e273 e63e f793 973e 3a88 843e 6991 8a3d
00000380: 2412 663e 088d 37bd ac1d 853e d2a9 113f
00000390: ea32 b93d ce24 963e 434e 9b3e 604f 693f
000003a0: 38b9 643d 30f8 16bf 56a5 b5be b94c b7be
000003b0: d0cc 9c3e f443 b3bd e705 6ebe 8ebe 31bf
000003c0: fab4 09bd 3735 0fbe a0c3 023d 7b3a 773c
000003d0: d4f4 8c3e 4db6 e9bc d774 bd3e fdb2 54be
000003e0: 78b9 60be 961e d63d 86e2 84be 95ba 023f
000003f0: 1382 713e 60ea d3bd 236f 86bc 0041 de3d

Decoupling.fc_out.bias f4 [11]
-0.2297998 -0.274708 -0.17403485 0.14391275 0.008137914 0.11944609 0.46095273 0.043104574
-0.026668139 0.08954319 0.26940066
00000000: a450 6bbe 87a6 8cbe 3136 32be dd5d 133e
00000010: e354 053c 27a0 f43d ff01 ec3e 6c8e 303d
00000020: 2477 dabc 6c62 b73d e2ee 893e

multi_physics.experts.0.0.weight f4 [4, 12]
-0.2702376 0.16959822 -0.0802128 0.022859782 0.23143595 0.15313506 0.09007305 -0.15701114
0.17046854 0.2723484 -0.26653022 -0.06220226 -0.22060445 -0.0722906 0.062237024 -0.2718027
-0.20104963 0.10960704 0.23307753 -0.11487009 0.15681082 -0.22657952 -0.11396621 0.21667212
-0.021708606 0.10627188 -0.18864366 0.079042345 -0.048667304 -0.021479826 0.09374042 0.0875453
0.21441983 -0.002181041 -0.07416066 0.22990139 0.025860894 -0.27431232 -0.22700605 0.13755697
0.1743833 -0.17313345 0.18495192 0.10596038 0.14212522 0.043008067 0.119431615 -0.057420485
00000000: 955c 8abe 28ab 2d3e 9c46 a4bd 7044 bb3c
00000010: 8cfd 6c3e 70cf 1c3e 3878 b83d 87c7 20be
00000020: 4e8f 2e3e 4071 8b3e a676 88be ccc7 7ebd
00000030: 22e6 61be 180d 94bd 40ec 7e3d b929 8bbe
00000040: f4df 4dbe a879 e03d e0ab 6e3e 0241 ebbd
00000050: 0493 203e 7604 68be 1e67 e9bd 4cdf 5d3e
00000060: 3fd6 b1bc 12a5 d93d ce2b 41be f4e0 a13d
00000070: 5e57 47bd 76f6 afbc fafa bf3d f34a b33d
00000080: df90 5b3e ccef 0ebb 8be1 97bd 456b 6b3e
00000090: 3ada d33c aa72 8cbe 4674 68be bcdb 0c3e
000000a0: 8991 323e e549 31be 0964 3d3e c101 d93d
000000b0: 4689 113e 3a29 303d 9098 f43d be31 6bbd

multi_physics.experts.0.0.bias f4 [4]
-0.24755639 -0.07466088 0.07350697 -0.10221313
00000000: 6c7f 7dbe cee7 98bd d38a 963d 1e55 d1bd

multi_physics.experts.0.2.weight f4 [8, 4]
0.2013138 0.45791376 0.1999914 0.32365954 -0.047951937 -0.02124244 -0.13082196 0.4464023
-0.37431264 0.21765506 0.21329077 0.4657321 -0.060394347 -0.21692073 0.4929484 -0.3238491
0.0056524277 -0.30674165 0.35823506 0.30187517 -0.26613265 -0.035524666 -0.0048490763 -0.46778998
0.4598906 0.20814067 0.0131470235 0.43440166 0.2513696 0.22430193 0.20587552 -0.1423852
00000000: 3425 4e3e ac73 ea3e 8cca 4c3e b4b6 a53e
00000010: 4069 44bd a004 aebc 31f6 05be d88e e43e
00000020: e8a5 bfbe f8e0 5e3e e568 5a3e 7074 ee3e
00000030: 1060 77bd 7820 5ebe bc63 fc3e 8dcf a5be
00000040: 0038 b93b 3e0d 9dbe 966a b73e 628f 9a3e
00000050: 8a42 88be 5082 11bd 00e5 9ebb 2b82 efbe
00000060: c876 eb3e d422 553e 9d66 573c e569 de3e
00000070: 84b3 803e 68af 653e 08d1 523e 6dcd 11be

multi_physics.experts.0.2.bias f4 [8]
-0.43566757 0.23245409 -0.0014539552 0.26107714 -0.3595621 0.0705216 0.42114455 0.10048555
00000000: d20f dfbe 7208 6e3e a492 beba e7ab 853e
00000010: 8618 b8be a16d 903d 42a0 d73e 5ecb cd3d

multi_physics.experts.0.4.weight f4 [16, 8]
-0.27257085 0.070005484 0.31547338 -0.13350457 -0.08348867 0.20745435 0.19267386 0.11709114
0.067954935 0.26714227 0.33315355 -0.2862558 0.22506835 0.26722237 0.20227535 0.16262998
0.13125245 0.2913177 0.059561398 0.3445629 -0.042485856 0.2086221 0.30454573 0.040626183
0.27274984 0.23853584 0.14170298 -0.12981191 -0.25850913 0.13708483 0.22338681 -0.31673965
-0.019824402 -0.0050660386 -0.08434921 0.21618599 0.29090142 -0.114458755 0.14011651 0.27080828
-0.02681305 0.19265595 0.34418982 0.00040410832 -0.3277563 -0.31244314 0.2952035 -0.21513283
0.31929997 0.06230262 -0.28057966 0.34461185 0.2638359 -0.10176247 -0.0704242 -0.19726938
-0.22087619 0.052275628 -0.058384955 -0.25422826 -0.112981275 0.1371251 0.05024954 0.060825072
-0.22706783 -0.16158178 0.098002076 0.23328671 0.063492954 -0.26971912 0.12721595 -0.22166039
-0.33447483 0.2640612 0.21109647 -0.028961528 0.21728928 -0.109522544 0.1282212 -0.317027
-0.16670966 -0.05278377 0.081175625 0.19788365 0.060588483 -0.15119179 0.29651836 0.23784013
-0.19959648 0.02191356 0.32975778 -0.11459261 -0.34957996 0.26470196 0.15539825 0.19074638
0.04753405 -0.055163026 -0.07960245 0.16200307 -0.09139174 -0.16345568 -0.01402083 0.1052092
-0.3433928 0.03637528 0.17157379 -0.18340597 0.23845896 0.10209916 0.2177841 0.1708186
0.0059073567 0.16899273 -0.29146832 0.25530747 -0.052626193 0.00306046 -0.14883907 -0.24337494
-0.21237965 0.17258713 -0.0933857 0.3114268 -0.07199019 -0.3500672 -0.19049612 -0.018044174
00000000: 688e 8bbe 095f 8f3d ba85 a13e 6cb5 08be
00000010: 1cfc aabd ea6e 543e 4c4c 453e 7bcd ef3d
00000020: f52b 8b3d dfc6 883e 1a93 aa3e 1f90 92be
00000030: 5178 663e 5fd1 883e 4521 4f3e 7988 263e
00000040: 0b67 063e 9827 953e a7f6 733d 8c6a b03e
00000050: a605 2ebd 08a1 553e 6bed 9b3e a467 263d
00000060: dea5 8b3e bd42 743e 961a 113e 6aed 04be
00000070: 4f5b 84be f75f 0c3e 83bf 643e b32b a2be
00000080: c966 a2bc 0301 a6bb 47bf acbd dc5f 5d3e
00000090: 08f1 943e 5a69 eabd b47a 0f3e 62a7 8a3e
000000a0: 0ba7 dbbc 9a47 453e a639 b03e 80de d339
000000b0: accf a7be 8cf8 9fbe ea24 973e c84b 5cbe
000000c0: 497b a33e 0831 7f3d 23a8 8fbe f770 b03e
000000d0: 8015 873e d868 d0bd 903a 90bd fc00 4abe
000000e0: 5e2d 62be f81e 563d 1025 6fbd 352a 82be
000000f0: ba62 e7bd 866a 0c3e 76d2 4d3d b623 793d
00000100: 7884 68be b275 25be 50b5 c83d b6e2 6e3e
00000110: 9808 823d a018 8abe e644 023e f1fa 62be
00000120: 4940 abbe 0833 873e ac29 583e ba40 edbc
00000130: 1581 5e3e 5b4d e0bd 6b4c 033e 5d51 a2be
00000140: f0b5 2abe cb33 58bd 683f a63d 03a2 4a3e
00000150: a12b 783d 05d2 1abe 41d1 973e 5d8c 733e
00000160: 0563 4cbe 1184 b33c 03d6 a83e 88af eabd
00000170: 25fc b2be 0487 873e b820 1f3e 0553 433e
00000180: 10b3 423d a0f2 61bd 9c06 a3bd 22e4 253e
00000190: 982b bbbd ed60 27be a0b7 65bc ec77 d73d
000001a0: 2ed1 afbe 3ffe 143d 0ab1 2f3e c6ce 3bbe
000001b0: 962e 743e 5d19 d13d cc02 5f3e 12eb 2e3e
000001c0: 8092 c13b 6e0c 2d3e 563b 95be a9b7 823e
000001d0: 908e 57bd 0092 483b 4569 18be 4837 79be
000001e0: 0d7a 59be aeba 303e 0041 bfbd 5573 9f3e
000001f0: 986f 93bd 023c b3be 6a11 43be 60d1 93bc

multi_physics.experts.0.4.bias f4 [16]
-0.2259303 -0.14870179 0.21122302 0.18784665 0.028464757 -0.24283607 -0.28049934 -0.05549273
-0.3329023 0.13303211 0.046593428 0.08794293 -0.029328257 0.2654679 -0.19172952 -0.305369
00000000: 465a 67be 4845 18be d94a 583e df5a 403e
00000010: ec2e e93c 05aa 78be 9c9d 8fbe 584c 63bd
00000020: 2c72 aabe 9239 083e c0d8 3e3d 6c1b b43d
00000030: d041 f0bc 69eb 873e be54 44be 5359 9cbe

multi_physics.experts.0.6.weight f4 [32, 16]
-0.10948935 0.07192393 -0.24395184 0.0011749562 0.16084798 0.124341056 0.09431886 -0.11855601
0.057799667 -0.042280562 0.14725514 0.09399326 0.06853011 0.020485535 0.08217743 0.061521888
-0.08632263 -0.22019847 0.021148456 -0.027661616 0.111610554 0.0927534 -0.2503568 -0.041957885
-0.20439732 0.15122634 -0.031303048 -0.22483711 0.21796152 0.115025 -0.054650366 0.12632439
0.013024359 -0.0062725404 0.1179286 -0.008762219 -0.09625463 0.08656577 -0.09803113 0.1801529
0.22303298 -0.110937804 0.07951328 0.06339627 0.12399635 0.02098833 0.00912109 0.06322381
-0.18801989 0.048539277 -0.21295466 0.0038319991 0.16946529 -0.11011234 -0.07070437 0.24271399
0.08892736 0.03352866 0.056670897 -0.07641735 0.036196023 0.23753192 0.09089324 0.24592885
0.13884795 -0.04733771 -0.03760925 0.11841333 0.009807944 0.07157084 -0.23115227 0.051656067
0.0321984 -0.23175657 0.04299912 0.09300819 -0.0062039793 -0.23093331 0.21820945 -0.20891169
0.16183902 0.019356497 -0.05909495 -0.16917256 0.22290464 0.2061247 -0.18231578 -0.0011688113
-0.16614181 -0.121346794 -0.019130165 0.23753802 -0.012401104 0.25542834 -0.24742237 -0.051194787
0.020579072 -0.13386086 -0.001690251 -0.011280761 0.16236962 -0.04957494 -0.060827866 0.17511128
-0.09105605 0.15272738 0.20240854 -0.14896663 0.030908972 -0.069173075 0.19548506 -0.031765252
-0.04994557 0.15667965 0.03560221 0.16230676 -0.10001418 -0.22386749 0.019647563 0.24158488
0.18873787 -0.11122693 0.21785232 -0.15534009 0.23398134 -0.016442994 -0.12798363 0.05473882
0.17508948 0.12966147 -0.1577065 0.03340357 0.0676873 -0.0889461 0.00056513265 0.208453
-0.06633332 0.16473804 -0.24202399 -0.12269671 0.057937533 -0.12833397 -0.18744221 -0.041246414
-0.10943756 0.105702184 0.1406269 -0.15745118 0.15196006 0.15419623 0.14370452 -0.12272181
-0.19824573 0.009097703 0.10599622 0.13947272 -0.1921798 0.22860557 0.24202517 -0.019650906
0.024062483 0.028012153 -0.20095469 -0.25343293 0.13913934 0.18608226 -0.021973908 -0.21738485
0.010267884 -0.17923568 0.070070095 0.21296749 0.24972254 0.19051349 0.057401985 0.24551997
-0.048341125 -0.008286625 -0.1717245 0.10398859 0.097676665 0.10126433 0.17999846 0.2162297
-0.2362211 -0.070842296 -0.19984818 0.18998617 -0.007830173 -0.22228637 0.10611087 -0.15323716
0.01202969 0.14530717 0.15653694 0.17220703 0.0074263685 -0.012098566 -0.026280154 -0.20690036
-0.088851005 0.20629033 0.14432931 -0.20647885 0.062359273 0.2494769 -0.19879103 -0.025050193
-0.13436514 -0.003597647 -0.10903862 0.21898535 0.1297997 -0.04844007 -0.2165139 -0.13303149
-0.02640614 0.06728482 -0.101044446 -0.15312427 -0.030692697 -0.19890425 0.05565366 -0.22452736
-0.042531073 -0.20939586 -0.09796184 0.0027177036 -0.1211158 -0.16384363 0.028192788 -0.12691873
0.013665289 0.053245842 -0.02646172 -0.21848938 -0.07124704 -0.025327444 0.07391679 -0.2016921
0.18663988 0.06922935 0.050465625 0.035472415 -0.024498116 0.09891344 0.15843587 -0.007605206
0.10684246 0.16547744 0.1232513 0.027531637 0.08676562 0.048423346 0.15783072 -0.07378596
00000000: f43b e0bd da4c 933d 83ce 79be fd00 9a3a
00000010: 55b5 243e 86a6 fe3d 3f2a c13d 7ecd f2bd
00000020: 58bf 6c3d 622e 2dbd 0dca 163e 8a7f c03d
00000030: 8459 8c3d 48d1 a73c a44c a83d 60fe 7b3d
00000040: ebc9 b0bd b57b 61be 873f ad3c 9d9a e2bc
00000050: 1394 e43d 7ff5 bd3d c42e 80be 08dc 2bbd
00000060: 884d 51be 14db 1a3e a037 00bd b33b 66be
00000070: 4e31 5f3e 3a92 eb3d 10d9 5fbd 2e5b 013e
00000080: 1f64 553c e289 cdbb 8d84 f13d 698f 0fbc
00000090: 2621 c5bd 6549 b13d 8cc4 c8bd 007a 383e
000000a0: c262 643e 5c33 e3bd dcd7 a23d e7d5 813d
000000b0: ccf1 fd3d b8ef ab3c a070 153c 7c7b 813d
000000c0: 4988 40be 1fd1 463d c910 5abe 4722 7b3b
000000d0: 4f88 2d3e 9482 e1bd 74cd 90bd 048a 783e
000000e0: 8c1f b63d 5955 093d be1f 683d b380 9cbd
000000f0: 4842 143d 913b 733e 3c26 ba3d c6d4 7b3e
00000100: 282e 0e3e 30e5 41bd 280c 1abd b082 f23d
00000110: 80b1 203c bc93 923d 2eb3 6cbe 5095 533d
00000120: 78e2 033d 9851 6dbe d81f 303d 147b be3d
00000130: c04a cbbb c879 6cbe 4c72 5f3e f2ec 55be
00000140: 21b9 253e 8491 9e3c 8c0d 72bd 923b 2dbe
00000150: 1d41 643e 5a12 533e fdb0 3abe cd32 99ba
00000160: 1421 2abe ab84 f8bd ddb6 9cbc 2b3d 733e
00000170: 002e 4bbc 81c7 823e 4a5c 7dbe a0b1 51bd
00000180: 7195 a83c d212 09be 6a8b ddba f1d2 38bc
00000190: 3944 263e 180f 4bbd a426 79bd 5f50 333e
000001a0: 987b babd 9164 1c3e 2f44 4f3e b58a 18be
000001b0: d034 fd3c 9daa 8dbd 3c2d 483e 481c 02bd
000001c0: ba93 4cbd a170 203e 9fd3 113d be33 263e
000001d0: 3cd4 ccbd 853d 65be edf3 a03c 0762 773e
000001e0: 8044 413e f2ca e3bd ae14 5f3e 7911 1fbe
000001f0: ce98 6f3e 75b3 86bc 240e 03be d035 603d
00000200: a84a 333e fac5 043e d07d 21be 2fd2 083d
00000210: a49f 8a3d 5f29 b6bd 6925 143a b474 553e
00000220: c4d9 87bd 17b1 283e 23d5 77be 6a48 fbbd
00000230: e84f 6d3d fb69 03be daf0 3fbe 00f2 28bd
00000240: cd20 e0bd 637a d83d 8000 103e e23a 21be
00000250: 6b9b 1b3e 9ee5 1d3e 4727 133e 9355 fbbd
00000260: ee00 4bbe 880e 153c 8c14 d93d f0d1 0e3e
00000270: c8ca 44be 9417 6a3e 72d5 773e f0fa a0bc
00000280: af1e c53c be79 e53c 11c7 4dbe f6c1 81be
00000290: 8b7a 0e3e 598c 3e3e a002 b4bc 229a 5ebe
000002a0: a03a 283c 8f89 37be e980 8f3d 2614 5a3e
000002b0: 44b7 7f3e f815 433e 581e 6b3d 9669 7b3e
000002c0: 5801 46bd a0c4 07bc 8cd8 2fbe f8f7 d43d
000002d0: b40a c83d ac63 cf3d 8451 383e 526b 5d3e
000002e0: f2e3 71be c415 91bd 00a5 4cbe bc8b 423e
000002f0: 204a 00bc 0a9f 63be a850 d93d 34ea 1cbe
00000300: 2d18 453c 67cb 143e 384b 203e 0a57 303e
00000310: e558 f33b 1039 46bc 7a49 d7bc b0dd 53be
00000320: 84f7 b5bd c63d 533e 10cb 133e 316f 53be
00000330: 706c 7f3d df76 7f3e e08f 4bbe 1036 cdbc
00000340: 0497 09be 80c6 6bbb a44f dfbd b23d 603e
00000350: 36ea 043e 1869 46bd d2b5 5dbe 6839 08be
00000360: b051 d8bc a0cc 893d 64f0 cebd 9ccc 1cbe
00000370: 406f fbbc 8ead 4bbe 18f5 633d 80ea 65be
00000380: 1035 2ebd de6b 56be 38a0 c8bd 801b 323b
00000390: 900b f8bd a0c6 27be 90f4 e63c fcf6 01be
000003a0: 60e4 5f3c 5018 5a3d 40c6 d8bc aebb 5fbe
000003b0: f8e9 91bd 807b cfbc b061 973d 6088 4ebe
000003c0: 861e 3f3e 1ec8 8d3d 0bb5 4e3d 864b 113d
000003d0: 46b0 c8bc 2193 ca3d 033d 223e 1835 f9bb
000003e0: 38d0 da3d eb72 293e 2d6b fc3d 078a e13c
000003f0: 2cb2 b13d 8f57 463d 609e 213e 181d 97bd

multi_physics.experts.0.6.bias f4 [32]
-0.08249242 0.07684929 0.15711516 0.26605874 0.007785946 0.12172087 0.17613317 -0.08154945
-0.11009856 0.16233742 -0.07735826 0.07098287 0.14866355 -0.03832397 -0.07054353 0.27694073
0.14048536 -0.21596158 -0.23501953 -0.041024208 -0.15015861 0.24470186 0.23493084 0.13301685
0.17085429 0.19199133 0.17726763 0.039237466 0.23162952 0.12916572 0.17384148 -0.1244041
00000000: c9f1 a8bd 2963 9d3d cce2 203e da38 883e
00000010: 4021 ff3b cb48 f93d 415c 343e 6603 a7bd
00000020: 5b7b e1bd c83b 263e 026e 9ebd 785f 913d
00000030: 423b 183e 98f9 1cbd 2079 90bd 2dcb 8d3e
00000040: 65db 0f3e 0825 5dbe f6a8 70be 0009 28bd
00000050: 2ec3 19be 2093 7a3e b691 703e 9235 083e
00000060: 6df4 2e3e 6099 443e a585 353e 77b7 203d
00000070: 4a30 6d3e 0544 043e 8003 323e 94c7 febd
