pretrained/ox_model.pth (torch, 316972 bytes, 82 tensors)

Decoupling.query.weight f4 [96, 10]
00000000: 66b6 9d2e 8806 ef2e 7683 0b2d 4a6d 182f
00000010: 9a96 2d2f ce2b a334 d7da c12f 986c 702e
00000020: 2199 052f 6503 132f b133 84b2 c544 2ead
00000030: 73de 8cac 4465 e8af f621 1aad 408b cfae
00000040: d86f baad 7b0d d52c a221 a9ad 14ad 1b2e
00000050: fb55 29b0 8638 89b4 cce2 33b0 e1a4 8eb4
00000060: 7430 7bad c236 f632 cf89 1daf 9bc6 1d31
00000070: 37fa 792b 70d6 a52f e0e7 ef31 5e21 5434
00000080: 17d9 01b3 1cb8 30ae e73d 0330 4213 a52f
00000090: 2610 aa34 d375 8bb0 08e7 9a31 3c7f e8ad
000000a0: 1f3d b52e 2c39 6d2e 1460 2d2e 4753 dc32
000000b0: c4c4 03b3 aad1 66ad 5115 3f2c f299 82af
000000c0: e875 112f ec1f 1333 359d 862c 1e69 8332
000000d0: 0a2e 002f 006c 3eb3 3fb2 7dae ef34 3633
000000e0: 94e3 50b0 d169 f9ad 260f 19af 0c8a 2f31
000000f0: fad2 01b2 070d 6dad ce0a 50ae 32d5 402f
00000100: 8f79 a42e e7cd ae2d 8536 12af 908e 82ae
00000110: 7341 2aae 981b 9fb2 283d b62f d793 9baf
00000120: 415d 2131 aec1 b4b0 9bd2 352d 9f46 bbb0
00000130: 29e2 0cb0 9934 9bae 52ef 9fae 2481 0630
00000140: 2ed2 6eac 344e 592c e9c4 bcae 5f26 e731
00000150: d1bb 21b1 4d1c 24af 3439 fa30 b6dc c42e
00000160: 09f4 0033 6c1c 8eae 2e6b ff2d cdd0 55aa
00000170: 5198 db2d b1fb 942d 26e0 cd2c e92f 80ab
00000180: 8a79 112e bcc4 9d31 510d 262f 7b78 f631
00000190: b8a2 28b2 a5a4 97ad d817 82b4 d330 98ae
000001a0: e948 6dac 93ed f8b2 1c66 98af 76d5 f4af
000001b0: a146 e8ad ad0b 37ad 7d74 a32d df75 1d2c
000001c0: c673 a332 1540 0f2d 11d4 b1b2 ddb6 88b0
000001d0: 3e51 5630 07ed 3b2f ad61 9db0 2b3a 512f
000001e0: 09ca c4ae f092 a72e 0cbe d2b1 2d94 fcae
000001f0: aee9 a62a 8ba3 b1af e429 ac34 7e14 b5b0
00000200: edfc afb2 b1a8 772b ab7c 4c2e 62e2 c02e
00000210: 9cee 77ad 52f7 af32 c0f3 a62e 6b3c d92f
00000220: 640f 61ae 2323 6f34 215a 652f 5c46 dbad
00000230: 49af e1b0 c0a3 a8af 71d9 bb2f ed5e 2ead
00000240: b40a eeb1 42ee 5cae 0023 0aae 508d 9fae
00000250: 636e d3ae f0c8 9232 a498 ab2e 8d5b 2eaf
00000260: 66d8 5eaf 4c9b 8434 8d2e 12ae 4cf8 1eb0
00000270: a368 2232 99da a232 c433 91af fd23 d4ad
00000280: a8e1 0bad c2a2 902c 8824 08b1 4650 04b2
00000290: fb85 a630 1ef6 002e c9a1 bf32 4681 79ad
000002a0: 7851 caae 4c12 cd2b b429 31ad ff2d 8130
000002b0: d714 ebad 584d b12e 1528 e3ab de5a 4b2e
000002c0: d946 9030 0705 1c31 8cbf b531 90d6 18af
000002d0: 1ea5 80aa bfaa bf2d 7844 482e a6f5 892f
000002e0: 7614 bb2d 5ecc 2bae a5b3 aa31 787e a6ad
000002f0: 730e 41af 8e91 8f2e be72 c1ad b434 85b2
00000300: 48c2 a82d 43cb 07af 143e b42d edaa 272f
00000310: e48e d430 88cb 572f 2662 08a8 3cff 42af
00000320: e235 a72d f53e 8dac 9423 162d 3d49 6931
00000330: 402c a22d 77f2 1931 ab45 22b3 6001 18af
00000340: bb0e 10ae 3ea0 812f 53a1 ed2e 5d45 bab2
00000350: 4df7 08b3 efa1 11b4 f25e 37b0 a1a4 1cb1
00000360: 3773 052f 74ff e4b1 9fbe d9b3 327f bd32
00000370: 4e62 d4b1 716d ddac 1fbd 142f 18d4 8c32
00000380: b3a5 1f30 8eeb 4530 ee96 04b3 291e 21ae
00000390: 0bb8 e12f 5449 8330 bf87 6aad 4e5f 142f
000003a0: 8a81 a5b1 2e59 4fae 488b 182f 3f52 ee2d
000003b0: 611f 45af e1dc 552e 6f33 10af 617a 04b1
000003c0: 22c1 20ae 6036 14b1 18b0 8e34 5b89 99b1
000003d0: e7ac 16b1 97c4 aa2f 337b 61b4 a507 6731
000003e0: af73 6432 a5db 1fb1 9839 2eae 5116 92af
000003f0: 8894 1431 7563 e731 cfcc 172f 4180 ab34
7.171934e-11 1.0869622e-10 7.930425e-12 1.3863147e-10 1.5787763e-10 3.0392988e-07 3.526199e-10 5.4666133e-11
1.2150682e-10 1.3370778e-10 -1.5390329e-08 -9.906025e-12 -4.003736e-12 -4.2272508e-10 -8.761427e-12 -9.438006e-11
-2.119542e-11 6.0553207e-12 -1.9228012e-11 3.5396644e-11 -6.160403e-10 -2.5559365e-07 -6.544212e-10 -2.6569526e-07
-1.4278457e-11 2.866307e-08 -1.4328026e-10 2.29594e-09 8.8809813e-13 3.0165692e-10 6.9821766e-09 1.9756177e-07
-3.0232595e-08 -4.018129e-11 4.774549e-10 3.002701e-10 3.1676717e-07 -1.0147069e-09 4.508255e-09 -2.643185e-11
8.241784e-11 5.393834e-11 3.942098e-11 2.5649241e-08 -3.067977e-08 -1.3120541e-11 2.7154565e-12 -2.3756247e-10
1.3229562e-10 3.4255137e-08 3.8259626e-12 1.5298209e-08 1.1657889e-10 -4.4336048e-08 -5.7683854e-11 4.242332e-08
-7.5993367e-10 -2.8355015e-11 -1.3920651e-10 2.5544322e-09 -7.556759e-09 -1.3474783e-11 -4.730332e-11 1.753804e-10
7.47945e-11 1.9872949e-11 -1.3297992e-10 -5.93704e-11 -3.8711655e-11 -1.8522584e-08 3.314906e-10 -2.8299382e-10
2.3481592e-09 -1.3151771e-09 1.0335423e-11 -1.3626112e-09 -5.1253096e-10 -7.057927e-11 -7.272995e-11 4.8932436e-10
-3.3938507e-12 3.0880966e-12 -8.5842285e-11 6.727347e-09 -2.3535345e-09 -1.4925768e-10 1.8206152e-09 8.952254e-11
3.002427e-08 -6.462461e-11 2.9037741e-11 -1.8990643e-13 2.496506e-11 1.6937425e-11 5.851336e-12 -9.108245e-13
3.307713e-11 4.5916675e-09 1.5102343e-10 7.1732393e-09 -9.815885e-09 -1.723983e-11 -2.4231736e-07 -6.920833e-11
-3.37202e-12 -2.8979036e-08 -2.7721192e-10 -4.4535015e-10 -2.6406712e-11 -1.0404938e-11 1.8582686e-11 2.2376474e-12
1.9028345e-08 8.142838e-12 -2.0701949e-08 -9.947275e-10 7.79682e-10 1.709176e-10 -1.1451015e-09 1.9029105e-10
-8.948937e-11 7.620382e-11 -6.1334102e-09 -1.14859545e-10 2.9649671e-13 -3.2312317e-10 3.2067976e-07 -1.3175308e-09
-2.0487699e-08 8.7986134e-13 4.6494957e-11 8.771363e-11 -1.4093306e-11 2.048515e-08 7.592105e-11 3.9515e-10
-5.1172747e-11 2.2271392e-07 2.0859449e-10 -2.4928663e-11 -1.6420724e-09 -3.0675373e-10 3.4169603e-10 -9.911833e-12
-6.9279285e-09 -5.0233824e-11 -3.1408653e-11 -7.255585e-11 -9.614778e-11 1.7088013e-08 7.803294e-11 -1.5857733e-10
-2.0267663e-10 2.469991e-07 -3.3237902e-11 -5.7832916e-10 9.453433e-09 1.8958689e-08 -2.6412128e-10 -2.4117592e-11
-7.951341e-12 4.110796e-12 -1.981137e-09 -7.701663e-09 1.2116169e-09 2.9322426e-11 2.2308898e-08 -1.4182716e-11
-9.200368e-11 1.4571204e-12 -1.0070545e-11 9.399058e-10 -2.6725662e-11 8.062767e-11 -1.6140445e-12 4.6237562e-11
1.0497515e-09 2.2703845e-09 5.2895697e-09 -1.3900547e-10 -2.285194e-13 2.1790013e-11 4.5535548e-11 2.5094699e-10
2.1268525e-11 -3.9062413e-11 4.9680744e-09 -1.8928178e-11 -1.7558381e-10 6.528743e-11 -2.1992515e-11 -1.5507204e-08
1.9185667e-11 -1.2350392e-10 2.0491199e-11 1.5249287e-10 1.5465642e-09 1.9626445e-10 -7.570799e-15 -1.7734875e-10
1.900963e-11 -4.0144507e-12 8.534413e-12 3.3947594e-09 1.8436919e-11 2.2402256e-09 -3.7781927e-08 -1.3824808e-10
-3.2754893e-11 2.3578822e-10 1.0806169e-10 -2.1684793e-08 -3.1889886e-08 -1.3563088e-07 -6.670994e-10 -2.2794568e-09
1.2137212e-10 -6.664715e-09 -1.0139524e-07 2.2060338e-08 -6.181188e-09 -6.2933482e-12 1.3527711e-10 1.6394594e-08
5.8079336e-10 7.2002926e-10 -3.0870915e-08 -3.663395e-11 4.1058032e-10 9.552346e-10 -1.3331502e-11 1.349438e-10
-4.816859e-09 -4.714556e-11 1.3873802e-10 2.7093992e-11 -1.7928194e-10 4.8626773e-11 -1.3114997e-10 -1.9278092e-09
-3.6551324e-11 -2.1567743e-09 2.6577686e-07 -4.4685016e-09 -2.1926156e-09 3.1062505e-10 -2.0999578e-07 3.361927e-09
1.329765e-08 -2.3262399e-09 -3.9614173e-11 -2.6573102e-10 2.1621265e-09 6.734292e-09 1.3806133e-10 3.194455e-07

Decoupling.query.bias f4 [96]
00000000: aa90 91ad a969 322f af66 5d31 1c2c ccad
00000010: 407a 612c 452b 36ad 26a7 a730 e86b 8bae
00000020: 264e 9fad ff4e c2ac 37e7 8130 4181 8b2e
00000030: ea21 a32f d336 662d 56c0 8fb0 7635 73ae
00000040: 0cac 5aae 15e6 8dab bfa0 e133 33f5 262c
00000050: 2f84 002d e537 c32d 3064 92ac 782f 33b1
00000060: 651d 8fb1 7c4d 17b1 f67b 8b2f 841c 8831
00000070: 8086 0ab3 1690 5cae 43e2 02ac 4302 84af
00000080: 5322 aa34 8522 28af 59d5 072e 359b 1a34
00000090: 1c0d ad34 e7cb 062e b470 6b30 f6d4 abb2
000000a0: d603 30af 87bd 39ae aea1 8d33 7748 e5b0
000000b0: e77f 812d f9d7 7b34 6747 dfad 85af 2d2d
000000c0: 20fb 17b1 d9ae df2e 0304 e931 4bca eb31
000000d0: 1bdb fd2f b96d 562b 8d55 9fb3 30cf 11ae
000000e0: d186 132e 2beb 29ad 906b beab 6ea7 f1b1
000000f0: a018 2b34 b396 82ad 20b5 9b2e e4b6 0db0
00000100: 6115 cc2f d179 2bae 7e5d a134 9b82 9d2e
00000110: c556 d731 84f4 a5af c9a0 0bb3 8c8d 8eb0
00000120: 90a4 8734 67b1 f6b2 1a7a 39ac b202 3db1
00000130: 0562 0bb3 70f7 12af 87ff 9132 4e97 102e
00000140: 4070 49af f43f a734 52b6 89ae f160 cc2f
00000150: 5d31 0033 2fdb 4eaf 4947 3131 4e0a 362e
00000160: a711 3cac fddc 272f 2c1c f4af 352b 7fae
00000170: 1904 37b1 496d 8c2f f8e8 efaf ed96 802d
-1.6548835e-11 1.6226544e-10 3.2218102e-09 -2.3211703e-11 3.2042285e-12 -1.035511e-11 1.2198356e-09 -6.340156e-11
-1.8110912e-11 -5.522582e-12 9.4517e-10 6.343948e-11 2.9673625e-10 1.308616e-11 -1.0459285e-09 -5.5299286e-11
-4.972027e-11 -1.0082513e-12 1.05066185e-07 2.3726132e-12 7.305308e-12 2.2193756e-11 -4.1606926e-12 -2.6074911e-09
-4.1651895e-09 -2.2017437e-09 2.5372032e-10 3.961363e-09 -3.2252956e-08 -5.0150183e-11 -1.8599712e-12 -2.4012267e-10
3.1689942e-07 -1.5291775e-10 3.0884937e-11 1.4398832e-07 3.22333e-07 3.0649174e-11 8.565266e-10 -2.0003863e-08
-1.600847e-10 -4.2232464e-11 6.5952335e-08 -1.6682539e-09 1.4722402e-11 2.3454767e-07 -2.5383874e-11 9.872885e-12
-2.211614e-09 1.0171925e-10 6.7816486e-09 6.862398e-09 4.6176116e-10 7.6180344e-13 -7.419576e-08 -3.3153202e-11
3.354367e-11 -9.6587556e-12 -1.3530167e-12 -7.0330577e-09 1.5934575e-07 -1.4846213e-11 7.080758e-11 -5.1555404e-10
3.7122574e-10 -3.8989093e-11 3.0056611e-07 7.1627336e-11 6.267188e-09 -3.0187064e-10 -3.2509693e-08 -1.037209e-09
2.5265444e-07 -2.8718842e-08 -2.6357861e-12 -2.7504652e-09 -3.2452608e-08 -1.336653e-10 1.6996422e-08 3.2876195e-11
-1.8320723e-10 3.1152706e-07 -6.262425e-11 3.7176265e-10 2.9847218e-08 -1.881346e-10 2.579741e-09 4.139116e-11
-2.6726206e-12 1.5267072e-10 -4.440336e-10 -5.8018663e-11 -2.6632334e-09 2.5543503e-10 -4.363938e-10 1.461894e-11

Decoupling.key.weight f4 [96, 10]
00000000: f45d 86ab 3be5 af2e 5400 ec2a 51b2 7cae
00000010: f2f3 6e30 de57 42ae 6892 252e 22fe ff31
00000020: cc47 ac34 3225 0c30 e35a 40b2 a250 4bae
00000030: 82d2 b6b1 41b4 a632 4335 dfb2 50bf 092d
00000040: 5d6b e6ae 9d01 3e2e 7113 8132 59f1 dcac
00000050: 9067 04b1 4567 a730 af54 bd2e 7321 9aaf
00000060: 1c32 152d a535 48af e43e 0ab3 a138 32b4
00000070: a88b 9933 81df a6b0 2cb7 422f d786 0e30
00000080: 7994 a3b4 1c4d 282d f24c bab0 2d6a ffae
00000090: 490f 14b0 1a9b 01af 9a69 d1b2 ec95 4034
000000a0: 6fd7 9134 8dfd 09af c046 90af 04b6 8f30
000000b0: bd51 f9ad d15d 90b1 2aea b02d 674e d6ad
000000c0: 9bac 2dad e100 5a2d cff3 c7af 2a38 1ab1
000000d0: dcbf ccaf b0c2 1a30 3a21 6b30 7299 6332
000000e0: 9fd9 9db4 0e14 bfae d106 94ae ee29 afaf
000000f0: 4d01 9231 67fb 9a2e 3d37 6b2e b5b6 69b0
00000100: 5dfe ecb2 7c2d c6b2 2198 452f 2fd2 b2ae
00000110: 5a57 3734 a961 1fb0 8322 c733 8c6b 4c2f
00000120: 60d8 62af 5c99 b332 a9f5 012d c088 c52f
00000130: f54b 8fb4 9199 882f 6bd9 a532 9f23 c7af
00000140: 96c5 2f2f beb0 d2b1 ce1e 8f34 c6d4 8eb0
00000150: e55c 7b32 d514 3534 90f7 ca2d f383 0b33
00000160: 081b 1231 c6ca d02e 5b42 892e cee3 13ae
00000170: 2d66 46b4 ed3b 7e32 15a4 0a33 6edd b9ac
00000180: 42a8 ee32 59cf 3d34 1a39 96af d8aa c72c
00000190: 8fbb dc2e e340 10b4 3b23 472f f594 1baf
000001a0: 5497 1c31 9c7c c331 9a76 e4ad cf11 3a2d
000001b0: a954 72ae e07e b5af 93b6 19ae 9e1e c22e
000001c0: a06f e532 a9c5 4aae d9cb 13b1 4cff 1731
000001d0: 6dc0 1531 70c3 63ae 02eb 99ac b46e 8e31
000001e0: a140 ddb2 3bf9 0a2f 7f79 342f 3d30 4630
000001f0: 6569 57b1 6633 e62c 4ac3 a62c 6f41 b7af
00000200: c682 0f32 aee1 1531 5ebd 0e2e 4d85 90af
00000210: fdf8 3aaf 0f3e 9732 6692 3aad fb20 adb4
00000220: 0a83 212e 1cf7 2fac dd15 0a31 cd1f 16ae
00000230: 7697 41b0 373a 9134 ffcc c6b0 dc0e a0b1
00000240: 471f 9d2e fac3 052d 5733 2b2e e946 282e
00000250: cb15 02b1 bd11 4c34 dd59 7c30 0e10 872d
00000260: fa43 9fae 292d 9b2e 253c e5af 18ff d82e
00000270: f352 0ab3 7d1b cab1 67b4 06af 9e00 ca2f
00000280: 5f77 942e 6a05 3e2f ccbd 7dae f1b2 6fad
00000290: 9fc7 c32e 2c6c 7130 429d 77ae 2069 492d
000002a0: 533d c732 d03a 882e dfc0 a62e 23d9 0633
000002b0: d40f 64b2 c397 832d 5715 a9b4 14c6 39af
000002c0: 4e39 a2b4 aa22 1f30 9df0 34b4 aeb6 85ad
000002d0: 97c4 57b3 5cd8 4a2e f855 ae2e 01ab 1e2f
000002e0: 6c80 f92d 3b17 1030 4cd6 90b4 40ca 8530
000002f0: 5a18 c32d 8d69 cd2d 2344 8dae 87c4 1b2f
00000300: 9388 e8ae 2037 fd30 54f0 4a31 0566 feaf
00000310: cc5e eaaf 0a39 9634 424d 0e2e ff6f 30ac
00000320: a25c 0dae 2ea4 57ad 2220 992e 8297 222d
00000330: 819a 4d2d 754b 80b4 1ac1 c0ae ae64 c22c
00000340: d992 30af 6561 9c32 907b 0b33 5b89 ef29
00000350: 8d26 032f 16fd 9030 eaa2 46ae 2476 8f2d
00000360: d47d 75b4 4e16 fe2f ca2f b432 207c ddb0
00000370: 9d51 a3af bf27 aeae 3938 4c2f ccca c1af
00000380: 4ecf c22d 7d7d 922d d6e2 1bb1 370f 8232
00000390: 903d 102f 2ff4 432e 8a22 692d d99b 1a31
000003a0: 5536 5b2f 4c46 0aaf b709 0eb0 1824 812e
000003b0: 0d4c e32c 0dfa f530 f49e bc32 c088 ed32
000003c0: 21ea 032d 760e 74af 36f1 eb33 9cba c32e
000003d0: 72d3 292e d8cf cf2b 60b4 8031 66bd a5ae
000003e0: ff6d 81af d09e 7334 684d 8b2d 2af1 1e31
000003f0: e8df c1ae 2871 09af 6dad e733 a1fa e6b1
-9.54735e-13 7.998798e-11 4.192225e-13 -5.7456543e-11 8.693056e-10 -4.4188535e-11 3.764669e-11 7.4503683e-09
3.2089736e-07 5.098456e-10 -1.1196536e-08 -4.6228472e-11 -5.320829e-09 1.9406913e-08 -2.5984837e-08 7.830028e-12
-1.04782606e-10 4.320243e-11 1.5026417e-08 -6.279571e-12 -1.9267397e-09 1.21802e-09 8.609768e-11 -2.8036204e-10
8.480796e-12 -1.8208952e-10 -3.2187828e-08 -1.6598143e-07 7.150021e-08 -1.2141613e-09 1.7709273e-10 5.185092e-10
-3.0469144e-07 9.566816e-12 -1.355515e-09 -1.1614918e-10 -5.386381e-10 -1.1787585e-10 -2.4378824e-08 1.7935935e-07
2.7165103e-07 -1.2550157e-10 -2.6243718e-10 1.0456351e-09 -2.8344322e-11 -4.2016173e-09 2.0112873e-11 -2.4363801e-11
-9.872238e-12 1.23920605e-11 -3.6371126e-10 -2.2441875e-09 -3.7243708e-10 5.630154e-10 8.553972e-10 1.32480285e-08
-2.940187e-07 -8.689237e-11 -6.7314716e-11 -3.1862107e-10 4.249307e-09 7.047767e-11 5.3481875e-11 -8.502455e-10
-2.7589687e-08 -2.3070918e-08 1.7971093e-10 -8.131839e-11 1.7074981e-07 -5.7982646e-10 9.272937e-08 1.85919e-10
-2.0631452e-10 2.0908082e-08 7.3873485e-12 3.5931258e-10 -2.6691092e-07 2.484737e-10 1.9307398e-08 -3.62232e-10
1.5986354e-10 -6.1318977e-09 2.665824e-07 -1.0392334e-09 1.4631245e-08 1.6864517e-07 2.3074681e-11 3.2483467e-08
2.1261162e-09 9.494765e-11 6.241826e-11 -3.362626e-11 -1.8477358e-07 1.4798371e-08 3.227986e-08 -5.2826e-12
2.7783361e-08 1.767743e-07 -2.7325414e-10 5.6748876e-12 1.0037759e-10 -1.3434651e-07 1.8111461e-10 -1.4150088e-10
2.2787008e-09 5.6894134e-09 -2.5973269e-11 1.057683e-11 -5.5099623e-11 -3.3013858e-10 -3.495033e-11 8.827537e-11
2.670987e-08 -4.610504e-11 -2.150719e-09 2.2118511e-09 2.1791735e-09 -5.1787408e-11 -4.3746127e-12 4.1453294e-09
-2.5757176e-08 1.2639571e-10 1.6414069e-10 7.210053e-10 -3.1346528e-09 6.5426995e-12 4.739685e-12 -3.3334e-10
8.35343e-09 2.1810638e-09 3.2455254e-11 -2.6288163e-10 -1.700506e-10 1.7606935e-08 -1.0605383e-11 -3.2247758e-07
3.6723548e-11 -2.500617e-12 2.009407e-09 -3.4134296e-11 -7.042823e-10 2.7050712e-07 -1.446466e-09 -4.658302e-09
7.1450894e-11 7.60369e-12 3.8926497e-11 3.826176e-11 -1.8929878e-09 1.9005434e-07 9.180477e-10 1.5354853e-11
-7.242558e-11 7.056606e-11 -4.1697593e-10 9.8678565e-11 -3.220607e-08 -5.882099e-09 -1.2251321e-10 3.6744024e-10
6.7514654e-11 1.7282323e-10 -5.7694113e-11 -1.362531e-11 8.903033e-11 8.782901e-10 -5.630097e-11 1.144887e-11
2.3194536e-08 6.195011e-11 7.583067e-11 3.139679e-08 -1.3274946e-08 1.4960371e-11 -3.149423e-07 -1.6896023e-10
-3.0216546e-07 5.7893124e-10 -1.6851341e-07 -1.5201475e-11 -5.0237386e-08 4.6121648e-11 7.927875e-11 1.4430769e-10
2.8365053e-11 5.241991e-10 -2.6978012e-07 9.734507e-10 2.2179748e-11 2.3352676e-11 -6.424041e-11 1.4166988e-10
-1.0574399e-10 1.842384e-09 2.953148e-09 -4.627482e-10 -4.263171e-10 2.798118e-07 3.235568e-11 -2.5073275e-12
-3.2141963e-11 -1.225779e-11 6.9633424e-11 9.242275e-12 1.1687208e-11 -2.389676e-07 -8.765451e-11 5.5249893e-12
-1.6059278e-10 1.820508e-08 3.247584e-08 1.06375595e-13 1.1928077e-10 1.054931e-09 -4.5164684e-11 1.6309683e-11
-2.2863179e-07 4.621818e-10 2.097649e-08 -1.6115145e-09 -2.9707517e-10 -7.919664e-11 1.8573666e-10 -3.525059e-10
2.2147308e-11 1.6654006e-11 -2.268441e-09 1.514091e-08 1.3118595e-10 4.4554745e-11 1.3252186e-11 2.2498539e-09
1.9937237e-10 -1.2576001e-10 -5.1673105e-10 5.8726524e-11 6.4601714e-12 1.7897165e-09 2.1958364e-08 2.7652618e-08
7.498475e-12 -2.2196808e-10 1.0986916e-07 8.900722e-11 3.8613952e-11 1.4765923e-12 3.7457966e-09 -7.536975e-11
-2.354312e-10 2.2688914e-07 1.5836846e-11 2.3129112e-09 -8.8163976e-11 -1.2500279e-10 1.0788322e-07 -6.722374e-09

Decoupling.key.bias f4 [96]
00000000: 7f2d 25af 21c1 0f32 8e97 0bb3 3322 eb32
00000010: 7f93 832f f037 96b0 a18b 9fb4 eeaf fbb2
00000020: 3c5f 09b1 25cd a82f a976 662c 8541 462e
00000030: 7d3a bb2e 9cbf 8a34 fe13 f8ad b681 edb1
00000040: 4f4d e8b1 1f61 bcaf 26e5 bc2d 6552 17ae
00000050: 2035 e531 49c0 a3ae ad39 3834 9935 3e2f
00000060: 561e dc2d 55e0 6eb1 8e32 f3ab 01c7 87af
00000070: 6086 51ad 3876 c0b2 79b9 aeaa 5cbb bd2e
00000080: ad30 80ad 86c8 abad 0060 87b0 04fd ee31
00000090: 2827 cb2f 8f9c acb4 0c95 10ad 20ed 24ae
000000a0: b64c 98af fffa 43b0 c503 e82d bc48 572f
000000b0: 488d c4ad f543 46ae d3af 11ae 18ee d72e
000000c0: 16bc 56b2 aa8e 542f 4d8c f1b1 12ed 812a
000000d0: b59f ce2d 6cb0 c22e 0354 9bae b806 8fac
000000e0: 6ae7 66ad 71fe 89ac 0366 3f2f 97ef 6aad
000000f0: 2d5f 4f2e 786c b72d 9d5e 13b1 cf98 312e
00000100: fab9 10b0 0212 d5ae 5ba1 b2b0 ce29 b830
00000110: 353d 002e 3d68 0bb3 a06a a8b1 0da2 8334
00000120: ce95 6e2d 922c 8a30 9792 08b3 92af d6ad
00000130: 7d31 a12e 9474 b1b0 fa27 6a31 18e4 c132
00000140: a38b 54b0 073f ae32 6c7f b02e 3a73 8b30
00000150: bebc c4b0 e889 ca32 de49 a82f 58b0 932d
00000160: 53b1 aa2d f771 32ae 56fd 89b2 8298 dd31
00000170: 0358 9b31 3cb4 99b4 1efd 04af ff52 19af
-1.5022826e-10 8.367608e-09 -3.2501298e-08 2.7373153e-08 2.3933563e-10 -1.0929835e-09 -2.971765e-07 -2.930025e-08
-1.9990258e-09 3.0704786e-10 3.2750835e-12 4.507818e-11 8.514165e-11 2.5843917e-07 -2.8203214e-11 -6.9123542e-09
-6.7608776e-09 -3.426601e-10 2.1474888e-11 -3.4406606e-11 6.670817e-09 -7.4465385e-11 1.7157318e-07 1.7299441e-10
2.5024576e-11 -3.4761076e-09 -1.728022e-12 -2.4697758e-10 -1.1910112e-11 -2.2405501e-08 -3.1037307e-13 8.6280066e-11
-1.4573532e-11 -1.95295e-11 -9.849828e-10 6.955476e-09 3.6953307e-10 -3.2151408e-07 -8.218547e-12 -3.7499892e-11
-2.7703145e-10 -7.1297274e-10 2.637702e-11 1.9579977e-10 -2.2345362e-11 -4.5080346e-11 -3.3125346e-11 9.819362e-11
-1.2499205e-08 1.9331972e-10 -7.0299735e-09 2.3079504e-13 2.3490413e-11 8.8534374e-11 -7.0635074e-11 -4.0650504e-12
-1.3125371e-11 -3.922023e-12 1.740759e-10 -1.335456e-11 4.7150884e-11 2.0852861e-11 -2.1445097e-09 4.0380862e-11
-5.2651183e-10 -9.6893174e-11 -1.2997065e-09 1.3399644e-09 2.9158193e-11 -3.2458264e-08 -4.9015654e-09 2.451856e-07
1.3561997e-11 1.0053489e-09 -3.179829e-08 -2.4406952e-11 7.330223e-11 -1.2911578e-09 3.4074206e-09 2.2571882e-08
-7.7323586e-10 2.0284928e-08 8.026188e-11 1.014633e-09 -1.4314521e-09 2.3578608e-08 3.0611508e-10 1.6790278e-11
1.940551e-11 -4.0573735e-11 -1.6064103e-08 6.4492847e-09 4.5210995e-09 -2.8629609e-07 -1.2095255e-10 -1.3944755e-10

Decoupling.value.weight f4 [96, 10]
00000000: 5ac9 4aaf 38c0 2337 099d 6db7 5b9d 4d38
00000010: 4e4b 6733 d7e0 38b9 3f9d ac39 3579 f63d
00000020: fef6 bc3d 7a43 dcb6 7f0e 86b0 7263 6cb7
00000030: 3602 bdba 79f6 d6b8 949c e1b3 a8ae 9139
00000040: 1ed2 3ab9 4445 4cbb 58a9 51be 11c8 d036
00000050: 3619 abb4 72f1 86b6 cccf 5d39 49f9 fc38
00000060: f591 13b6 a9b8 43ba fe27 633a d034 00bd
00000070: ef18 853e bd02 f6b5 6eb0 0cb1 67aa 2137
00000080: a55d 84b9 49a9 23b9 62cb 03b3 90c5 7a3a
00000090: 686a a2ba 0444 8cbc 1583 41be e3c3 0c35
000000a0: fd35 912d b648 55b8 2392 c73a 894d c039
000000b0: aa80 3eb3 cd40 21bb cdb5 6e3b 9b1b 9a3d
000000c0: bffa ce3d 461d 35b6 eaec 2930 52b7 5db7
000000d0: b74e 0cb9 4473 cdb8 51fe 93b1 6972 c839
000000e0: 227f 0fba 51c8 0abd 73ff 0bbd 503c 0fb4
000000f0: 6bb5 a4ae 1684 bfb5 7167 3f38 8390 1738
00000100: 0973 c2b4 5551 92b9 7130 9a39 9635 c73c
00000110: babd 8fbe a83f 2ab4 5edf d832 4f3f 9fb8
00000120: 2938 a13b 9eb2 07b8 3386 dcb3 50fb 4ebb
00000130: 7e6c c33b ef9d 183e 4b3c f03d 207b b6b6
00000140: 9f00 13af 64e0 14b7 d895 8039 eb06 c5b8
00000150: cf48 c7b3 88b3 8239 b8d4 b0b8 adb8 32bd
00000160: ce94 20bd 551b ffb4 4e17 bd32 7c6f b3b5
00000170: a21e afb8 8787 f4b8 6750 6935 6206 3d3a
00000180: a45c 26ba 780d 69bb ed9b 823d ecb3 35b5
00000190: 69a3 f4af 67af 8c37 82b0 86b9 3567 ae37
000001a0: b6e7 c633 fc12 7c39 6188 0cba d27c b8bb
000001b0: d5e2 2ebe 1849 c335 0cd7 a42f 9882 8f38
000001c0: a8b8 0c3b e372 a3b9 fbde e733 d1be 103b
000001d0: 5cf5 51bb c479 c73d 64c7 45be f753 f536
000001e0: ab2b 34af a55f 5db7 fd36 13ba f51d 8038
000001f0: a956 deb3 afbc 0fba 25ea 533a 0c73 4b3d
00000200: 64c4 443e 480b 95b5 474f 802f 80b2 63b7
00000210: 75a7 f2b9 8790 7f38 b13c 3935 ccff abb9
00000220: 7004 043a 1498 e93d fac0 46bd 6157 13b5
00000230: 70da adaf 5a33 82b7 32ad b539 6d9e 3f39
00000240: 4fec 11b2 3d62 95ba 67d7 c43a a0ba c53d
00000250: 3a84 423e 7011 1fb5 3d4d 24ae 9a8f f1b6
00000260: 4494 ba37 2762 8538 e996 13b2 1c01 9bb9
00000270: b1b1 c239 611a 56bb 1c53 a03d 7b44 0eb6
00000280: b191 8b2e 4f71 7237 79a1 df3a e889 4ab9
00000290: 2c15 a034 c864 333b 4156 d1ba bdb6 d4bd
000002a0: 18db 6cbe 8bbb df34 507d 9531 4cd6 d136
000002b0: 3668 20b9 e68f 83b8 6a2c 8634 1351 f639
000002c0: 0693 21ba 6566 01bd 1229 2ebd 5be3 a934
000002d0: 9d7c 92b4 1b60 a338 8f65 9139 1691 16b7
000002e0: ff8c b3b3 857d a9b9 129f 4e3a e127 eabb
000002f0: 2441 ee3d c4b7 f936 664f d7b2 e6db 95b7
00000300: 0842 a839 5cdc 2039 b7ad f9b3 2880 8dba
00000310: 2ac0 b93a eae5 783c c679 d93c 9d80 beb5
00000320: 20e8 2e2f ad17 2f38 c1fd e53a 9390 9739
00000330: 8e4a 57b1 9130 913b 60fb 4fbb 0a02 9bbd
00000340: 5236 57bd 0202 f335 bcf8 faad 9031 22b8
00000350: 41e5 f5b8 2688 81b8 3fc0 a1b4 808d da39
00000360: 7832 13ba 378b 3dbb c325 b1bd 704c 7935
00000370: d350 01b0 2c27 fab7 e36b 37bb 3a74 aa3a
00000380: b138 67b2 988d bfbb f253 843b 8ebe 4f3e
00000390: e29f b13d d511 9bb6 4a75 a6af 911c 88b7
000003a0: 6b7a c239 5ebd 5739 62f7 a5b3 8e44 afba
000003b0: 8974 e13a b01c 8abd 4a5b 7c3e 1485 69b5
000003c0: cc7a 9a31 895f e4b7 47d9 fd39 d870 7939
000003d0: cac8 1fb3 ac0b 98ba d17b 0f3b cb13 f7bd
000003e0: 299b 123e 781b 8cb5 a805 3eae ebee 54b6
000003f0: 6693 4038 8967 06b8 8b45 af33 63a2 e438
-1.8443327e-10 9.7603115e-06 -1.4162863e-05 4.9022357e-05 5.3852368e-08 -0.00017631367 0.00032923554 0.12034837
0.092267975 -6.5643662e-06 -9.753903e-10 -1.408985e-05 -0.0014420215 -0.00010250224 -1.05058604e-07 0.00027786684
-0.00017816617 -0.0031169215 -0.20474756 6.222174e-06 -3.1869575e-07 -4.021619e-06 0.00021153613 0.000120627294
-2.1989665e-06 -0.0007466176 0.0008665322 -0.031300366 0.25995585 -1.8329225e-06 -2.047297e-09 9.636023e-06
-0.00025246773 -0.00015607955 -3.068579e-08 0.0009566182 -0.0012391331 -0.017122276 -0.1889766 5.2439117e-07
1.6508567e-11 -5.0850875e-05 0.0015226047 0.00036678862 -4.435484e-08 -0.0024605275 0.003642428 0.075247966
0.1010642 -2.6988141e-06 6.1818517e-10 -1.3215309e-05 -0.00013380764 -9.796632e-05 -4.3071755e-09 0.00038232215
-0.00054739614 -0.033882443 -0.034179162 -1.3339854e-07 -7.490083e-11 -1.4269051e-06 4.5634286e-05 3.6135792e-05
-3.6219015e-07 -0.00027907887 0.0002940926 0.024317544 -0.28074437 -1.5855642e-07 2.5247285e-08 -7.593503e-05
0.004920025 -3.235286e-05 -1.0268959e-07 -0.00315829 0.005963861 0.14903997 0.1173025 -5.4383563e-06
-1.3369793e-10 -8.873732e-06 0.00024525705 -9.3949806e-05 -9.2799034e-08 0.00024929293 -8.431956e-05 -0.04363315
-0.03920441 -4.7517338e-07 2.2013094e-08 -1.3368985e-06 -8.350356e-05 -0.000116600706 8.6916265e-07 0.0007210729
-0.0006346202 -0.0035561007 0.06377397 -6.7689575e-07 -4.449945e-10 1.6770979e-05 -0.0002568998 2.0790476e-05
9.2622415e-08 0.00024039665 -0.0005360898 -0.005630114 -0.17078717 1.4549905e-06 2.9984226e-10 6.843096e-05
0.0021472368 -0.0003117538 1.0797336e-07 0.0022086392 -0.0032037115 0.09740022 -0.19314343 7.311344e-06
-1.6386419e-10 -1.31948955e-05 -0.0005615799 6.1090956e-05 -1.0353444e-07 -0.0005483133 0.00080839015 0.049670264
0.19215542 -1.1104648e-06 2.3339394e-10 -1.3571815e-05 -0.00046282602 6.093134e-05 6.900619e-07 -0.00032806245
0.00050360616 0.1140596 -0.04852388 -5.488892e-07 -3.1623726e-10 -1.552112e-05 0.0003465205 0.00018274198
-8.493841e-09 -0.0011397075 0.0015017808 0.096547365 0.18995753 -5.925749e-07 -3.7357884e-11 -7.199077e-06
2.224197e-05 6.3602165e-05 -8.590839e-09 -0.0002956473 0.00037134954 -0.0032669532 0.07828352 -2.119951e-06
6.346868e-11 1.4450706e-05 0.0017061672 -0.00019315595 2.9817727e-07 0.0027373303 -0.001597114 -0.10386417
-0.23130453 4.1673442e-07 4.350717e-09 6.253633e-06 -0.0001529761 -6.27337e-05 2.499176e-07 0.0004698118
-0.0006163571 -0.03159179 -0.042519636 3.1644126e-07 -2.7285287e-07 7.790347e-05 0.00027732222 -8.974477e-06
-8.360984e-08 -0.0003232771 0.00078819797 -0.007145867 0.11633518 7.4421714e-06 -2.50654e-08 -1.7864582e-05
0.00032092654 0.0001534088 -1.16265646e-07 -0.001079564 0.0014171649 0.0151915345 0.026547324 -1.4193535e-06
1.5907675e-10 4.17453e-05 0.0017546938 0.0002890868 -3.1328997e-09 0.0044308384 -0.0031735525 -0.07568748
-0.05254204 1.8105495e-06 -2.853217e-11 -3.866997e-05 -0.00011725212 -6.176559e-05 -3.0128464e-07 0.00041685626
-0.00056151254 -0.002892209 -0.086497806 9.287096e-07 -4.7044785e-10 -2.9820563e-05 -0.002798789 0.0013004609
-1.345886e-08 -0.0058457367 0.0040383274 0.20287535 0.08673073 -4.621436e-06 -3.0278563e-10 -1.6225766e-05
0.00037093772 0.00020574543 -7.72841e-08 -0.0013371871 0.0017200868 -0.06743753 0.24644199 -8.699292e-07
4.4959503e-09 -2.7224205e-05 0.00048417805 0.00023788528 -3.720269e-08 -0.0011600158 0.0021893869 -0.12064322
0.14317001 -1.0438807e-06 -4.3206022e-11 -3.172953e-06 4.5913643e-05 -3.2044514e-05 8.161722e-08 0.00010902134

Decoupling.value.bias f4 [96]
00000000: e8ea 69ba 3667 083b 4889 f3b7 ff9d 3239
00000010: aaa6 603b f794 e038 25dd 98b7 728f 29ba
00000020: 796d 8ab9 3adf 7b37 1fd5 4539 5064 e239
00000030: d8b6 3eba da25 09ba 70e6 70b9 3d5c 88b7
00000040: dd69 a4bb 9242 b838 a5d2 84b9 049f 47b9
00000050: 030e dd3b 08b6 b038 c873 87bb 092e ceb9
00000060: 660b b3b9 8d22 b9b7 5b11 233a 3e72 5839
00000070: 8174 5a3a e13f 89b9 20b4 4c38 de75 9db7
00000080: cccf bb39 6892 0e38 b8ac 4339 e012 4b3a
00000090: 7da6 4cb9 87f6 3438 cfac 9db9 9d29 c439
000000a0: 2c0c 6cb9 f040 ba3a 2a69 7138 5f73 bab9
000000b0: bfd2 99b9 0ad2 aa39 2673 b237 6fff 8438
000000c0: 9839 9739 42e1 29ba 0494 e638 68cf 7ab9
000000d0: aee3 af39 7562 a238 2920 07bc 690e a339
000000e0: 728a 8eb8 4814 0839 9aa5 3d39 b902 3b3a
000000f0: 6876 3db9 97c1 83ba 412d fbba d2f9 0f39
00000100: 7746 9ab8 a944 9939 677f dbbb 1adf 52b9
00000110: f352 9539 1b50 a3b8 3d4e 90b9 d27d 25b7
00000120: 5568 fdba 2abe 8938 0ea3 1ab8 b0a6 94ba
00000130: c8ae c139 df88 ffbb 15a4 58b9 2bb5 d6ba
00000140: 369e 95b8 c581 dfb8 8a25 00bb 26c3 52b9
00000150: 1525 b4bb cc5f 21b8 fef7 a0b8 277d 5fba
00000160: 83a2 1db9 5a3d 13b9 5a34 1dba 2c7c 42b9
00000170: 1de9 3b39 1eb9 06bb a2d4 2839 b293 a039
-0.00089232484 0.0020813472 -2.9031784e-05 0.00017034261 0.0034279027 0.00010708899 -1.822279e-05 -0.00064682134
-0.00026402975 1.501274e-05 0.00018866778 0.00043180818 -0.00072751706 -0.00052317756 -0.00022974028 -1.6255415e-05
-0.0050175027 8.7862034e-05 -0.00025333944 -0.00019037357 0.006746055 8.42624e-05 -0.0041336752 -0.0003932568
-0.00034150033 -2.2069808e-05 0.0006220543 0.00020641924 0.00083334005 -0.0002617827 4.8805145e-05 -1.8770745e-05
0.0003582224 3.399179e-05 0.00018660992 0.0007746648 -0.00019516978 4.314494e-05 -0.00030074126 0.00037415038
-0.00022511248 0.0014210027 5.755682e-05 -0.00035562643 -0.00029339452 0.00032581418 2.1272874e-05 6.341829e-05
0.00028843875 -0.00064804044 0.00010994825 -0.00023919123 0.00033548236 7.743101e-05 -0.008247414 0.0003110052
-6.796875e-05 0.00012977526 0.00018086136 0.00071338896 -0.00018068554 -0.0010052201 -0.0019163267 0.00013730608
-7.356417e-05 0.0002923359 -0.006698537 -0.00020110272 0.00028481297 -7.7873665e-05 -0.00027524112 -9.864061e-06
-0.0019333462 6.56809e-05 -3.6868318e-05 -0.0011341181 0.0003694205 -0.0077982987 -0.0002066049 -0.0016380897
-7.134343e-05 -0.0001065764 -0.0019553625 -0.00020099859 -0.0054975846 -3.847461e-05 -7.675587e-05 -0.0008525424
-0.00015033227 -0.00014041868 -0.00059968757 -0.0001854754 0.00017920551 -0.0020557116 0.0001610094 0.0003062762

Decoupling.fc_out.weight f4 [11, 96]
00000000: 9eb3 15bd 54f2 fe3c 0003 11bd c9d1 6d3d
00000010: 2f15 df3d cff2 1abc 59a8 ee3a d1ed da3d
00000020: e42b 123d 7539 6fbd 7995 bdbc 5f85 dabd
00000030: 13ea bf3d 9be7 f5bc 8ce2 953c 50ca 21bd
00000040: 5220 95bd 4e1e 8dbb 1858 c73d 72a9 e2bc
00000050: 39c4 f9bb 8c73 8a3d a51a d03d 267d 6db9
00000060: 4b39 dd3d dc67 523a 57d5 d83d 967c b03c
00000070: 9f3b cfbd 9735 b7bb 3aad 233c e086 023c
00000080: 201a e4bd a5f0 683d 4755 d1bd c3e1 9c3d
00000090: 54eb db3d 598b 9d3b 6a71 113a e667 593d
000000a0: 472b 40bd bda9 50bd cbce 50bd 5f88 753d
000000b0: 6082 c23d 20c0 55bc e60d 9abd ad7e 9ebd
000000c0: 8824 29bd 4544 933d c0cd 3cbd 136d 373d
000000d0: 2c6d 26bd c031 293d 2fd2 d9bb 0ede 12bd
000000e0: 4636 cfbd fb52 7fbd 76a7 00bc 3a49 48bb
000000f0: ac9d 033d d509 d5bd 2fec 153d 8a40 07bd
00000100: 44a8 1d3d c08d 83bd fa66 3e3d ea58 a63c
00000110: 2ef6 f03c a59d d4bb e51c 343d f842 8eb9
00000120: 0f2a f33b 718f 20bd 80bb 69bd 2bbb 7cbd
00000130: f48c a5bd b50b 64bd 91b1 0c3d 21f9 1cbd
00000140: a629 98bd 8cf1 96bc 5d29 49bc a1d9 9a3d
00000150: 817e c8bd 130e 8dbc 6653 35bd 5418 003d
00000160: 7f07 4dbc a24e 3d3c 354e d43d 141f 6bbd
00000170: b427 0abd 38f3 323d c6cd 813d 12e3 5a3d
00000180: a7ad 6e3c c5f5 26bd 068a 193d 8e1f 483d
00000190: c220 823b e5ed dc3c 6c54 8c3d 757b 1abd
000001a0: ace7 87bc 648a 5abd 4763 4b3c b342 653d
000001b0: 927e 28bc 9e59 a13b be20 103d dbdf 933b
000001c0: 505d 823d 25ab 983b e6f9 97bd 040a 0abd
000001d0: 2410 87bd 8c83 90bb 1ebf 3e3d bb6d 9dbb
000001e0: e172 a73d 2564 6c39 b08b c33c f5b0 af3d
000001f0: cbee 183d 9d49 8a3b 21ac 9a3d 4dac 2e3a
00000200: 6d2d be3c 1a33 453d e2d0 60bd 5bba 9ebd
00000210: f473 e53c f634 2dbd f6a1 1fbd e24c 1f3c
00000220: bf80 83bd f108 923d 6e8d 83ba 4494 83bc
00000230: e352 a93d 1f38 7a3c d25f be3c c996 13bd
00000240: 1836 a13d f7d9 a6bc f32e a73d a4b2 003a
00000250: f6ff 4a3c 7181 ed3b 9540 6bbd 72cf 57bd
00000260: 0408 afbd 7b7a 513d 9de2 fd3c 08db 1dbd
00000270: c83f 12bd 62b9 023c aa98 663d c53d 643c
00000280: 3ed1 d5bc 62e6 87bd 46dd 983d 1a05 70bd
00000290: d96f 9cbd c1dc 2fba 426e 843c ffad 8939
000002a0: 84df e33c e9e2 18bd 3429 d2bc 4dd3 0bbd
000002b0: e241 54bd 6d4d 8cbd 880a da3c 3723 edbc
000002c0: f599 babd 5b23 74bd 2110 16bd 5b67 bebc
000002d0: ae86 72bd 4696 0dbc e61d 243d ae9e 86bd
000002e0: 8cf9 59bc cca1 79bc 62c0 c8bc a381 e5bc
000002f0: fa57 3fbd ebda 1e3c 57d8 98bd ddb2 143c
00000300: 729d 823d 6d1c b03d 22f1 55bd 5ae3 1b3d
00000310: 262e b2bd 4a64 6f3d cf1b abbd e620 afbd
00000320: 3e24 42bd 93a3 96bd c0b0 b13c fa55 6abc
00000330: fb98 383c 121a 123b 2d5a 4cbc c221 16bd
00000340: 4620 35bd 7179 3fbd 2891 0b3d f457 fabc
00000350: 6888 9ebb 6b7c 463d 5e99 f8bc ca08 09bd
00000360: 1980 88bd 0755 8eb9 d371 043d 7070 f5bc
00000370: e5d1 873d 7914 583a 29a0 0f3c 5ed5 2f3a
00000380: d973 393c 7dac 29bc 344d 1abd a214 01bd
00000390: dece b6bb ed1d 73bd 0fd1 a73b b134 cb3c
000003a0: 6488 ca3c 2980 823d eb07 093d 10bb 81bd
000003b0: 383d 3bbd d301 2ebc aa29 863c b04e 55bc
000003c0: 3b96 ac3d 6079 643a a2da 8cbd 3342 2dbd
000003d0: 9d59 adbc b73d a3bb 330b 083d b53b 203c
000003e0: 9d9f 8ebd 2b7a 85bd 701b 883c 997e 8bbd
000003f0: a640 3ebd 83b5 32bd 6887 9f3d b788 7fbc
-0.03654825 0.03112141 -0.03540325 0.058061395 0.10892712 -0.009457304 0.001820813 0.10689891
0.03568639 -0.058404405 -0.023142563 -0.1066997 0.09370818 -0.030017665 0.018296503 -0.03949958
-0.07281555 -0.004306591 0.097335994 -0.027668688 -0.0076222685 0.0676032 0.10161332 -0.00022648703
0.108019434 0.00080263405 0.10587566 0.021543782 -0.10118794 -0.005591105 0.009990031 0.007966727
-0.111377954 0.05687012 -0.102213435 0.07660248 0.10738245 0.0048078713 0.0005548211 0.0530776
-0.046916272 -0.050943125 -0.050978463 0.059944507 0.09497523 -0.013046294 -0.07522182 -0.07739005
-0.041294605 0.07190756 -0.046094656 0.044781756 -0.04063146 0.04130721 -0.0066473703 -0.0358563
-0.10117774 -0.062334996 -0.007852426 -0.0030561225 0.03213279 -0.10402266 0.036602195 -0.033020534
0.03849055 -0.06423521 0.046484925 0.02030607 0.029414263 -0.0064885193 0.04397287 -0.00027134246
0.0074207853 -0.039199296 -0.05706358 -0.061701935 -0.08083525 -0.055675227 0.034349028 -0.038323525
-0.07429819 -0.018425725 -0.012277928 0.07561041 -0.09789754 -0.017218625 -0.044268988 0.0312732
-0.012513994 0.011554392 0.10366479 -0.057402685 -0.03372927 0.043688983 0.06338076 0.053439207
0.014567769 -0.040761728 0.037485145 0.048858218 0.00397119 0.026968906 0.0685204 -0.037715394
-0.016589962 -0.053354636 0.012413806 0.055971812 -0.010284083 0.0049240133 0.035187475 0.0045127696
0.06365454 0.004659074 -0.07420711 -0.033700958 -0.065948755 -0.004410213 0.046568982 -0.0048043407
0.08176208 0.0002254402 0.02387032 0.08578674 0.037337106 0.004220201 0.07552362 0.0006663248
0.02321502 0.048144437 -0.054886706 -0.07750388 0.028009392 -0.042286836 -0.038972817 0.00972292
-0.06421041 0.07130612 -0.0010036656 -0.01606191 0.082677625 0.015272169 0.02323905 -0.03603247
0.07871646 -0.020367606 0.08163252 0.0004909432 0.012390127 0.0072480966 -0.057434637 -0.05268807
-0.08546451 0.051142197 0.030991847 -0.038538963 -0.035705358 0.007978769 0.056297936 0.013930743
-0.026100751 -0.06635739 0.074640796 -0.058598615 -0.07638521 -0.0006708615 0.016165856 0.00026260313
0.027816541 -0.037325773 -0.025654413 -0.03413706 -0.051820643 -0.06850705 0.02661635 -0.028947456
-0.09111396 -0.05960403 -0.036636475 -0.023242643 -0.05921047 -0.008641785 0.040067576 -0.065732345
-0.0133041255 -0.015236329 -0.024505798 -0.028015917 -0.04671476 0.009695749 -0.074631386 0.009075847
0.063776866 0.08599172 -0.052231915 0.038058616 -0.08700208 0.058445252 -0.083549134 -0.08551197
-0.047397844 -0.07355418 0.021690726 -0.014302725 0.011266942 0.002229337 -0.012472671 -0.036653288
-0.04422023 -0.046746675 0.03407398 -0.030559517 -0.0048380382 0.048458498 -0.030346569 -0.033455648
-0.06665058 -0.000271477 0.032335114 -0.029960841 0.06631831 0.0008242797 0.0087662125 0.00067075144
0.011319124 -0.010356066 -0.037671283 -0.031513818 -0.0055788597 -0.05935471 0.0051213573 0.024805399
0.02472324 0.06372101 0.033454817 -0.063345075 -0.04571268 -0.010620552 0.016377289 -0.013019249
0.08427092 0.0008715596 -0.068776384 -0.04229946 -0.021160895 -0.004981722 0.033213805 0.00977986
-0.069640376 -0.06517442 0.016614646 -0.06811256 -0.046448372 -0.043630134 0.077894986 -0.01559656

Decoupling.fc_out.bias f4 [11]
00000000: 0d2f c8bb 3d7a af39 a2f4 d33a aa41 233c
00000010: 5c9c eabb 875c 34ba bb1c 1abb 9374 b43c
00000020: 5e60 5e39 dc0d 51bc 6504 f23a
-0.0061091245 0.00033469676 0.0016170929 0.009964386 -0.007159753 -0.0006880243 -0.002351566 0.022028243
0.0002120747 -0.012759652 0.0018464444

multi_physics.experts.0.0.weight f4 [4, 12]
00000000: 7ba7 773e e6da 563d cffb 06be d857 9abc
00000010: 4db3 8dbe 5f48 3bbe 7126 28bd 6df1 2abe
00000020: 84bf 833e f7a5 d83c 31b6 6a3e 3333 8fbd
00000030: 6a1d 73be 55a2 123d 96df 2a3d 8783 5bbc
00000040: 82d1 2cbe cde7 a43c 891e 1a3e f334 b2bd
00000050: adee 443d c521 643b 39e0 213d 41d7 ef3c
00000060: 572f 2132 2b8d 0cb1 2e6d 57b1 0280 a8ae
00000070: b463 6b34 af2f 3cb5 5538 21b3 ec73 b7b7
00000080: c7b4 6db7 c428 932e 70f6 ec32 5763 2ab8
00000090: 8fe8 d435 2ef7 86b5 3773 e536 1eac 8d33
000000a0: d33a c636 2504 7cb5 3194 9e36 b485 d4b6
000000b0: 15b0 cab6 9971 a8b3 f7b8 c8b6 e2b7 8fb7
0.24184982 0.05245485 -0.13181995 -0.018840715 -0.27675858 -0.18289326 -0.041052286 -0.16693659
0.25732052 0.026446326 0.22921063 -0.06992187 -0.2374169 0.035799343 0.041717134 -0.013398058
-0.16876796 0.020130062 0.1505071 -0.087015055 0.04807918 0.0034810167 0.039520476 0.029277446
9.382197e-09 -2.0452926e-09 -3.134868e-09 -7.662494e-11 2.1922352e-07 -7.0104846e-07 -3.7536967e-08 -2.186928e-05
-1.4168391e-05 6.6920275e-11 2.7586083e-08 -4.0623676e-05 1.5862914e-06 -1.0055717e-06 6.8381446e-06 6.597132e-08
5.907708e-06 -9.3883347e-07 4.7260187e-06 -6.3336574e-06 -6.0405678e-06 -7.843773e-08 -5.981997e-06 -1.7132556e-05

multi_physics.experts.0.0.bias f4 [4]
00000000: 8935 cf3d 8be5 aab8 7522 9f32 0fcd 0fb4
0.10117633 -8.1489874e-05 1.8525705e-08 -1.3392513e-07

multi_physics.experts.0.2.weight f4 [8, 4]
00000000: b077 b4b1 6891 fab0 2950 22ae 4ab3 5eb9
00000010: 85de 8a3e db19 d33d 3e3f eeb9 ff1d aeb8
00000020: 0d18 23b7 600b 8fae c90e e838 ae09 4d39
00000030: 60ca 54b7 8e22 c4b6 a36a e5b0 0aea f9b6
00000040: d345 f92e 9203 9dba 4ea4 0333 f18b f9ba
00000050: 4a8f cab5 e0a6 4e36 36a5 91b8 eecb 162f
00000060: c925 c43e 6f1e aa3e ae47 3031 278d 2a32
00000070: a926 973e 3296 eb3d 0aa1 222f 4096 58b5
-5.2522964e-09 -1.8231221e-09 -3.6905732e-11 -0.0002123836 0.27122894 0.10307666 -0.00045442017 -8.302554e-05
-9.721157e-06 -6.504908e-11 0.00011065376 0.0001955393 -1.2683304e-05 -5.845278e-06 -1.6692251e-09 -7.448024e-06
1.1335612e-10 -0.0011979213 3.065025e-08 -0.0019038898 -1.5091875e-06 3.0793526e-06 -6.944912e-05 1.3714871e-10
0.38310078 0.33226344 2.5652116e-09 9.927397e-09 0.29521683 0.11503257 1.4791027e-10 -8.0684913e-07

multi_physics.experts.0.2.bias f4 [8]
00000000: 2d5d 85b0 fd0d 4b3e cb0a be30 aa66 cdb3
00000010: 2c65 9c2e 797f 8232 00f0 f93d 1425 b73d
-9.703506e-10 0.19829555 1.3827387e-09 -9.564731e-08 7.1120304e-11 1.519196e-08 0.122039795 0.08942619

multi_physics.experts.0.4.weight f4 [16, 8]
00000000: 2546 b6b6 46ed c9b1 fbb2 a12f 094c c62f
00000010: dc9a daae de45 15ac 519c 02b1 1f06 a4b0
00000020: 4cad 8f31 dd0b ae3e 2eb5 dcad 7449 1736
00000030: b143 a134 8278 d8b3 24c8 093e b482 2d3e
00000040: ad0f 8730 9dee a3bd 232d 49ac ee31 2637
00000050: e31b 7632 50e3 2ab4 bb77 923e 6d8e b43e
00000060: 855f 74ac e82f 0cb6 5bf1 32ae 6c7b 18b0
00000070: f0a6 a931 0919 d1b6 7d2a 8bb5 3aa4 25b9
00000080: e881 e02f 8c71 7e3e 819b 2a2c 42d1 b435
00000090: ecd0 03b0 0443 35b2 9c4d 463d cea9 133e
000000a0: 0f7c ceaf 9bcd 00be dfe1 53af 490f 76b6
000000b0: c758 a6b1 4c76 edb4 30b1 833e 4f95 8d3e
000000c0: 4612 24b1 d36a cf3d da9d 5430 43de a734
000000d0: 3a6f 3330 9810 3b33 b54f 033e fb46 dabc
000000e0: b4b8 c632 fdcc 963d 8a26 5232 f990 a0b4
000000f0: fe48 2237 a73a f530 8610 ce3d c55d b03c
00000100: 5bed 2cb1 389a a53e d1e5 97ad ebcd 9835
00000110: d1a9 5c35 3de0 dcb1 9a5d 2bbe cfae 583e
00000120: bae3 a230 ce76 343d 88ba 2f2a 1bbd 3236
00000130: f32f 4735 b5e3 8eb3 1032 523e c7f7 5e3e
00000140: d39c f42d 5e6f 702e a639 ac34 f339 972f
00000150: 2ca6 83b7 9a36 a3b7 9f7c 74b7 0f84 1f31
00000160: cd05 142e f451 10ba e2ae 012e 23d7 5ab2
00000170: 452e 432e 4b7a e031 fc06 38ba 443c 53b9
00000180: b0f8 6a32 2ca6 873e 1f5c 1334 4d7d 05b5
00000190: 72a7 cab2 f926 9e32 2e17 833d e46b 5f3d
000001a0: dba4 d9b3 e414 323a da02 422f 963b 2132
000001b0: 3a91 e3ac 278f ebb2 dfb5 27ba c70d 6a39
000001c0: 2b08 d5ac 5dab 96b3 10c5 0630 a57c f930
000001d0: d661 a335 72d1 132f 5e8d 6034 52f6 f0b3
000001e0: c396 3cae 0fe6 e73d 39d6 022f c671 6cb5
000001f0: d6e3 b0ab 536f 1e32 e104 4d3e a52f 2bbe
-5.4321886e-06 -5.876845e-09 2.9412903e-10 3.6070016e-10 -9.941001e-11 -2.1212958e-12 -1.9006345e-09 -1.193431e-09
4.1815493e-09 0.33993426 -2.5091564e-11 2.2543509e-06 3.003784e-07 -1.0080204e-07 0.13455254 0.1694439
9.826998e-10 -0.08004496 -2.8588874e-12 9.905996e-06 1.4325425e-08 -1.591518e-07 0.28606972 0.35264912
-3.472751e-12 -2.088951e-06 -4.068688e-11 -5.547267e-10 4.937526e-09 -6.2316e-06 -1.0368673e-06 -0.00015796805
4.0837667e-10 0.24848002 2.4244775e-12 1.3471947e-06 -4.795442e-10 -1.0550824e-08 0.048413858 0.14420244
-3.755933e-10 -0.12578432 -1.9270584e-10 -3.6665754e-06 -4.8413287e-09 -4.4230762e-07 0.2572112 0.27652976
-2.3875528e-09 0.10127797 7.734947e-10 3.126789e-07 6.5277883e-10 4.3554422e-08 0.12823375 -0.026645174
2.3134227e-08 0.07363317 1.2232372e-08 -2.9907804e-07 9.672947e-06 1.7842766e-09 0.10061745 0.021529088
-2.5164215e-09 0.32344222 -1.7268771e-11 1.1384813e-06 8.22035e-07 -6.4283356e-09 -0.16734925 0.21160434
1.1851775e-09 0.044058613 1.5607838e-13 2.663414e-06 7.420305e-07 -6.65381e-08 0.2052691 0.21774207
2.7809232e-11 5.4668596e-11 3.207944e-07 2.7507915e-10 -1.5693797e-05 -1.945654e-05 -1.4572549e-05 2.3212612e-09
3.3656456e-11 -0.0005505376 2.948653e-11 -1.27381865e-08 4.4378962e-11 6.533161e-09 -0.0007020084 -0.00020144979
1.3677138e-08 0.26493967 1.3723955e-07 -4.97287e-07 -2.359204e-08 1.8411344e-08 0.064009055 0.054546252
-1.0134837e-07 0.0006793274 1.764521e-10 9.384982e-09 -6.4678514e-12 -2.7422699e-08 -0.00063976453 0.00022321111
-6.054731e-12 -7.01609e-08 4.902896e-10 1.8152561e-09 1.217292e-06 1.3443982e-10 2.0913055e-07 -1.1220676e-07
-4.2880154e-11 0.11323177 1.1899538e-10 -8.8082413e-07 -1.2568789e-12 9.222123e-09 0.20021392 -0.16717394

multi_physics.experts.0.4.bias f4 [16]
00000000: cb80 1231 edb1 3f3d 011e a7bc 7d3a 5033
00000010: 7b99 3f3e 297d 09bd 6a2a c33d f0ce 9738
00000020: 2c70 26be 7d2b fcbd de53 daaf e8a0 cdb6
00000030: d6aa b2bc 9e2c b1b7 07a4 91b5 100a 813d
2.1319007e-09 0.046800543 -0.02040005 4.848197e-08 0.18710892 -0.033566628 0.09529574 7.238786e-05
-0.16253728 -0.12312982 -3.971356e-10 -6.128208e-06 -0.021809977 -2.112082e-05 -1.085108e-06 0.063007474

multi_physics.experts.0.6.weight f4 [32, 16]
00000000: ed04 cc30 e7a0 10ba b80f 5db9 6ad1 7a33
00000010: 757a 27ba 7644 5fb9 9bb1 b0b9 d661 3eb9
00000020: 8444 d2b8 2c91 75b9 63b1 b72e c0a9 24b5
00000030: 7f07 30b9 d673 68b7 1ae8 97b0 6bc2 63b8
00000040: 86aa 9e30 0248 683e 25af 6f3e 590b 8337
00000050: 1b57 0b3d 3f48 573e f94a 053e adf2 24be
00000060: 6c50 efbd 48b2 8f3c dcb7 1fb0 27b5 2bb9
00000070: f7ac 563e 32b4 e739 b7bc ec32 0d9d 8e3c
00000080: 1098 5d31 8263 303e ce2a f53c 4413 d435
00000090: 99b9 b7bd dd0a e23d 6135 23be 51d1 4c3e
000000a0: 5f1a 563e 00d7 c93d 428e 8fb0 dbb0 bb38
000000b0: 8b4a a2bd 2d94 e3b8 dd1d 3fb3 e132 1c3e
000000c0: f185 baaf 9644 053d b5aa 463e 923a 3737
000000d0: c26b 463e 51af 433d f918 1d3d d2c2 39bd
000000e0: 7616 f8bc cfdd f1bd 6cfd 25ae 22b7 4738
000000f0: 35f3 cf3d 4d9a 493a 5bee dd32 7b77 5dbe
00000100: e5e4 bfac 5eb4 98b2 d61c 8eb2 4119 77ad
00000110: bfbe 7333 a754 6833 a500 e3b1 665a abb1
00000120: 2af2 44b2 7905 96b3 4462 d22e a192 9f2d
00000130: e8d3 04b3 80ef 9fae 01d9 6bad 7c09 6232
00000140: 735d 0930 8ca8 0abd 3e8c 3f3d 8dd6 a135
00000150: 8572 25be ee69 393e 1615 c93d 2a52 d0bb
00000160: 6c4d b33b 0dc8 ff3c 9065 2c2e 2bea cf37
00000170: 0c0c 81bd eb3f 8ab7 ed70 7f31 59bb 17bd
00000180: 63ae a4ad 5a27 0fb9 df7f 9239 a635 0734
00000190: 2f7c 6f3a 1dc8 8738 e949 e537 9ab3 6137
000001a0: 7842 97b8 b262 fcb8 c408 b22d e872 5ab4
000001b0: 3e08 8a38 a3f9 1032 103d 5baf aa65 85b8
000001c0: 0a3a f1b1 cd7a 33b4 849c 7cb3 5d5f 3f30
000001d0: 5c7a 44b4 99bc 4fb3 2edf 81b3 28aa 11b3
000001e0: f770 9cb2 3eb7 2fb3 5c94 fb2e 8d1c d02d
000001f0: 51f4 93b3 48c5 96ae 49a3 61ad 7f4b a8b2
00000200: d09d 24b0 80eb 85ba 70d0 9fba 46d6 00b2
00000210: 33fe 4eb9 2a0b 7db9 0c99 1db9 4f71 12b9
00000220: 24c3 10ba b566 83b9 8a08 bb2c f4ed 8d32
00000230: 6d89 09b9 df8f eab3 9bbd 3b31 c35b 19b9
00000240: 765b 3f2c 62af 563b ff1c dbba 6241 42b2
00000250: 7f19 0eba f70a 4dba 218b 6ab8 35e1 06b9
00000260: 6240 96b8 6e16 8039 a940 8e30 8319 6db3
00000270: dea3 8fb9 5b51 64b2 4e7c b1ac 25d8 0fb8
00000280: 6a57 8daf d5b1 2bbb 4241 543d 5d30 e131
00000290: 3ef8 bbbc 196e 1abc d0cf dcbc a50e c63c
000002a0: 3533 423d c8a4 e5bc bbca 5bad 0004 3fb6
000002b0: 6576 613d d70a 0237 16b7 33b0 c18f b0bc
000002c0: 35c5 cd30 9c28 463e fe65 b0bd cc21 e736
000002d0: 63f7 793d 5208 53be 1f73 c63d 67b6 f73d
000002e0: c438 d53b 4806 e23c 5ad3 2d2e 0705 1f39
000002f0: e17e 5c3e 9503 f939 3c9a e732 1a62 61bd
00000300: 7397 d72e 0129 1934 a556 93b6 7049 912e
00000310: 04bd 2832 12c1 89b0 6a8e 8430 9297 fbad
00000320: f597 8eaf 1fff e731 70ed 3b2f f4bd 3d2c
00000330: b1dc 6caf e342 ee2d 8315 c8b0 0e08 1e2d
00000340: 8756 632f 6c76 09bc 1399 763d 468b 0534
00000350: e433 c63b f50f 1a3a 0d50 21bc e59c 82b9
00000360: 06c8 0a3b 1a06 35bb c8bd c730 a535 8936
00000370: 8e56 3ebc d047 aa34 6e2d 8f30 cb73 15bb
00000380: bab1 46b1 e39b c03d dc85 4cbd b53e 0f35
00000390: 67a5 b63d 61cd 01be 31de 5fbd bb85 403e
000003a0: 7e30 d43d ead2 fcbd af9e 4ead 80ba ee36
000003b0: 75d4 c03d 39cf 6137 3747 9d31 af96 0bbe
000003c0: d2a5 f631 5b06 d43d cc87 5dbc 7a6d 9837
000003d0: e279 44bd e26c 843e b54e 41be 77d3 34be
000003e0: 4d65 283e e414 843e 071e f031 6420 c638
000003f0: b934 84bd 5902 9938 ca4e 4333 6c15 133d
1.4844354e-09 -0.00055171404 -0.00021082058 5.8398122e-08 -0.0006388792 -0.00021292441 -0.00033701662 -0.00018156259
-0.00010026342 -0.00023419101 8.353387e-11 -6.134178e-07 -0.0001678746 -1.3855248e-05 -1.1052663e-09 -5.4302083e-05
1.1544479e-09 0.22683719 0.23406656 1.5621701e-05 0.034018617 0.21023653 0.13016881 -0.16108198
-0.11685261 0.017541066 -5.8105143e-10 -0.00016375315 0.20964418 0.0004419401 2.7559834e-08 0.017408872
3.224617e-09 0.17225459 0.029927637 1.5800838e-06 -0.08970947 0.11037228 -0.15938331 0.20001723
0.20908497 0.09855461 -1.0445051e-09 8.949797e-05 -0.07924374 -0.000108518034 -4.4497813e-08 0.15253784
-3.3928374e-10 0.03253611 0.19401057 1.0921287e-05 0.19377044 0.047774617 0.038353894 -0.04535181
-0.030284148 -0.11809885 -3.774174e-11 4.7615853e-05 0.1015381 0.0007690534 2.5836178e-08 -0.2162761
-5.453959e-12 -1.777715e-08 -1.6544089e-08 -1.4045932e-11 5.675133e-08 5.40937e-08 -6.606643e-09 -4.987032e-09
-1.1463763e-08 -6.985915e-08 9.56715e-11 1.8141324e-11 -3.0926373e-08 -7.2730266e-11 -1.3406388e-11 1.3157088e-08
4.997311e-10 -0.033852145 0.046764605 1.2057877e-06 -0.16156967 0.18106815 0.09818475 -0.006357451
0.005471876 0.031223321 3.9198478e-11 2.4785366e-05 -0.06301126 -1.6480646e-05 3.7171575e-09 -0.037043903
-1.8722085e-11 -0.00013652202 0.0002794256 1.2592372e-07 0.0009135631 6.474576e-05 2.7333344e-05 1.3452862e-05
-7.212622e-05 -0.0001203468 2.024015e-11 -2.0344635e-07 6.581888e-05 8.438664e-09 -1.9939628e-10 -6.3608706e-05
-7.0206214e-09 -1.6715349e-07 -5.8815672e-08 6.9620915e-10 -1.8298437e-07 -4.8367472e-08 -6.047627e-08 -3.39152e-08
-1.821216e-08 -4.091202e-08 1.14405124e-10 2.3659541e-11 -6.889662e-08 -6.8562545e-11 -1.2826026e-11 -1.9592106e-08
-5.988712e-10 -0.0010217279 -0.0012192857 -7.499301e-09 -0.00019740388 -0.00024132119 -0.00015029701 -0.00013965856
-0.0005522242 -0.0002506279 5.3158077e-12 1.6522769e-08 -0.00013116533 -1.0922644e-07 2.731986e-09 -0.00014625401
2.7193504e-12 0.0032758345 -0.0016717016 -1.13071525e-08 -0.00054206693 -0.0007821763 -5.591952e-05 -0.00012863132
-7.1645496e-05 0.00024430774 1.0350237e-09 -5.5204065e-08 -0.00027397176 -1.3289845e-08 -5.044443e-12 -3.4295157e-05
-2.5709862e-10 -0.0026198525 0.051820047 6.55386e-09 -0.02294552 -0.009425663 -0.026954561 0.024176905
0.047412116 -0.028032675 -1.2493724e-11 -2.8463546e-06 0.05504455 7.751128e-06 -6.538e-10 -0.021552922
1.4971763e-09 0.19351429 -0.086132035 6.888271e-06 0.061026942 -0.20608643 0.09689926 0.12095337
0.006507011 0.027590886 3.9523364e-11 0.00015165294 0.21532775 0.0004749565 2.6962077e-08 -0.055025198
9.803971e-11 1.4264153e-07 -4.391028e-06 6.606882e-11 9.821864e-09 -1.0022936e-09 9.644741e-10 -2.8602707e-11
-2.5937621e-10 6.7519887e-09 1.7091906e-10 2.696396e-12 -2.154248e-10 2.7087171e-11 -1.4558029e-09 8.983049e-12
2.067627e-10 -0.00839005 0.060204577 1.2437258e-07 0.0060486663 0.00058770116 -0.009845746 -0.00024912428
0.0021176352 -0.0027622045 1.4533095e-09 4.089163e-06 -0.011617316 3.1717218e-07 1.0417531e-09 -0.0022804614
-2.8913818e-09 0.09404733 -0.049932346 5.33629e-07 0.08918267 -0.12676002 -0.054655258 0.18801014
0.10360812 -0.12344916 -1.1744979e-11 7.114664e-06 0.09415523 1.3459293e-05 4.5773976e-09 -0.136317
7.178394e-09 0.10352775 -0.013521146 1.8170791e-05 -0.0479678 0.2586432 -0.1887768 -0.17658792
0.16444893 0.25797188 6.988333e-09 9.447409e-05 -0.064553685 7.296046e-05 4.5473634e-08 0.0359091

multi_physics.experts.0.6.bias f4 [32]
00000000: b48f 43b8 5b64 0dbd 9583 51bd 5378 ed3d
00000010: b5ef d4b1 28b1 3abd b19b 52b5 0001 1cb2
00000020: 2e8c 5cb7 76b4 33b4 c8b4 3e37 3f67 2339
00000030: ab8e 282e 6780 b4b8 deb0 7cba 83ec a23d
00000040: 87a8 a83d 3fc1 76b2 b0d0 13b7 0af8 d731
00000050: 5b39 8a2b 700e c4b2 5e2c 81bc 3ea4 f4b5
00000060: 87d3 80b5 6574 9eb1 bb29 39ad 85d6 de35
00000070: 8e71 8abb 69bc 1839 b06f 9cb8 a005 76bc
-4.6625457e-05 -0.034519535 -0.051150877 0.11595216 -6.1972636e-09 -0.045579106 -7.8457657e-07 -9.0806225e-09
-1.314566e-05 -1.6736325e-07 1.1366974e-05 0.00015583354 3.8325492e-11 -8.606986e-05 -0.00096393924 0.07955267
0.08235269 -1.4363024e-08 -8.810472e-06 6.2855223e-09 9.821409e-13 -2.2823968e-08 -0.015768226 -1.8227217e-06
-9.598306e-07 -4.6116377e-09 -1.05252985e-11 1.6602722e-06 -0.0042249626 0.00014566038 -7.459463e-05 -0.01501599
