pretrained/xjtu_model.pth (torch, 317154 bytes, 82 tensors)

Decoupling.query.weight f4 [96, 10]
00000000: 08e1 6792 355c 0913 7c63 0c93 0f05 8492
00000010: 2db5 b814 275c 3014 b5cf 9413 f624 a713
00000020: 3db2 0290 cd5f 8b13 477f 5912 3db2 b312
00000030: 3872 5d92 83f4 1b94 b9b8 1312 f7e0 1991
00000040: 9402 7893 dcc8 0193 e415 2113 fb24 c894
00000050: 4895 7514 47e9 e10f 17c8 5a94 a5f6 9293
00000060: 7886 e913 50ab e214 8136 5092 faee fb91
00000070: 3e7e 1194 e0d9 9c13 0765 cd92 adbd 5b12
00000080: b2db c212 7068 cf93 9371 0a15 0c02 e793
00000090: 486f 8493 0215 7a91 6bc8 da93 5e73 dc92
000000a0: 1c8e 7d93 b1f9 8594 e23f 3d93 16c7 da93
000000b0: 0f05 f592 6a2c e994 3cb1 bc12 e605 fa0f
000000c0: 8026 be92 4698 fb91 9f6a c511 c0ea 2d12
000000d0: 5173 8512 0eee 1994 0d16 2614 7f67 2f11
000000e0: b546 7713 2d4d 0b14 57e9 9b94 8470 2911
000000f0: 3920 2493 7231 c313 3852 d293 61b6 e491
00000100: aa55 0e15 9409 da13 e8fa 0613 63c1 8114
00000110: 7ff4 1014 9388 1313 fb2d 2613 25e8 cb93
00000120: 14e2 2312 bfa9 c091 84fb 0213 2652 bd94
00000130: 1d2a 4913 156a ed8e 3d0f 2392 e368 1394
00000140: 92d6 9913 c337 8892 3378 bf13 4ef2 e092
00000150: 8014 3111 3703 3f14 e8d7 ef91 669b 8894
00000160: d748 ec0f 8077 d591 6ae9 1195 9d46 ac13
00000170: 192f 9792 110b 1210 0d64 8594 5652 d392
00000180: f956 b393 431a 7413 163d 0c12 9eb9 3694
00000190: b8d5 3213 fc76 4a13 f840 0215 fdc5 8214
000001a0: aa6d dd90 f4d6 0694 2332 c192 2b47 8493
000001b0: d76d 2f91 1fe9 bf11 0729 0f95 b074 af94
000001c0: a58f fe94 b468 a513 6a30 8512 feb5 2313
000001d0: fb98 3e94 4d0a cc92 29aa 4413 9aaf 4293
000001e0: 0fa9 8f11 7d89 e08f c148 a094 b3dc 2e94
000001f0: c72b 8d94 6199 3794 ce81 8b92 060b 5a93
00000200: 6054 bb94 a734 1313 cafe e792 f551 5513
00000210: b684 5293 82f1 a113 3f77 7191 fcb6 3513
00000220: 8ec8 ed94 4eee 9492 212a 2c93 6b05 0494
00000230: 7fa3 ed12 40f8 b714 9441 0813 46f6 4c11
00000240: 2210 e812 d773 0215 7d93 0495 9c6d 8e93
00000250: 2b5f e313 059c 1a93 7fd7 8413 905b 9214
00000260: 4531 0c93 22d8 9a94 e8e6 6114 8ff9 2810
00000270: 7993 4913 9047 3a95 8dcd e993 319c f492
00000280: 71fd 4b92 23cb 8e14 4d0c 0011 807f 1014
00000290: b360 9993 66e9 6f93 5789 0d94 d50c ee13
000002a0: dee9 ff13 2e4f a611 a757 5914 4f2d bc94
000002b0: a850 7b90 a7b0 8194 743b 4094 0193 6513
000002c0: 5e8b 4293 3a35 0d13 4ae9 7590 3311 8d12
000002d0: bea4 0493 42bb 9e92 6429 1294 f7f5 910f
000002e0: 6e22 1592 757d 8a13 c0f1 0315 d0ca 7d92
000002f0: 371a 8314 fba6 b512 3e82 bb90 5ca9 c891
00000300: 6e56 bc93 4274 3513 6915 8713 7c0c a512
00000310: 59b8 ce91 133c 1814 ea84 5794 fde4 0315
00000320: 14e0 1011 2987 c411 674c d792 3db6 6794
00000330: dc71 6392 a1a4 d012 f0b2 5b8e 50f9 0d92
00000340: 4b2b 0314 cd85 2e93 4cda cd92 25c4 9b12
00000350: 8327 0690 fcb0 e414 b471 8112 47c6 8493
00000360: d9e2 8f13 67d5 a812 01d7 3e14 a086 fb8f
00000370: 9101 2494 0d1a 4813 1b17 0a13 a250 ce12
00000380: f0c4 6592 732b 0195 9b30 1a93 ef5a 2812
00000390: e7d7 a491 6f3d fe12 41b7 9894 1cbd 9c93
000003a0: 8f0c a494 ec17 1b92 7728 5e12 8e7a 7a93
000003b0: 7147 3715 151b d613 3ccd fc93 d302 a812
000003c0: 5cbe a894 108d b193 8c28 9893 2e85 9193
000003d0: ccab da93 61fe 0b14 9713 c893 babd 8713
000003e0: d447 8992 84e7 9c13 6c2b 0492 701b 3c92
000003f0: 75f4 9413 5108 c811 e382 c291 c180 7614
-7.316812e-28 1.7337293e-27 -1.7719534e-27 -8.331618e-28 1.8650713e-26 8.903903e-27 3.7565267e-27 4.2193173e-27
-2.577529e-29 3.5183e-27 6.863001e-28 1.1340427e-27 -6.987609e-28 -7.8737216e-27 4.661271e-28 -1.2138894e-28
-3.1303272e-27 -1.638112e-27 2.033185e-27 -2.0209425e-26 1.23987795e-26 2.2276568e-29 -1.1045648e-26 -3.709879e-27
5.8950066e-27 2.2887739e-26 -6.570041e-28 -3.9748098e-28 -7.345526e-27 3.9594778e-27 -1.2962224e-27 6.933801e-28
1.229728e-27 -5.235713e-27 2.7958472e-26 -5.8314616e-27 -3.3431216e-27 -1.9727996e-28 -5.5228564e-27 -1.3912392e-27
-3.2003155e-27 -1.3528054e-26 -2.388665e-27 -5.522725e-27 -1.5462921e-27 -2.3544506e-26 1.190816e-27 2.4654175e-29
-1.2000177e-27 -3.9694663e-28 3.114683e-28 5.4878526e-28 8.421908e-28 -7.771474e-27 8.385207e-27 1.3836958e-28
3.1210644e-27 7.032927e-27 -1.5743037e-26 1.3366421e-28 -2.0715597e-27 4.9273677e-27 -5.3092527e-27 -3.6084457e-28
2.874425e-26 5.504038e-27 1.7036884e-27 1.3101949e-26 7.3183605e-27 1.8621345e-27 2.0974816e-27 -5.1473317e-27
5.1712394e-28 -3.0396873e-28 1.6532314e-27 -1.9116525e-26 2.539053e-27 -5.8527164e-30 -5.1452514e-28 -7.442289e-27
3.8834213e-27 -8.596553e-28 4.8333704e-27 -1.419612e-27 1.3969155e-28 9.64367e-27 -3.7840614e-28 -1.3793785e-26
2.3299454e-29 -3.3679122e-28 -2.9466648e-26 4.3488534e-27 -9.54105e-28 2.8801948e-29 -1.3469031e-26 -1.3336269e-27
-4.5271714e-27 3.0810078e-27 4.4251505e-28 -9.225258e-27 2.257213e-27 2.5554648e-27 2.6304542e-26 1.3204738e-26
-8.7338094e-29 -6.807663e-27 -1.2192372e-27 -3.339166e-27 -1.3838913e-28 3.0278159e-28 -2.8910985e-26 -1.771651e-26
-2.5704104e-26 4.17551e-27 8.405415e-28 2.0663221e-27 -9.622719e-27 -1.2876749e-27 2.4822573e-27 -2.457282e-27
2.2665612e-28 -2.2141064e-29 -1.6184568e-26 -8.82828e-27 -1.4254629e-26 -9.2693876e-27 -8.804133e-28 -2.7520903e-27
-1.8915455e-26 1.8579968e-27 -1.464096e-27 2.6924788e-27 -2.6571158e-27 4.088026e-27 -1.9048293e-28 2.293563e-27
-2.400999e-26 -9.39886e-28 -2.1730223e-27 -6.6653654e-27 1.4997108e-27 1.8576195e-26 1.7197946e-27 1.6168651e-28
1.4645235e-27 2.6344672e-26 -2.6773535e-26 -3.5953923e-27 5.73967e-27 -1.9514456e-27 3.353398e-27 1.4778348e-26
-1.7694776e-27 -1.5635276e-26 1.1405135e-26 3.332441e-29 2.5442476e-27 -3.7618854e-26 -5.9020158e-27 -1.5437069e-27
-6.4367896e-28 1.4418459e-26 1.010121e-28 7.295287e-27 -3.8717983e-27 -3.0281115e-27 -7.145766e-27 6.00923e-27
6.460166e-27 2.623898e-28 1.0972987e-26 -1.900102e-26 -4.9563157e-29 -1.3095348e-26 -9.705248e-27 2.8976342e-27
-2.4554956e-27 1.7822945e-27 -4.849745e-29 8.902591e-28 -1.6741966e-27 -1.0017364e-27 -7.379279e-27 1.4392846e-29
-4.705855e-28 3.4959808e-27 2.6645946e-26 -8.008271e-28 1.323796e-26 1.146387e-27 -7.3959165e-29 -3.1658812e-28
-4.75431e-27 2.2902731e-27 3.4099903e-27 1.0416042e-27 -3.2614682e-28 7.6858864e-27 -1.0880939e-26 2.663588e-26
1.1428646e-28 3.1006646e-28 -1.3587242e-27 -1.169846e-26 -7.1768913e-28 1.316723e-27 -2.707999e-30 -4.4799056e-28
6.622348e-27 -2.2027856e-27 -1.2991133e-27 9.830229e-28 -2.645728e-29 2.3091925e-26 8.169075e-28 -3.3517e-27
3.6321964e-27 1.0654898e-27 9.634951e-27 -2.4802367e-29 -8.280193e-27 2.5256393e-27 1.742944e-27 1.3020305e-27
-7.2502403e-28 -2.6085618e-26 -1.9461497e-27 5.3123537e-28 -2.6007698e-28 1.6044798e-27 -1.5420359e-26 -3.9566413e-27
-1.6564722e-26 -4.893886e-28 7.0100725e-28 -3.161486e-27 3.7012913e-26 5.40479e-27 -6.381612e-27 1.0602987e-27
-1.7038748e-26 -4.482018e-27 -3.8410177e-27 -3.673447e-27 -5.520034e-27 7.067874e-27 -5.0506415e-27 3.4265876e-27
-8.663623e-28 3.960823e-27 -4.1705377e-28 -5.935616e-28 3.7601506e-27 3.1559562e-28 -3.0688468e-28 1.2445218e-26

Decoupling.query.bias f4 [96]
00000000: c479 8013 69eb a712 6d02 2712 edbf 3093
00000010: 3cd2 4892 bc52 1794 e80c 5892 b035 1893
00000020: ac80 5c11 a852 4312 2bdc 7e93 c342 3a94
00000030: af5d 1995 dd72 9013 6c43 7094 f740 8713
00000040: ec48 d593 8365 1995 f7af 9494 b279 c793
00000050: a0d9 8892 683a 7393 fbf4 4d93 ccbe ad12
00000060: 68b8 2f14 325f 7814 98d6 4b92 ff3a 5993
00000070: 82af d493 5175 1713 3b20 0413 cae0 6b13
00000080: eee9 ab91 de83 2793 8085 1c92 a6aa c694
00000090: 6dc5 1a12 c725 e094 e85c 2411 bf75 b110
000000a0: e5b0 0e14 7190 5b11 ffbd d890 4016 9892
000000b0: bbc3 fc93 52f4 1013 11a7 bc94 a723 d80f
000000c0: fec1 cf92 372e 2891 70c3 1c95 bd15 0191
000000d0: 64d4 b413 cc58 8492 06b0 0b93 1459 cf11
000000e0: b078 0995 ade0 2111 cff2 5893 a886 8412
000000f0: 54bc f092 17b1 8712 77d4 e993 ae50 2b91
00000100: 5f99 8a12 b538 8513 eefc ce14 d890 a011
00000110: 774e 9712 0330 2194 ecf5 3793 bd00 8593
00000120: d35c d213 913a b011 e3ef e391 c0fd ef93
00000130: 4503 7214 2575 3313 78c3 f291 4807 a012
00000140: 86c7 c411 97c1 bd14 69bf 8791 90ad 3c14
00000150: 34ac 8313 9af7 0195 2e66 2092 7c7e 8913
00000160: a3a6 2313 54e6 7191 9915 a294 a5e5 a214
00000170: 6a7c 8413 6cd5 7894 ddf9 9c93 9d49 5a13
3.2431813e-27 1.0597215e-27 5.26989e-28 -2.230895e-27 -6.3368006e-28 -7.639868e-27 -6.817349e-28 -1.9211567e-27
1.739459e-28 6.163303e-28 -3.2167858e-27 -9.403767e-27 -3.0972007e-26 3.6463974e-27 -1.21302e-26 3.414285e-27
-5.3840666e-27 -3.0978183e-26 -1.5013587e-26 -5.0354663e-27 -8.636455e-28 -3.0699708e-27 -2.5995422e-27 1.096487e-27
8.87161e-27 1.2539574e-26 -6.4320013e-28 -2.7418338e-27 -5.3689388e-27 1.911672e-27 1.6676633e-27 2.9772e-27
-2.7123213e-28 -2.1143379e-27 -4.938947e-28 -2.00602e-26 4.883718e-28 -2.263312e-26 1.2965948e-28 6.9995607e-29
7.204054e-27 1.7320563e-28 -8.5489713e-29 -9.598034e-28 -6.380675e-27 1.8295814e-27 -1.9049045e-26 2.1312977e-29
-1.3111359e-27 -1.3267104e-28 -3.1658122e-26 -1.0183004e-28 4.564782e-27 -8.352261e-28 -1.7631053e-27 3.271374e-28
-2.7762135e-26 1.2769894e-28 -2.7382747e-27 8.3635665e-28 -1.5192556e-27 8.563354e-28 -5.9026976e-27 -1.3514383e-28
8.746833e-28 3.3629838e-27 2.0900448e-26 2.5332816e-28 9.548783e-28 -8.1378914e-27 -2.3219096e-27 -3.357465e-27
5.3102985e-27 2.7803998e-28 -3.5962127e-28 -6.05823e-27 1.22185225e-26 2.2650733e-27 -3.8301335e-28 1.0099215e-27
3.1046313e-28 1.916048e-26 -2.141721e-28 9.5258036e-27 3.3238855e-27 -2.6246666e-26 -5.0613044e-28 3.4708385e-27
2.065565e-27 -1.9082523e-28 -1.6366339e-26 1.6448399e-26 3.3444166e-27 -1.256289e-26 -3.962632e-27 2.7551763e-27

Decoupling.key.weight f4 [96, 10]
00000000: 5a65 fb12 ce8b ea11 c0fd 1c12 0fdc e712
00000010: 81f2 0915 58d9 2893 4940 8012 1219 aa91
00000020: f5a1 9f13 909c e713 6d32 9a13 b2f7 9411
00000030: 64d6 1615 9993 9894 4551 6313 00a0 0b94
00000040: 627b bb13 7f50 c994 25ac ef8f b225 cc93
00000050: d4b4 4992 c6e4 c411 b462 8110 e8ea 4f12
00000060: b17c 8193 68bd 2f94 1f5a 5c91 25db 5514
00000070: 0046 da94 2cb4 7610 100b 8813 4ac4 5e11
00000080: 79fb de94 2d43 a493 c1ba 7a13 cd6d 6513
00000090: ceeb 7293 26ef 2892 a963 aa94 9bb2 9393
000000a0: 3d99 ea12 9650 3c12 2ebb db12 5ec8 c994
000000b0: b302 1513 5982 9690 c02f db8f 9fe3 d992
000000c0: 586e b812 7812 8c11 7e3d d993 b2ec 1595
000000d0: d820 a314 6103 ad94 beee 6213 66e0 0d90
000000e0: c56b 4f12 b174 f512 0b58 9a12 e0fb 9c91
000000f0: 86e2 2214 2a56 a212 108f 2494 bd0c 9f12
00000100: c665 7011 d6be 1214 d5de ae91 784b 3412
00000110: b370 d392 eb9c 4790 8554 6713 79cc 6b14
00000120: 145b d093 27fa 5a94 574b ab12 06db ff14
00000130: 226d f212 11dd 8712 8484 4792 61e0 b613
00000140: be95 0592 81c3 f293 0f98 3512 036c 5192
00000150: d5bb f811 0c73 ef13 28a8 6c14 2c21 cb93
00000160: 400d 4e94 b02d 0393 c939 2113 7b66 3014
00000170: 8051 a393 a42a 5b94 d1cd c713 6d2d 9113
00000180: 4bac 2993 06df f792 420f bb90 2c86 4e13
00000190: 8d66 0492 7c2b 1d14 5440 0415 80b8 3713
000001a0: b913 2592 9b6b 7393 2c1a 0390 1b27 f214
000001b0: 6d11 ac92 2b75 3593 03bc 1395 51e4 8f14
000001c0: 416c 4b92 9e16 bc13 e391 0495 2169 cc92
000001d0: de18 7a13 51f1 4811 f0cb 8b13 962e c313
000001e0: c484 3493 883a 9a13 8756 0814 112e a492
000001f0: 27df 6813 8dc4 1f94 da13 6f12 231b 6312
00000200: 7bec 2f13 0368 1014 6e97 1e13 3302 8494
00000210: 691b 1513 e98c 9792 6252 4d94 d49b e791
00000220: e4ad ad93 2574 c212 07e0 4013 6e81 5014
00000230: 6be9 cd13 5fa8 a993 08c2 4314 fc98 0094
00000240: 109b 2b14 bc39 6c10 08b3 3492 cee4 9c12
00000250: f19b cb12 9c1d 2912 4353 ed12 7696 b194
00000260: a9fa 4493 331a fd12 4b9d ad11 6c3e 5391
00000270: 157f fe12 7fa5 8694 0a4b e494 35d0 3794
00000280: 3e6f 9293 865d 5f93 9c66 0294 5ee6 0092
00000290: f117 b293 4975 2593 0097 4f92 0a45 2310
000002a0: c5dc b513 fbf6 dd92 c9ec 8811 d026 2f14
000002b0: 92ac 5b93 907e 0213 1a9b 9512 3ef6 3690
000002c0: 905f 4d93 1c71 1b93 2fae c493 62a0 3014
000002d0: e003 4d13 355f e491 31bf 3713 5eb0 1314
000002e0: 44c8 9f11 a2ff e913 94e9 ed13 59e6 9191
000002f0: 4d65 b910 d46a 9c93 b0a5 3014 cd71 9292
00000300: e4b5 cd90 2c05 c714 d892 7593 eab5 d893
00000310: 5acd 2711 20b1 e693 1cea 9c94 4c48 0f93
00000320: bb10 cc92 43f6 c792 21c9 8412 382d 3995
00000330: 45cd 0214 6036 5393 0198 4314 d815 a213
00000340: 46b8 1511 0f13 6414 ce79 5e93 c033 2914
00000350: 7fd6 0614 3c3d 6d94 4a35 0594 e7ac 1d13
00000360: a30e 0e12 8448 1f94 0b25 d612 9ca1 0113
00000370: ef10 5794 44cc 4c91 0dd5 3811 c075 d212
00000380: 6e95 bc93 9330 3610 b5be f292 a1a0 9814
00000390: 130c 5411 7340 3a15 a1a5 1393 6419 e714
000003a0: 78a6 c493 14ba bf12 1545 c194 c6d7 8b94
000003b0: 999e 1e94 3cac 4313 973b b412 5e0b a713
000003c0: 3083 5213 0c39 9292 8415 1695 7bdf 2594
000003d0: 000f f693 cff5 ac12 f791 d711 7c51 1a93
000003e0: e0b8 6113 0ee4 be14 a775 b211 ebb1 b491
000003f0: 3887 0994 2fdb 1093 0d3d e693 392f a811
1.5865312e-27 3.7004852e-28 4.953769e-28 1.4632398e-27 2.785823e-26 -2.131174e-27 8.093783e-28 -2.6836722e-28
4.0296945e-27 5.846698e-27 3.892479e-27 2.3502937e-28 3.0461383e-26 -1.5406295e-26 2.8691497e-27 -7.049261e-27
4.73271e-27 -2.0327563e-26 -2.3633527e-29 -5.153401e-27 -6.3647305e-28 3.106434e-28 5.1033605e-29 6.5607227e-28
-3.2687133e-27 -8.872596e-27 -1.7382711e-28 1.07969705e-26 -2.2039985e-26 4.8653745e-29 3.4342135e-27 1.7573198e-28
-2.251546e-26 -4.146566e-27 3.1646513e-27 2.8958e-27 -3.0660955e-27 -5.3306226e-28 -1.7204922e-26 -3.7284136e-27
1.4805252e-27 5.942167e-28 1.3866986e-27 -2.0374844e-26 1.8807775e-27 -5.93654e-29 -2.161346e-29 -1.3750738e-27
1.1639234e-27 2.2099488e-28 -5.4839137e-27 -3.027703e-26 1.6471749e-26 -1.7469869e-26 2.864292e-27 -2.7980217e-29
6.545052e-28 1.549044e-27 9.740471e-28 -2.476769e-28 8.223584e-27 1.0244878e-27 -8.308098e-27 1.0037451e-27
1.8964023e-28 7.408752e-27 -2.758969e-28 5.6891008e-28 -1.3343755e-27 -3.9366715e-29 2.919797e-27 1.1904793e-26
-5.259639e-27 -1.1055521e-26 1.081019e-27 2.583481e-26 1.529925e-27 8.574195e-28 -6.2956666e-28 4.6164514e-27
-4.215197e-28 -6.128217e-27 5.7300956e-28 -6.6081906e-28 3.9243261e-28 6.0445527e-27 1.1948118e-26 -5.1277114e-27
-1.0402955e-26 -1.655705e-27 2.0349547e-27 8.90594e-27 -4.122735e-27 -1.1065084e-26 5.0437613e-27 3.664794e-27
-2.1415746e-27 -1.5642871e-27 -7.3782003e-29 2.6067007e-27 -4.177826e-28 7.93505e-27 2.6707934e-26 2.3188813e-27
-5.208913e-28 -3.0723966e-27 -2.5855357e-29 2.445118e-26 -1.0859022e-27 -2.290318e-27 -2.983473e-26 1.4529365e-26
-6.418894e-28 4.7480174e-27 -2.6772272e-26 -1.2900126e-27 3.1566697e-27 1.585158e-28 3.528963e-27 4.9270858e-27
-2.2784653e-27 3.893278e-27 6.88331e-27 -1.0361211e-27 2.939254e-27 -8.066211e-27 7.543957e-28 7.166202e-28
2.22047e-27 7.290655e-27 2.0017064e-27 -1.3329461e-26 1.8819958e-27 -9.564177e-28 -1.0366102e-26 -3.654141e-28
-4.384281e-27 1.2271753e-27 2.4344261e-27 1.0526842e-26 5.1979443e-27 -4.2827624e-27 9.88325e-27 -6.492519e-27
8.6638744e-27 4.658727e-29 -5.701866e-28 9.901389e-28 1.2849544e-27 5.3363494e-28 1.4977328e-27 -1.7931779e-26
-2.4862263e-27 1.5973003e-27 2.7391527e-28 -1.66642e-28 1.6060982e-27 -1.3595819e-26 -2.3051714e-26 -9.2802005e-27
-3.6965275e-27 -2.8192668e-27 -6.583559e-27 -4.067363e-28 -4.4957125e-27 -2.0883754e-27 -6.5503805e-28 3.2199268e-29
4.590852e-27 -1.4007946e-27 2.1602947e-28 8.8428966e-27 -2.772677e-27 1.6470707e-27 9.441457e-28 -3.608287e-29
-2.5921754e-27 -1.9619518e-27 -4.9649114e-27 8.917359e-27 2.5876548e-27 -3.6030733e-28 2.3192112e-27 7.456386e-27
2.52092e-28 5.9069543e-27 6.0057537e-27 -2.301893e-28 7.312571e-29 -3.9485277e-27 8.918405e-27 -9.241949e-28
-8.113849e-29 2.0095905e-26 -3.0995747e-27 -5.4705447e-27 1.3237256e-28 -5.823482e-27 -1.5844314e-26 -1.8084783e-27
-1.2878334e-27 -1.2619374e-27 8.379953e-28 -3.7396124e-26 6.603805e-27 -2.6658753e-27 9.8749616e-27 4.091609e-27
1.1810811e-28 1.1514817e-26 -2.8080394e-27 8.5425254e-27 6.807573e-27 -1.19775186e-26 -6.7252934e-27 1.9901433e-27
4.482534e-28 -8.04175e-27 1.35144305e-27 1.6361769e-27 -1.0858066e-26 -1.6155707e-28 1.4580692e-28 1.3281891e-27
-4.760522e-27 3.593059e-29 -1.531936e-27 1.5411435e-26 1.6727572e-28 3.7613242e-26 -1.863567e-27 2.3335054e-26
-4.9641507e-27 1.2099666e-27 -1.9515268e-26 -1.4120521e-26 -8.008239e-27 2.4697378e-27 1.1374287e-27 4.2167936e-27
2.6570407e-27 -9.2279585e-28 -3.0309232e-26 -8.374445e-27 -6.211392e-27 1.0915323e-27 3.4010977e-28 -1.9477708e-27
2.8490143e-27 1.9275049e-26 2.8155957e-28 -2.8508643e-28 -6.9433996e-27 -1.8283421e-27 -5.8120363e-27 2.653483e-28

Decoupling.key.bias f4 [96]
00000000: dd80 f493 4a36 9b94 8a94 d191 d670 b892
00000010: 3e2d e713 abbe 2212 3421 1a12 8ee8 6091
00000020: 6536 ac93 21bb 8713 5ede db92 a7c1 d892
00000030: 3056 cb93 d8b9 2193 d4d3 7892 5e92 e892
00000040: 6ac6 1692 b576 0e14 4193 2994 1553 4d14
00000050: 08cc 1794 03ba cf92 5f8a 8a12 0217 e892
00000060: 9cb7 f093 451d a48f 8c34 bc92 d807 f993
00000070: 59d5 5692 2375 2513 689d e913 f0fa 4492
00000080: d8ce 5a91 3c12 cc91 3ba7 5a13 9fc9 6b13
00000090: bb0b 8f92 f523 f492 855e ae14 05cf 0a94
000000a0: 3a03 2392 2436 3592 414c a312 e0f1 1a14
000000b0: 5ed9 0191 2fd5 7093 312e 3f94 b85d 7893
000000c0: 305d bf12 6098 b693 341a f192 8f86 6a92
000000d0: 9806 9210 f39c 8912 c9a5 1c13 dfe3 fc90
000000e0: 2f6a 4a13 95f5 a092 c411 1215 a769 d393
000000f0: 3121 7313 4141 3591 54be e513 bc50 8112
00000100: f728 1a14 4e10 bf12 090f 2412 bfe0 5c12
00000110: cdb1 4293 4f82 bf90 0e8d 4794 080c 0c94
00000120: e790 2013 f77e 1514 2ccc 8313 b823 f394
00000130: 1072 0313 bcff 8112 4fc6 9c13 a3b7 d092
00000140: c57d 4514 ff3a 0b14 759f 0512 d306 c292
00000150: 4218 b114 26d0 1493 8164 0312 2e8a ba13
00000160: 7857 df14 c248 2893 3b65 9814 8d7a bf10
00000170: a974 cb93 320a 4a14 0b84 6a94 ba06 2994
-6.172133e-27 -1.5672414e-26 -3.306593e-28 -1.1639849e-27 5.835721e-27 5.1353203e-28 4.863476e-28 -1.7742146e-28
-4.347254e-27 3.4263314e-27 -1.3875661e-27 -1.3679255e-27 -5.132939e-27 -2.0412685e-27 -7.85161e-28 -1.4677341e-27
-4.757622e-28 7.192579e-27 -8.56136e-27 1.036624e-26 -7.66379e-27 -1.3109392e-27 8.7431355e-28 -1.464693e-27
-6.076557e-27 -1.6182923e-29 -1.1877422e-27 -6.286417e-27 -6.7789465e-28 2.088368e-27 5.8972684e-27 -6.2156e-28
-1.7260906e-28 -3.2196763e-28 2.759792e-27 2.9760577e-27 -9.027461e-28 -1.5407429e-27 1.7606791e-26 -7.008047e-27
-5.143771e-28 -5.7180263e-28 1.0305544e-27 7.8227145e-27 -1.0243287e-28 -3.0397366e-27 -9.652145e-27 -3.1348208e-27
1.2076767e-27 -4.6093512e-27 -1.5215698e-27 -7.4003237e-28 5.7597005e-29 8.6846065e-28 1.9771707e-27 -9.9747565e-29
2.5548337e-27 -1.015796e-27 2.949848e-26 -5.336807e-27 3.0687277e-27 -1.429849e-28 5.7995405e-27 8.160947e-28
7.783092e-27 1.2057814e-27 5.176781e-28 6.969678e-28 -2.4573905e-27 -7.553699e-29 -1.0074751e-26 -7.0705665e-27
2.0266282e-27 7.547617e-27 3.327038e-27 -2.4550818e-26 1.6590762e-27 8.204088e-28 3.9575484e-27 -1.3171915e-27
9.970762e-27 7.0293415e-27 4.2163946e-28 -1.2244804e-27 1.7882e-26 -1.8782851e-27 4.146019e-28 4.7089257e-27
2.2551746e-26 -2.1240454e-27 1.5388006e-26 7.5525036e-29 -5.135944e-27 1.02004045e-26 -1.1840022e-26 -8.533646e-27

Decoupling.value.weight f4 [96, 10]
00000000: 4a80 7dbe 259d 353e 4b0a b63d 5c1a 01be
00000010: ce60 d5bd 9607 fdba 47f8 923d 3dcc 2f3c
00000020: 0357 43be ef84 08be ffc2 f93d 2006 a7bd
00000030: 9f36 a5be 0ed7 0bbe 82d4 163c bd3f 103d
00000040: 5649 113d 9aa0 1abe 5e03 71be f3a7 b5bd
00000050: 7a78 2dbe 0d4d 11be 760c 91bd 8956 f9bd
00000060: 9839 5ebe 0748 22be ec2f 4abe 5b9e 13be
00000070: 1853 9bbe b549 42bd 0fdf 3bbb e8a6 33be
00000080: 3904 10be ac4f 01be 58d3 11be d465 aabd
00000090: e23f 44be ae4e 70bd 2822 b7be 3c11 ed3c
000000a0: b6b8 1e3e ec9e 5d3e ce64 64be 2798 d0bc
000000b0: 3749 61be 1851 cd3d efcf 7fbe 10fa 52be
000000c0: 3d78 cbbe c725 43be 1920 ad3d 21c2 b6bd
000000d0: e4f5 453e c4de 993d 4738 353d 827a d1bb
000000e0: c759 d3bd d306 30be d820 a43e 8dea cebd
000000f0: 7b06 f43c d229 5d3d 9ef6 a03d b909 903c
00000100: 5ce2 edbd 4a44 1dbe 6c1c 303e d300 daba
00000110: 479e ae3e c90b d93c 6cf5 adbd dbb6 27be
00000120: 1484 e9bd 6212 c5bd cddc 04be 67ae 8fbd
00000130: 8412 83bd 1d34 6cbe 3c74 fabd 96ae 1a3e
00000140: d1b1 7b3d ac8b db3d ab6e 6a3e 5324 ccbd
00000150: 94f3 2dbd d341 ae3b 85a1 9b3d e67f 24bc
00000160: eeb7 c13e 09de fb3b df16 d4bd 954d f83c
00000170: bedd 83be b6e2 d9bd 9bdf 653d 245c 2ebd
00000180: adde 32be c42f 0abe b08d 93bd c3c0 02be
00000190: 615b 93be 1974 00be 7b00 173e ef07 dabd
000001a0: 6e7b cdbd 455c 34be d15e 9f3d b805 f2bd
000001b0: 6725 bdbd ea9b 2b3d 3e16 e63d 6c54 3e3d
000001c0: 3f3f ef3d 6e9e 543d ccde a3bc b08d 0ebe
000001d0: 839f afbb 64b8 803e 1030 a73b d79d 01be
000001e0: 30cf a2be ae8c 353d 9b6c c0be 74f2 4ebe
000001f0: 197e 453e c475 4a3d 516a 973d dec2 74bc
00000200: 4a05 d0be af29 02be 9eb0 80be 00b3 bcbd
00000210: 10eb 53bd 02d1 10be 6409 443e 3315 60be
00000220: 2aa9 88be 9b85 4a3e 98e4 ccbe 025c 3e3e
00000230: 7c85 e0bc 5bf2 45be 9672 ed3d e799 ecbd
00000240: 2ec7 debd d953 5dbe 337f 98be dc14 93bc
00000250: 2005 d2be 01ad af3d 64b1 e1bd 6a7e ed3d
00000260: d6bf 34be 8612 3b3c a0e0 abbc 75d4 733c
00000270: b72c 10be e76d 48be cd6a 20be d630 15be
00000280: 6499 62be 1667 3ebe 6a88 32be 6576 45be
00000290: 9075 303e e411 2c3e 3c65 fbbc d20d ee3d
000002a0: 8e44 64bc 268b 6cbe f711 613d 51a2 7fbd
000002b0: d9a7 e3bc 7473 0c3e f58d 24bd 4970 92bd
000002c0: 6c6e 703d 9b51 e3bd c8c2 c43e ade4 2a3e
000002d0: 4366 703e 9c94 97bd d0d9 573e 93a1 c23d
000002e0: 8a74 dbbd e85a 2d3e f0b4 02be 857a 5dbd
000002f0: 24ed de3d c343 43be 5015 e0bc 2d51 d63d
00000300: bf9c 06be 0928 cf3d 02c4 e5bb 55dc 8fbd
00000310: 8778 17be be51 12be ed8f 4abe 4bfc e9bd
00000320: ff88 36be 60dd 1c3d bb0a 20be a04d 58be
00000330: 7d99 9a3d c4f9 fa3d 99b6 3dbe ae06 853d
00000340: f49d 90be 6ea9 a2bc 6427 963e a436 0ebb
00000350: 6c65 01be 9d4d 893e c7ad fb3b 1e1e ccbd
00000360: eee6 57bd a6f1 873e 92a4 1e3e fdd7 0c3e
00000370: 5be0 6d3e f53f 06be 78ee 2e3e 1138 92bd
00000380: 814f 703e f413 5abd e502 6b3e e249 e13d
00000390: e624 bc3e 20a2 18be 6279 0a3d c2a7 463d
000003a0: 983e ad3d 8233 f23c 5bba d93d 636d 03be
000003b0: cb53 99bc 4d6a fc3d 5791 863e 0135 4b3e
000003c0: 52de a5bd 025c be3d 5d90 5dbe 0d06 a2bd
000003d0: a524 e4bd 42eb fc3d b0c4 cebc 00c6 773d
000003e0: bb03 19bd 45ff 303d 32e0 b83d a45e 83bd
000003f0: 5a6f 4abd b3ce 043e fb59 cf3b 6d8c e0bd
-0.2475597 0.17735727 0.08888682 -0.12607712 -0.10418855 -0.0019304629 0.071762614 0.010729847
-0.19076161 -0.1333196 0.12195396 -0.08155465 -0.32268235 -0.13656256 0.009205939 0.035217036
0.03547033 -0.15100327 -0.2353644 -0.088699244 -0.1694049 -0.14189549 -0.07082455 -0.121747084
-0.21701658 -0.15847789 -0.19744843 -0.14415877 -0.30336833 -0.047433574 -0.0028666889 -0.17544138
-0.14064111 -0.12628049 -0.14240777 -0.083202034 -0.19164994 -0.058668785 -0.35768247 0.028938882
0.15500149 0.21642655 -0.22304079 -0.025463177 -0.22000585 0.10025233 -0.24981664 -0.20603204
-0.39740172 -0.1905738 0.08453388 -0.08923746 0.19332081 0.07513192 0.044243123 -0.006392778
-0.10319858 -0.17190103 0.32056308 -0.10103331 0.029788246 0.05399496 0.078595385 0.017582761
-0.1161544 -0.15358081 0.17198342 -0.0016632326 0.3410513 0.026494877 -0.08494076 -0.16378348
-0.11402145 -0.09622647 -0.12974854 -0.070156865 -0.06400016 -0.23066755 -0.12229201 0.15105662
0.061448876 0.1072 0.22893779 -0.09967866 -0.042468622 0.0053179055 0.07599167 -0.010040259
0.3783564 0.0076863808 -0.10355925 0.030310431 -0.25755113 -0.10638945 0.05612145 -0.04256834
-0.17467757 -0.13494784 -0.07204759 -0.12768845 -0.28780654 -0.12544288 0.14746277 -0.106460445
-0.10033308 -0.17613323 0.07781757 -0.11817497 -0.092356496 0.041896738 0.11234711 0.04646723
0.11681985 0.051908903 -0.020003699 -0.13921237 -0.0053595915 0.2514068 0.005102165 -0.12657867
-0.31798697 0.044323616 -0.3758286 -0.20209676 0.19286384 0.049428716 0.07393325 -0.014939038
-0.40629035 -0.12711214 -0.25134748 -0.09213829 -0.051737845 -0.1414223 0.19144207 -0.21883087
-0.26691562 0.19777529 -0.40018153 0.18589786 -0.0274074 -0.19330733 0.11594121 -0.11552792
-0.10877834 -0.21614017 -0.29784545 -0.017954282 -0.41019535 0.0857792 -0.11020163 0.11596377
-0.17651305 0.011417991 -0.020981133 0.014882197 -0.14079557 -0.19573174 -0.15665741 -0.1456941
-0.22128826 -0.18594012 -0.1743485 -0.19283445 0.17232347 0.168037 -0.03068792 0.1162373
-0.01393236 -0.23099956 0.054948773 -0.062410656 -0.027789997 0.13715917 -0.040174443 -0.07150323
0.058699057 -0.110995494 0.38429856 0.16688795 0.2347651 -0.07401392 0.21079183 0.09503474
-0.107155874 0.16929209 -0.12764335 -0.05407192 0.10885075 -0.19068818 -0.027353913 0.10464702
-0.13145731 0.10115058 -0.0070118913 -0.07024447 -0.14792071 -0.14288995 -0.19781466 -0.11425074
-0.17825697 0.038297057 -0.15629093 -0.21123362 0.07548807 0.1225467 -0.18526687 0.06495415
-0.2824551 -0.019856181 0.29326928 -0.0021700049 -0.12636346 0.26817027 0.007680628 -0.09966682
-0.052710466 0.2655155 0.15492466 0.13754268 0.23230116 -0.13110335 0.17083156 -0.071396
0.23467828 -0.053241685 0.22950323 0.1100042 0.367469 -0.14905596 0.033807166 0.04849983
0.084592044 0.029565576 0.106312476 -0.12834696 -0.018716713 0.12324963 0.2628276 0.19844438
-0.08099045 0.09294893 -0.21637101 -0.0791131 -0.11139802 0.12349559 -0.025240272 0.060491562
-0.037357073 0.043212194 0.09027137 -0.06414536 -0.0494226 0.12969474 0.006327865 -0.10964284

Decoupling.value.bias f4 [96]
00000000: 9f17 33be 85ce 65be 3d02 21be 4f82 b13d
00000010: c89c f73c 1061 9b3e ef4b a73e 1306 16be
00000020: ad17 81bd 6795 b83c 6c4b 8fbe 825f 313e
00000030: 8d1a eebd adc0 92be b2a5 8abe 591a 6bbe
00000040: 3fb2 383c 3696 8a3e 65d3 823e 6707 cfbd
00000050: 900e 44be b26e 5bbd 0840 dabd 867c 17bd
00000060: 1480 89be 4f2d 583e 43de a6be d280 efbd
00000070: 3751 233e 186c 13be 2480 a0bc 8172 6e3e
00000080: b35b 9b3e f1ac a63d 0175 6ebd edc7 693e
00000090: 4885 833d a620 e7bd d6c0 a2bc 40af 0c3e
000000a0: 1b83 3f3e 289b 0e3e 5341 423e bcff ce3d
000000b0: b033 673c df91 1e3e 56a4 f73d 1f3b 6bbe
000000c0: fd69 a63d 3fd3 39be b6e3 5dbe dd49 043e
000000d0: 8967 ff3d aa9f dbbc 2af0 46be 10d1 0e3e
000000e0: fead 443e 9d42 103d ae78 013d afeb 8dbe
000000f0: 9a93 b73d 4fd2 863d 208b ea3d 22d3 223e
00000100: 3def 4fbc 426c 04bd b85c 893e 207d 803e
00000110: ff48 33be af8d 873e bcf8 b23e a5ff c63d
00000120: 19e9 84be 2bfc bb3d cd22 e8bd e993 f33d
00000130: 0c7a a0be 534e 0e3e bd4e 873d b606 45bd
00000140: f31e 1c3e 6e58 3a3d 9306 19be 7c1e 51be
00000150: b331 21bc 68bc bb3d 3d34 883d 7d6a fb3c
00000160: ba7b 17bd b312 423e cbc0 a1be 5734 6d3e
00000170: 280d 80bd 9647 553e 4cce 0c3e e0d3 44bd
-0.1748948 -0.22442062 -0.1572351 0.086674325 0.030226126 0.3034749 0.3267512 -0.14650755
-0.06303344 0.022532178 -0.2798723 0.1732159 -0.11626158 -0.28662625 -0.2707954 -0.2295927
0.011272966 0.27067727 0.25551906 -0.10108834 -0.1914618 -0.053572364 -0.10656744 -0.03698399
-0.26855528 0.21111034 -0.32591447 -0.116944924 0.1594895 -0.14396703 -0.019592352 0.23285867
0.30343398 0.08138455 -0.058217052 0.22830172 0.06421906 -0.11285524 -0.019867342 0.13738728
0.18702357 0.13926375 0.18970232 0.10107371 0.014111444 0.15485333 0.120918915 -0.22971772
0.081256844 -0.1814699 -0.21668896 0.12918802 0.1247092 -0.026809532 -0.19427553 0.13946939
0.19206998 0.035219777 0.03160923 -0.27718875 0.089637 0.06583082 0.11452317 0.15900853
-0.012691316 -0.032329805 0.2682855 0.25095463 -0.17508315 0.26475284 0.34955394 0.09716729
-0.2595909 0.091789566 -0.11334763 0.11893446 -0.31343114 0.13897066 0.06606815 -0.048102103
0.15246181 0.04549449 -0.14943914 -0.20421785 -0.009838509 0.09166795 0.06650589 0.030690426
-0.03698323 0.18952446 -0.31592402 0.23164497 -0.06252509 0.20828089 0.13750571 -0.048053622

Decoupling.fc_out.weight f4 [11, 96]
00000000: cc47 bf3d e392 f73c 5063 143e 29d4 f63d
00000010: 3d5a f93d ae6c cdbd 2f1e fabd f66b 073e
00000020: 3d45 d1bd 4ed9 333e 15d1 73bd dc9e ca3b
00000030: 745f 293e 1c6f 223e f4ac b93d dd15 273e
00000040: a594 853d 02de cebd 949c 1cbe 4f65 473e
00000050: 3199 d53d 9ee0 8dbd df3d a7bd 6f85 f1bc
00000060: cc07 c03d 672e 5dbd 4b7b 5e3d 251d b6bd
00000070: 5ca8 5abd e33b bfbd a7d6 293e abd3 f2bd
00000080: 2ea8 2ebd 3c89 4a3c b0bc 1b3e 266e 3bbe
00000090: 4052 66be 1429 0f3d 4514 033e 274d edbd
000000a0: 560f 5fbe b81f 31bd faef f5bd b275 b4bd
000000b0: 59ef 18be 7333 2fbe f045 bebd dbd5 ac3d
000000c0: c049 5ebd 5ddc 833c 4c69 fe3d 7dce f0bd
000000d0: 4bb3 bdbd d118 d13d f2b0 c03d 1e6c e33c
000000e0: 1c94 b5bc c24b 0dbe b663 733d 6879 983d
000000f0: d9e4 adbc 7a82 8a3d 7099 9fbd d66e bfbd
00000100: 4033 48be c505 b83d 422b 59bd 1d87 3fbd
00000110: c8a3 933d 92fb 0abe e231 02be fff7 49bd
00000120: 7ef2 d83d 1f8f cfbd 6fd0 42bc 7631 d83d
00000130: 9512 a83d f1be 82bd 1a60 43be 5067 c63d
00000140: 972f 56bd 6f8a 86bd 9f15 cc3c 6446 563e
00000150: ab97 b7bd 7f1f 8fbc f387 d33d 3c9e 42be
00000160: 8814 2abe 26b5 14be 40db 933d f90d a1bd
00000170: 8c2f 313e dbf6 69be afc9 1c3e b543 4f3e
00000180: d561 32bd 2370 dabd 25fc 81bd bde3 50bd
00000190: 7d90 8cbd a6e9 b03d bba3 5b3d f751 86bd
000001a0: a794 003d 4aad 28bd eeda 66bd bbbd 63bc
000001b0: c5d4 e0bd e579 2bbd a38c 4c3b a3ab d6bd
000001c0: de0b 1f3d 8011 e43d a2ac aa3d 9afb 56bd
000001d0: 596d 13bd c6e5 b33c 8467 4a3d 54b1 483c
000001e0: d65c 29bd 75eb 87bc f16d 80bd fec6 253e
000001f0: 546e c43d 6acc 803d 8d9a 9ebd c787 773c
00000200: 78d1 d03d 321e 60bd 8f4e 87bd bd84 2b3d
00000210: 9f7d df3d 0e74 07be fbaa a63c 5673 b63d
00000220: fa53 213e 07dc bd3d 4ff6 bd3d d866 a93b
00000230: 292f b638 43f8 c13d 12d9 633d 7fd2 60bd
00000240: a781 a13d 5399 d33a e4de 82bc 8cd7 9b3d
00000250: ecaf cc3c e37b 82bd c213 a2bd 37ba 973c
00000260: c48a ddbc 22ce c23d c279 003c 600f 98bc
00000270: 6b68 69bc baf4 abbd 5538 c4bc 52c6 9d3d
00000280: 3eee 4c3d 8d70 e1bd a0d6 9e3d 94b5 a83d
00000290: 5d9b cfbc 4890 ec3c c1cb eb3d 1a39 5e3c
000002a0: 13cb a1bd f81c 283d f017 88bd 7843 4dbd
000002b0: 47ea d1bd 226d 813d 1265 c93d a254 a1bc
000002c0: c0dc 343d ddec 1d3c bd59 aabd d71a 0bbe
000002d0: 9774 cf3d 8451 a43d 171a c1bd 11d4 a13d
000002e0: 4007 773d 6b83 ba3d 69dd 01be 9a43 2b3d
000002f0: 5371 95bd 1b5e aa3d 0742 7abd 3825 c2bd
00000300: daf1 803d e383 8a3d 4276 273d 98f9 7e3d
00000310: 8b04 9b3d ddd9 bfbd 4457 0abd 073f 973c
00000320: 3baa 36bd f2d2 2c3b d854 26bc e111 dc3c
00000330: dc8f 073d 71bd dc3d f6c5 893b 2ce3 8d3d
00000340: 8fec c13a 056d b6bd e0b0 28bd 994c 4ebb
00000350: 7736 77bb 4baf d0bb 87cb 9ebc 0775 24bd
00000360: 0af0 843c 2e15 e63c 5af5 68bb 01f6 a8bd
00000370: 4036 bbbd 867c 1cbd d5f7 b53d 8e66 81bd
00000380: 1b7e 8ebd 3d26 433d 4053 933d faa2 8ebc
00000390: dc18 8bbd 1051 e53d 88c8 31b9 d768 cebc
000003a0: 0d8c 3ebe 41d1 17bd b715 783b 1b97 f3bc
000003b0: 9b2f 703b 30d2 c0bd 0890 86bd 5098 373d
000003c0: 7cc3 95bd 14b9 8bba 8f04 b63c ee2f 91bd
000003d0: 5878 8abc d8f4 7e3d 3cb6 a33c ad30 543c
000003e0: 9d23 df3c d4ff 71bd 60b3 af3a 3618 45bc
000003f0: 6c2a 713c d0d6 343b f310 1bbc 6433 e4bd
0.09339866 0.030221408 0.1449101 0.12052185 0.12175415 -0.10030495 -0.12212788 0.13224778
-0.10218284 0.17563364 -0.059525568 0.0061834883 0.16540319 0.15862697 0.09066191 0.16316934
0.06522492 -0.101009384 -0.15294105 0.1947224 0.104296096 -0.06927608 -0.08166098 -0.029482571
0.09376487 -0.05399933 0.0543168 -0.08892278 -0.053383216 -0.09337594 0.1658579 -0.11856779
-0.042640857 0.012361821 0.15208697 -0.18303737 -0.22492313 0.034951285 0.12800701 -0.11586981
-0.21783194 -0.04324314 -0.120086625 -0.08811511 -0.14935054 -0.1710947 -0.09290683 0.08439227
-0.054269552 0.016096288 0.124224275 -0.117581345 -0.09262713 0.102098115 0.0940875 0.027761515
-0.02216535 -0.1379843 0.059421264 0.074450314 -0.021227287 0.06763168 -0.07792938 -0.09347312
-0.195508 0.089854755 -0.05301977 -0.046759713 0.07208973 -0.13572529 -0.12714341 -0.049308773
0.10593127 -0.1013472 -0.011890515 0.10556309 0.08206669 -0.063840754 -0.19079629 0.09687674
-0.05229148 -0.06569373 0.024912653 0.2092529 -0.08964475 -0.017471073 0.10328665 -0.19005674
-0.16609395 -0.14522228 0.07219553 -0.07863993 0.17303294 -0.22848074 0.15311311 0.20240672
-0.04355033 -0.1066592 -0.06346921 -0.05099844 -0.068634965 0.08638315 0.053622942 -0.06558602
0.031391766 -0.041180886 -0.05636113 -0.013900216 -0.109780826 -0.041864295 0.0031211756 -0.10481956
0.038829677 0.1113615 0.08333708 -0.05248604 -0.035992954 0.02196015 0.049415126 0.01224931
-0.0413483 -0.016591767 -0.0627097 0.16189191 0.09591356 0.06288989 -0.07744322 0.015108055
0.10196203 -0.054716296 -0.06606781 0.041874636 0.10912632 -0.13227865 0.020345202 0.08908717
0.15754691 0.092704825 0.09275495 0.0051697306 8.6872205e-05 0.0947118 0.055626936 -0.054888245
0.07886057 0.0016143717 -0.015975423 0.07609472 0.02498623 -0.06371286 -0.07913925 0.018521411
-0.027043708 0.09511973 0.007841529 -0.018562019 -0.014246087 -0.08396287 -0.023952642 0.07703842
0.050031893 -0.110077955 0.0775578 0.08237758 -0.025342638 0.028877392 0.11513472 0.013563419
-0.079000615 0.04104325 -0.06645191 -0.05011317 -0.10249763 0.063196436 0.09833731 -0.019693676
0.044155836 0.009638992 -0.083178975 -0.13584457 0.101296596 0.0802336 -0.09428804 0.079017766
0.06030965 0.09107097 -0.12682118 0.041812517 -0.072970055 0.083187304 -0.061098125 -0.09479755
0.062961295 0.06763437 0.040884264 0.06224975 0.07569226 -0.09367726 -0.03377463 0.018462671
-0.04459594 0.002637085 -0.010152064 0.026863994 0.03309618 0.107783206 0.004204507 0.06928095
0.0014795231 -0.089075126 -0.041184306 -0.0031478761 -0.0037721673 -0.006368553 -0.019384159 -0.04015067
0.01622774 0.028086271 -0.0035546632 -0.082500465 -0.09141207 -0.038204692 0.08885161 -0.06318389
-0.069576465 0.04764389 0.07193613 -0.017411698 -0.06791851 0.11197102 -0.00016954739 -0.025196476
-0.18608113 -0.037064794 0.003785474 -0.029735139 0.0036649469 -0.0941509 -0.065704405 0.04482299
-0.07312676 -0.0010660016 0.02221897 -0.0708922 -0.016903087 0.06224522 0.019984357 0.012951058
0.027238661 -0.059081867 0.0013404898 -0.012029698 0.014719587 0.0027593859 -0.00946449 -0.111426145

Decoupling.fc_out.bias f4 [11]
00000000: 62da e0bd f09b 473d e7d9 86bd 1c32 b83c
00000010: 5b12 6cbd 226f f93d d5f1 a13d c832 8b3d
00000020: 6663 95bd bb67 0bbe bb55 7d3c
-0.10979153 0.048732698 -0.0658453 0.022484832 -0.057634693 0.121794 0.07907454 0.06796795
-0.07294349 -0.13613789 0.015462334

multi_physics.experts.0.0.weight f4 [4, 12]
00000000: 75de 713b 32d0 a9be b0c5 7c3e c614 5cbd
00000010: f0f1 d73d 38e1 ccbd 4a8e a03e 616d b13e
00000020: f78d 583e 2c5b c13c e268 77be 8bcb 3b3e
00000030: dc8b 05bd fa87 c0bd 5163 083d 2c8c b2bd
00000040: 2f0f 1a3e c4cd 2fbd 93a0 2f3e 8a82 a63d
00000050: 1d7e ab3d 7496 c8bd 1863 0fbd 7a05 bc3d
00000060: 920b 9a3d 07b5 51be fe17 99bc 68e6 26be
00000070: e7ca 753e eb4a 68be fe26 1c3e eb08 ad3e
00000080: 25cc a03e c72d 9ebe 2718 17bd 2a14 823e
00000090: d58d edbd fa86 c3bd dcb5 b43d 7c55 97bd
000000a0: bd5a be3d 65be b8bd 27f1 bf3d 775d bd3d
000000b0: 3f67 b53d 3bb0 c1bd 5991 b4bd dc9a ba3d
0.0036906276 -0.33166653 0.24684787 -0.05373075 0.10544193 -0.100038946 0.31358558 0.34653762
0.21147905 0.023603044 -0.24161103 0.18339364 -0.032604083 -0.094009355 0.03329784 -0.08718142
0.15044855 -0.042920843 0.17151098 0.08130367 0.083736636 -0.09794322 -0.035006613 0.09180732
0.07521738 -0.20479213 -0.018688198 -0.1629883 0.24003182 -0.22684829 0.1524925 0.33795866
0.3140575 -0.308943 -0.036888268 0.2540601 -0.11599318 -0.09547229 0.088237494 -0.07389352
0.09294651 -0.0902069 0.09372168 0.09246343 0.08857583 -0.094574414 -0.08816785 0.09111568

multi_physics.experts.0.0.bias f4 [4]
00000000: e490 42be 2d1e 7d3d 4345 9cbd a241 02bb
-0.19000584 0.061796356 -0.07630398 -0.0019875546

multi_physics.experts.0.2.weight f4 [8, 4]
00000000: 0d9c 04bc 40ac 83ba 966f 48bd 6231 a3b8
00000010: ede4 58bb 35fd b0b3 049a 26bc c735 061f
00000020: 70d5 743e c861 853a bd37 bc3d 6996 c83d
00000030: 4c30 e8b9 d67b 31a4 8e49 a2bb b331 c223
00000040: 433e bb3e 5889 ac3e 562b c83e 611f 0cbe
00000050: c1ef 35bc 3f30 1bba 27c4 8cbc 6633 3496
00000060: 7eaf 2abd 944c bfba 2390 69bd 0dc8 9db8
00000070: af0d 0abd be30 672f 4f7d 95bd 430d 8e2e
-0.008093846 -0.0010045841 -0.04893454 -7.781644e-05 -0.0033095435 -8.241697e-08 -0.010168556 2.8420087e-20
0.23909545 0.0010176236 0.09190319 0.097943135 -0.00044286472 -3.848565e-17 -0.004952616 2.105457e-17
0.3657094 0.33698535 0.39095563 -0.13683845 -0.011104525 -0.000591997 -0.017183376 -1.4556503e-25
-0.04167127 -0.0014594966 -0.057022225 -7.523606e-05 -0.033704456 2.1026644e-10 -0.07299291 6.459768e-11

multi_physics.experts.0.2.bias f4 [8]
00000000: 3cc5 4c39 d845 449e 0fe6 c7be d09a 48a3
00000010: 22c2 e63e b5b8 0722 8b05 90b3 7f89 c231
0.00019528432 -1.0390597e-20 -0.39042708 -1.08748045e-17 0.45069987 1.8393695e-18 -6.706531e-08 5.6617746e-09

multi_physics.experts.0.4.weight f4 [16, 8]
00000000: be70 9b3b 82e7 3ab9 ec99 673e 4393 14bb
00000010: 4067 a6bd 89af 9aba f22d 4fbd 6f49 63bc
00000020: 16dc 76bb 6b26 74b0 5a5b febd 3404 6fb1
00000030: 3c97 e63d 477c 36b8 3ba4 ecbb 4390 08b8
00000040: cf8e 2c91 1e04 e191 c19a 98bc 03dc 3495
00000050: c6c5 2ebd 34ff af14 6e2b ee13 178c 9014
00000060: b1dc 71ba 45c7 8220 63ed 5bbe 19da 0ca3
00000070: 0d8e 063e a46a faa7 2b37 493a 4781 18b2
00000080: b285 6c3b ed04 69b9 093e 1a3b 76fb adba
00000090: a5b3 b83e e43a 42bb 4655 3dbd e44b 0bbc
000000a0: bc6a b43b f8cb 4033 ad68 5c3e defd 7b36
000000b0: 7299 443d bcd9 bc37 33ae 8e3c 2ba4 ac3a
000000c0: dbc2 bb13 b35f bb9c 9226 39bd cfdd b394
000000d0: c758 8bbc c502 4418 0bad a991 dade a693
000000e0: e707 3d12 4fe1 d392 570c 0b3a 3d46 a913
000000f0: 0470 3bbc 61f4 5a13 4eda 6194 bed6 e912
00000100: 8c86 fe92 89fe 2f93 52c3 40bd fdcb 9d15
00000110: 2f76 9abd 43e8 1e13 90e8 a094 6c0e f813
00000120: 6cfb 2b39 b91d 4799 80b0 0e3d df3a d8a1
00000130: c30b e23d a3e6 f194 2522 6a22 368c 82af
00000140: 9e8b 863b 7476 7125 7b87 adbd 2617 2f36
00000150: 6206 b03d a111 dd2d 87af 8f3c 0df4 de39
00000160: 1fda 713b 634e 4db9 a405 f1bc 46ae 71ba
00000170: 45a3 913e 7828 35bb 2b84 2fbd b387 0dbc
00000180: 079d c13a 4129 379c d39f cb3b 3f4e 4123
00000190: 781f 983e 5b43 6819 5707 892f 5c3a 0baf
000001a0: 024b 7913 9ef3 ea0f 9e75 3599 7811 9593
000001b0: 9d80 ecaa d272 3892 55d5 8914 6d65 2193
000001c0: 5aa0 4cbb f9b8 04b6 63fa d6bd 6d63 79b8
000001d0: 6f7a 093e 14af 03ba 1658 e9bc 52e7 adba
000001e0: fe1c a4bb 2dcc 54b5 b180 08be 446a 70b8
000001f0: 8a08 f43d 2c84 b8b9 a6a5 e0bc 259d 24ba
0.0047436645 -0.00017824586 0.2261731 -0.0022670783 -0.08125162 -0.0011801581 -0.050580926 -0.013872488
-0.0037667803 -8.882128e-10 -0.12419768 -3.4781467e-09 0.112593144 -4.3507924e-05 -0.0072217262 -3.255928e-05
-1.3612414e-28 -3.5501278e-28 -0.01862848 -3.652427e-26 -0.04266908 1.7771144e-26 6.012247e-27 1.459554e-26
-0.0009226306 2.2154722e-19 -0.21477275 -7.635599e-18 0.13140126 -6.950456e-15 0.0007675762 -8.876959e-09
0.003609043 -0.00022222447 0.002353551 -0.0013273794 0.36074558 -0.0029637152 -0.0462239 -0.00850198
0.005505888 4.4888992e-08 0.21524306 3.7549685e-06 0.0479979 2.2512737e-05 0.017417049 0.0013171484
4.739758e-27 -1.239936e-21 -0.0452028 -1.8161869e-26 -0.017010106 2.5333805e-24 -2.6770145e-28 -4.212404e-27
5.9647625e-28 -1.3371515e-27 0.0005304268 4.2730858e-27 -0.011440281 2.7635956e-27 -1.140265e-26 1.4757305e-27
-1.6062822e-27 -2.22136e-27 -0.047061272 6.373363e-26 -0.07542073 2.0056918e-27 -1.6247601e-26 6.2618223e-27
0.00016401493 -1.0294061e-23 0.034836292 -1.4652312e-18 0.110373996 -2.4425751e-26 3.173099e-18 -2.3746488e-10
0.004105999 2.0943551e-16 -0.084731065 2.6090506e-06 0.085949674 2.513262e-11 0.017539753 0.00042524972
0.0036903692 -0.00019579525 -0.029421635 -0.0009219389 0.28444877 -0.002764253 -0.042850655 -0.00863831
0.0014771529 -6.060294e-22 0.006214121 1.047912e-17 0.2971151 1.2007721e-23 2.492537e-10 -1.266271e-10
3.14652e-27 2.316802e-29 -9.381233e-24 -3.7630113e-27 -4.2011265e-13 -5.820169e-28 1.391761e-26 -2.0371064e-27
-0.0031223507 -1.97772e-06 -0.10496976 -5.9458824e-05 0.13425611 -0.0005023342 -0.028484385 -0.0013267791
-0.005008339 -7.927327e-07 -0.13330342 -5.7319427e-05 0.11915691 -0.0003519369 -0.027422737 -0.000627952

multi_physics.experts.0.4.bias f4 [16]
00000000: dfd3 8e3e a676 ff3d 50f7 4db6 f6bb e53d
00000010: 0268 533e 9a04 3fbe c3d7 6a3c 16a1 cdba
00000020: e055 91bb b1f7 ef3d b1a5 88be df53 ae3e
00000030: 2d79 963c 05be dd98 789e f93d 3051 4d3d
0.2789602 0.12473802 -3.0691335e-06 0.11217491 0.20645145 -0.18654099 0.014333668 -0.0015688266
-0.004435286 0.11717165 -0.26688913 0.34048364 0.018368328 -5.731903e-24 0.12188429 0.050126255

multi_physics.experts.0.6.weight f4 [32, 16]
00000000: 848c 833e cd43 f83d 41ba 45b7 ef92 80bd
00000010: 8385 8c3d c709 37be 1197 f7bb fb02 d039
00000020: 35e5 a1b9 f49e cd3b 8ec1 cebd 1683 103e
00000030: d0e9 15be 0255 eb17 7829 49bd d8c3 5d3e
00000040: 569e 603b 195f 1dbe 051b 32ba 6caf 503e
00000050: 88c6 f63d f915 8f3d a678 97bc 405f e03a
00000060: 8606 21bb 8ccd d7bd 59df 6dbe 5d0f 173e
00000070: 6279 5e3e e6db 7218 d6d4 afbd b727 853d
00000080: c530 4aa2 8e76 76b1 ed30 aa90 2597 f2ac
00000090: 6d17 91bb 4c28 24b5 5cb7 301c 47a9 b392
000000a0: 6bc0 3a13 10b9 06b7 b344 73a3 76ae 01bb
000000b0: 6067 04bb 39ea 5a93 4842 7db5 34f7 41b1
000000c0: 818b 8c3e bd68 6f3e 6e3b 47b9 4a5e 1f3e
000000d0: d47b e63d 0705 1cbd 4c9a 4fbc 1049 1a3a
000000e0: 0cde 91ba 52ef bd3d a019 b1bd 6cd2 6a3d
000000f0: f138 203e 00d6 b917 bd6d 0b3e 4298 043e
00000100: b850 5194 0d32 5496 11ad de93 fa82 ec15
00000110: 5303 8fb0 5398 aa16 ddde 9313 fb72 c491
00000120: d8d6 2194 c448 cc99 ad68 1614 3624 84ab
00000130: fad6 06ac b3b3 6f8f dd15 ba97 881b a216
00000140: 1c5d f3ba cd0e 833b 82ee 2112 b9d8 5dbb
00000150: 83ed 4abc 50f2 1abc 0959 0493 ae73 5212
00000160: 4db5 5e93 fb86 41bc 866d 15bc c4d5 13bd
00000170: 3eda 2fbc 9d7c e212 ed79 6dbc 2118 ca3c
00000180: 2613 2814 00cc 6f16 a6e8 1a94 ce8a 3715
00000190: 0948 01b2 2aae 419a 48b7 f694 6831 7c10
000001a0: bd8f 9792 1b68 1b9b f5e3 7415 830a 93ad
000001b0: 7cf1 52ae 3b15 1391 f5b9 9095 261f 3a96
000001c0: 74c1 1fbe 4f2c f6bd 2e5c e4a1 1fe8 39be
000001d0: 8aa7 83bc 9e0f 58be 2c1f b1b9 fb10 1c34
000001e0: 38d0 8c30 96ec 883e b14c 563e ca76 5c3d
000001f0: 46c1 353e 0a5e 8c96 7950 08be 65fd 083e
00000200: 5e4f e43d 777d c43d 4dfb 529d b8ca 45bd
00000210: 1c8d 433e 111f 0b3e 137a 24bb 0943 5133
00000220: e2c1 08b1 5c36 883c 4a84 73bb 87d2 643e
00000230: 9390 6e3c 9045 7e16 5e08 413e d815 ac3c
00000240: 883c 82b7 fc77 c9b8 5cfb ea91 34ae b3b8
00000250: 378e 40b9 4bfc ecb8 6572 8c92 8d32 4793
00000260: c727 ce13 293c 0eb9 4048 4fb8 7129 3cb9
00000270: ee3f 32b9 9bf0 3091 3133 e9b8 891c c4b8
00000280: 2b07 fb3d e3ab e3bd d326 2f26 19ce f9ba
00000290: 279e 09bd dece 0d3e 9fca cbbb 153a b036
000002a0: 1ba0 e230 3d0d 173e 7d1a 783e 0dfa 7f3e
000002b0: 1409 483e fa29 2717 1224 7a3e 38c8 f73d
000002c0: 40ef ae3d a1bc eebd e992 11ba aa78 bd3d
000002d0: a7f0 073b 90a6 60bd 0b42 a8bc 740c 863a
000002e0: d13b 31bb 6f42 6f3d 3d10 c43c 31fa 243e
000002f0: 0e88 03be 03ca 9518 a4dc 793e 7bb1 8bbc
00000300: 018d 18be 9a7f c93b 39d1 8139 9305 c23d
00000310: 4419 123e 6361 943d c2e0 553c fbbb 67ba
00000320: d007 693b c55f 923d 6c52 823e 76d5 193d
00000330: 190c b03b 286d 0118 9ed4 6a3d a454 873d
00000340: 1091 4a98 a9a3 a5b2 fdbe 8e94 6344 11b1
00000350: 1327 26bb 2827 50b4 1e1f 8e98 a0ec b112
00000360: 69ea 8b94 a3c7 d4b6 6ad5 35a1 ba2a b2ba
00000370: 5ee7 8cba 9e30 6491 3443 a8b5 bb65 ceb2
00000380: 9fde 843c dba8 32be 3b94 c7b7 f3ef 833d
00000390: 2c06 7c3e 6b99 fa3d 43ba 1cbc 607a fd39
000003a0: 14b6 5eb9 c888 04be ee21 14be 263e 603e
000003b0: bf31 e83d 8c9a e617 05f9 aa3d 3e51 e53d
000003c0: 15fd 343e 03af 2e3e 68c9 7bb9 1d6f 35be
000003d0: 6f67 a03d ba00 32be 30f3 40bc c72d 883a
000003e0: 2bed d6ba 52e7 633e e9b9 4a3e 051d a63d
000003f0: e95f 34be fe86 5198 b042 4d3e 53e0 503d
0.25693142 0.12122307 -1.1785481e-05 -0.06278025 0.06861403 -0.17874824 -0.0075558503 0.00039675072
-0.00030879086 0.006275052 -0.100955114 0.14112505 -0.14639974 1.5207978e-24 -0.049111813 0.2165674
0.0034274063 -0.15368308 -0.00067941874 0.20379418 0.120495856 0.06986613 -0.018490147 0.001711823
-0.0024570539 -0.10537252 -0.23229732 0.14751954 0.21725991 3.1388787e-24 -0.08585517 0.06501716
-2.7401923e-18 -3.5865102e-09 -6.712856e-29 -6.894834e-12 -0.0044278414 -6.11534e-07 5.84705e-22 -1.1338218e-27
2.357137e-27 -8.030111e-06 -1.3187604e-17 -0.0019787825 -0.0020203218 -2.763095e-27 -9.4346296e-07 -2.8225715e-09
0.27450183 0.23379798 -0.00019000258 0.15563312 0.11254087 -0.038090732 -0.012671065 0.0005885521
-0.0011128797 0.09274162 -0.08647466 0.05732958 0.15646721 1.2009366e-24 0.1361608 0.12948707
-1.05677224e-26 -1.7141017e-25 -5.6211335e-27 9.5526285e-26 -1.0405564e-09 2.7561111e-25 3.7327777e-27 -3.099421e-28
-8.170793e-27 -2.1122495e-23 7.593708e-27 -9.389215e-13 -1.9161881e-12 -1.18182186e-29 -1.2025487e-24 2.6189886e-25
-0.0018567177 0.003999567 5.1096626e-28 -0.00338511 -0.012385729 -0.009457186 -1.670464e-27 6.64069e-28
-2.8109728e-27 -0.011811967 -0.009120351 -0.036092535 -0.010733185 1.4293325e-27 -0.014494401 0.024669709
8.485609e-27 1.9370637e-25 -7.820895e-27 3.7066053e-26 -7.525167e-09 -4.0052153e-23 -2.4911944e-26 4.9736298e-29
-9.564874e-28 -1.2854938e-22 4.9455234e-26 -1.6716633e-11 -4.7962953e-11 -1.1602797e-28 -5.8454525e-26 -1.5034789e-25
-0.1560114 -0.1202017 -1.5474281e-18 -0.18154953 -0.0160711 -0.21099707 -0.00033783296 1.453481e-07
1.024552e-09 0.26743 0.20927693 0.053824224 0.17749509 -2.2677567e-25 -0.13311948 0.13377912
0.111479506 0.09594243 -2.7923188e-21 -0.04828903 0.19096798 0.1358607 -0.0025097176 4.8722573e-08
-1.9900814e-09 0.016627483 -0.0037157708 0.22345935 0.014560836 2.0539907e-25 0.18850848 0.02100651
-1.5525395e-05 -9.606776e-05 -3.7073603e-28 -8.567833e-05 -0.00018363526 -0.0001130035 -8.863443e-28 -2.5142255e-27
5.2040934e-27 -0.00013564587 -4.9419934e-05 -0.00017944515 -0.00016999218 -1.3958094e-28 -0.00011119841 -9.3513234e-05
0.122572266 -0.11116769 6.076794e-16 -0.0019058614 -0.03359809 0.13848445 -0.0062192227 5.2519704e-06
1.6489169e-09 0.14751144 0.24228854 0.2499773 0.19534713 5.401359e-25 0.24427822 0.120987356
0.08541727 -0.11657072 -0.00055532024 0.092515305 0.0020742805 -0.054846346 -0.020539304 0.00102271
-0.002704371 0.058412965 0.023933524 0.16111065 -0.1284487 3.8719577e-24 0.24400574 -0.017052403
-0.14897539 0.0061492445 0.0002476068 0.094737194 0.1426745 0.072451375 0.013054075 -0.0008839962
0.0035557635 0.07147173 0.25453508 0.037557088 0.005372536 1.672797e-24 0.057331674 0.06607941
-2.6181126e-24 -1.9282952e-08 -1.4413667e-26 -2.113915e-09 -0.002535288 -1.9385755e-07 -3.673756e-24 1.1228603e-27
-1.4127872e-26 -6.341333e-06 -6.1607637e-19 -0.0013593056 -0.0010750105 -1.800101e-28 -1.2536534e-06 -2.4027818e-08
0.016219435 -0.17447226 -2.3791674e-05 0.06442251 0.2461173 0.122362934 -0.009565893 0.00048347097
-0.00021239399 -0.12942803 -0.14466068 0.21898708 0.11337613 1.4902415e-24 0.08348278 0.11197136
0.17674668 0.17058949 -0.00024012255 -0.17718168 0.078322284 -0.1738309 -0.01177673 0.0010389619
-0.0016397586 0.2225621 0.19797482 0.08111004 -0.17614712 -2.708077e-24 0.2004497 0.050995182

multi_physics.experts.0.6.bias f4 [32]
00000000: 185e ae3d 53f2 543e fb50 04ae d277 a73e
00000010: 648e a815 6f28 85bc 23f7 6215 38fd 12be
00000020: 275a 30be 6be9 c7b8 00b0 a63d 21e1 af3e
00000030: c38a 16be 5134 2daf 5cd5 6dbc c1ca 913e
00000040: addf 2f3e 07a4 353e 3f75 9a3e a840 70be
00000050: bbee febb a3c8 ecbb d7ef cf3d fdb0 ab3e
00000060: 1370 933e 8c01 c9b2 6a29 07b5 b8ca 42bd
00000070: 342a b33e 2e04 cfb5 e4e9 babd da37 813e
0.08514041 0.20795564 -3.008525e-11 0.32708603 6.807931e-26 -0.016254632 4.5835293e-26 -0.14354408
-0.1722189 -9.532537e-05 0.08139038 0.34351447 -0.14701371 -1.5752845e-10 -0.014516201 0.28475
0.1717517 0.17738353 0.30167577 -0.23462164 -0.0077799237 -0.007226066 0.10153168 0.3353347
0.28796443 -2.3400183e-08 -5.0351684e-07 -0.04755661 0.34993136 -1.5423918e-06 -0.09126642 0.25237924
